pth/model.pth (torch, 502673 bytes, 16 tensors)

conv1.0.weight f4 [6, 3, 3, 3]
0.19911197 -0.07487803 -0.1671981 -0.12009372 -0.17036507 -0.014546466 -0.10889639 -0.14628384
-0.061698705 0.27252987 0.2361725 -0.15642907 -0.01080918 -0.035827603 0.096792124 0.18173751
0.036958765 0.23263997 -0.074404195 0.15104426 -0.10532507 0.09553634 -0.071472384 -0.12224981
-1.2187607e-05 0.04485783 -0.021437151 -0.1878058 -0.07993729 0.047195636 -0.055555716 -0.08121678
0.17434064 0.19616638 0.010636481 0.0068432586 -0.14168048 -0.034321085 -0.1159198 -0.021101173
0.073341645 0.013968646 -0.12687907 -0.11995464 0.04141717 -0.11648006 0.06536147 -0.033398703
0.18217863 0.14165916 0.017547052 0.1703215 -0.038728863 -0.038533177 -0.15865214 0.18863916
0.21578878 0.14279224 0.29916957 0.27330157 0.05320513 0.2289979 0.08582659 0.008031146
0.10329985 0.17715836 0.18011992 0.061800655 -0.087462254 -0.18954124 -0.23100343 -0.021603733
-0.038439587 -0.24378592 0.12781896 -0.007120878 -0.04583901 -0.20482768 0.052696966 -0.059358723
-0.13196291 -0.011565343 -0.111884855 0.0663339 -0.23512378 0.02623679 0.19523622 -0.17414032
0.21007425 0.025618505 0.093963884 0.07543549 -0.077826224 -0.08780713 0.10397705 0.17822935
-0.20091511 -0.049677227 0.09218083 -0.18665028 -0.1577484 0.07138577 -0.13035646 -0.1431049
0.1635691 0.0007924752 -0.022285687 0.12270823 -0.11441911 -0.059530713 -0.11879985 0.19512473
-0.11865465 0.23120728 -0.00971695 -0.14050984 -0.097333506 0.025909707 -0.004611293 0.14488943
0.19551314 0.106090836 0.06176234 -0.104501106 -0.17554532 -0.083865635 0.20023957 0.10049892
0.20672101 -0.14626712 -0.034818385 0.111565165 -0.083407566 -0.16093107 -0.037218843 -0.00089678844
0.052546494 -0.15382603 0.15325329 -0.14383417 0.05269667 0.15374987 -0.053386144 -0.13772726
0.10269017 0.01748664 -0.16932832 -0.0015031142 0.027374452 0.10902486 0.14321177 0.028551087
0.07645188 0.1888284 0.22366774 0.14032084 0.19019441 -0.058119446 0.18582825 -0.101769775
-0.015410876 0.15770054
00000000: 02e4 4b3e a759 99bd fb35 2bbe b2f3 f5bd
00000010: 2e74 2ebe 4d54 6ebc 1205 dfbd 6ecb 15be
00000020: c8b7 7cbd 0989 8b3e 34d7 713e f12e 20be
00000030: fd18 31bc f7bf 12bd f33a c63d 6619 3a3e
00000040: 1362 173d 2c39 6e3e 3a61 98bd 59ab 1a3e
00000050: acb4 d7bd 8ea8 c33d 1d60 92bd 1c5e fabd
00000060: 6079 4cb7 d8bc 373d f79c afbc 2a50 40be
00000070: 29b6 a3bd 3650 413d 648e 63bd fc54 a6bd
00000080: 5a86 323e d7df 483e a344 2e3c 6a3d e03b
00000090: b014 11be 4494 0cbd 5c67 edbd 5edc acbc
000000a0: 2534 963d bfdc 643c 96ec 01be c7aa f5bd
000000b0: 0da5 293d 198d eebd 3cdc 853d 14cd 08bd
000000c0: 098d 3a3e 190f 113e d6be 8f3c c268 2e3e
000000d0: 28a2 1ebd f7d4 1dbd b575 22be a02a 413e
000000e0: bcf7 5c3e 2138 123e c12c 993e 2fee 8b3e
000000f0: 9fed 593d 6d7e 6a3e dac5 af3d 1195 033c
00000100: df8e d33d 0069 353e 5b71 383e af22 7d3d
00000110: 691f b3bd 1917 42be 2a8c 6cbe 50fa b0bc
00000120: d472 1dbd 04a3 79be f9e2 023e 4156 e9bb
00000130: b0c1 3bbd 59be 51be c6d8 573d 2222 73bd
00000140: 4921 07be 907c 3dbc e323 e5bd 11da 873d
00000150: 4ac4 70be 89ee d63c 01ec 473e d751 32be
00000160: b41d 573e e6dd d13c 2370 c03d ec7d 9a3d
00000170: 5b63 9fbd 39d4 b3bd ebf1 d43d c181 363e
00000180: b1bc 4dbe 597a 4bbd 4ec9 bc3d 4021 3fbe
00000190: cc88 21be b432 923d 2a7c 05be 178a 12be
000001a0: a87e 273e 1cbe 4f3a 7990 b6bc 744e fb3d
000001b0: 9154 eabd 7ad6 73bd 564d f3bd c7ce 473e
000001c0: 3601 f3bd 9ac1 6c3e d833 1fbc d0e1 0fbe
000001d0: ca56 c7bd 9840 d43c 541a 97bb e55d 143e
000001e0: 9934 483e 2746 d93d 82fa 7c3d ad04 d6bd
000001f0: 27c2 33be bfc1 abbd 9a0b 4d3e 61d2 cd3d
00000200: acae 533e 0cc7 15be b99d 0ebd 477c e43d
00000210: 96d1 aabd 1dcb 24be c972 18bd 7416 6bba
00000220: fe3a 573d 9284 1dbe 6eee 1c3e 4449 13be
00000230: 77d8 573d 9b70 1d3e 6eab 5abd 6008 0dbe
00000240: 394f d23d 2440 8f3c 6764 2dbe 2504 c5ba
00000250: 6340 e03c 6d48 df3d 1ba6 123e f8e3 e93c
00000260: ce92 9c3d 3b5c 413e 2809 653e 44b0 0f3e
00000270: 53c2 423e a80e 6ebd c349 3e3e ac6c d0bd
00000280: e67d 7cbc 407c 213e

conv1.0.bias f4 [6]
0.076214895 0.08274654 -0.1076946 0.1440138 -5.0973147e-05 -0.12424002
00000000: 8e16 9c3d 0577 a93d fd8e dcbd 5b78 133e
00000010: 00cc 55b8 8d71 febd

conv2.0.weight f4 [16, 6, 3, 3]
0.20671786 0.046523638 0.066898994 0.22264582 0.04252266 0.16494223 -0.044860803 0.06751223
0.122373566 0.08703128 0.12872365 0.08206391 -0.004687674 -0.075289875 0.116474144 0.030646915
0.10577735 -0.039853223 0.13436788 -0.09297013 -0.063046835 0.01462172 0.07263769 -0.09418965
0.110874 -0.11708614 0.037413087 0.062383562 0.051993795 -0.0024866452 0.026638998 0.08317494
0.14685802 0.022689447 0.2001258 -0.041350596 -0.15279435 -0.20314947 -0.09306183 -0.047526486
-0.00704453 -0.11621147 -0.04194329 -0.25235656 -0.054329276 0.09384878 -0.13902429 -0.10568864
0.09526835 -0.17219569 0.07531455 -0.019596871 -0.12788825 -0.1180844 -0.1198139 -0.14481163
-0.31032372 0.011873289 -0.27758488 -0.38431993 0.119107224 0.0047259675 -0.09142864 0.017696425
0.12404083 0.007828809 0.073632345 0.17899509 0.196099 0.17929243 0.111153424 0.19313532
0.12472391 0.20918725 0.04596983 0.012954998 0.21162574 0.081966095 -0.046172574 -0.04449897
-0.12870298 -0.05284315 -0.041036885 -0.10771064 0.06933603 -0.05631112 0.026095662 0.038904674
-0.07777632 0.13676572 -0.014794445 -0.101710714 -0.13808857 0.1587809 -0.2827333 -0.25635737
0.0099129835 -0.04550594 0.17313175 0.10010197 -0.12740278 -0.035354756 0.025313733 -0.14027804
-0.21200009 0.13317059 -0.06560179 -0.05020407 0.028598402 0.14517336 0.054989066 -0.10209028
0.110623546 -0.065316536 -0.1528694 -0.06060676 0.019599328 -0.007103992 0.13173437 0.07005926
0.06564645 0.06637556 0.08916213 -0.008724157 -0.051847063 0.07332246 -0.183107 -0.07154931
-0.045504514 0.104029156 0.031817246 -0.08266146 0.12584154 0.13149421 0.04467259 -0.1418758
-0.11233698 -0.08770215 -0.15557215 -0.007832945 -0.12866434 -0.0540033 -0.0641129 -0.14823195
-0.07054063 0.08039846 0.1564008 -0.039284628 -0.043906666 -0.01023819 0.0366938 -0.09189511
0.10166379 -0.043975748 -0.15648738 -0.16565523 -0.053027164 -0.032263808 0.14550166 -0.11726285
0.091793336 0.11366102 0.1294687 -0.01381925 0.015226082 0.0755958 0.026628267 -0.046559025
-0.14588289 -0.0683809 0.07714714 -0.080893084 0.07385183 0.03326475 0.1839293 0.09252945
0.16668695 -0.09054592 -0.088873714 -0.08986028 -0.018894935 0.027828446 -0.07675763 -0.21974662
-0.23481056 -0.01983416 -0.13009433 -0.14979199 0.043463804 0.030566128 -0.121596 -0.08570494
-0.020689785 -0.06749868 -0.06763834 -0.027882636 -0.029205782 0.0015704902 0.07550857 -0.09006254
0.10379117 -0.04298419 0.19462344 0.15122819 0.042516626 0.12759322 -0.02761653 0.10836142
-0.12025511 -0.050709296 0.078217484 0.118898936 0.07858775 0.065967545 -0.024844361 0.068999976
-0.076194294 0.00027301308 0.07504478 0.1034934 0.024318071 0.08439951 0.10039602 -0.1071977
0.07470106 0.0006936219 0.056387346 0.14375508 -0.050787665 0.15042576 0.044362858 0.16957445
0.1426609 0.122233555 0.014521425 -0.065465726 0.124483675 -0.085135214 -0.076148875 -0.012352753
0.18059917 0.03734294 0.0533537 -0.020204708 -0.117834106 0.067384735 -0.15920204 0.11137471
-0.034791026 0.042842016 -0.05618727 0.0680908 0.18909435 0.22698133 -0.023870248 0.14654317
00000000: d9ad 533e 928f 3e3d 5702 893d 44fd 633e
00000010: 3e2c 2e3d 9ee6 283e f6bf 37bd da43 8a3d
00000020: fe9e fa3d 753d b23d 22d0 033e 2011 a83d
00000030: 0f9b 99bb 9431 9abd ff89 ee3d 3d0f fb3c
00000040: cca1 d83d 223d 23bd bc97 093e 2067 bebd
00000050: b31e 81bd f08f 6f3c 12c3 943d 81e6 c0bd
00000060: e811 e33d dcca efbd 773e 193d e885 7f3d
00000070: 72f7 543d fcf6 22bb 073a da3c 9f57 aa3d
00000080: f361 163e 38df b93c c7ed 4c3e 3e5f 29bd
00000090: 1f76 1cbe 6a06 50be 3397 bebd 22ab 42bd
000000a0: cdd5 e6bb 4700 eebd bacc 2bbd e134 81be
000000b0: 6088 5ebd ca33 c03d 625c 0ebe 4973 d8bd
000000c0: 0d1c c33d 1154 30be 843e 9a3d 9e89 a0bc
000000d0: 23f5 02be 3cd6 f1bd fd60 f5bd 8049 14be
000000e0: c0e2 9ebe 2f88 423c 9b1f 8ebe 95c5 c4be
000000f0: 7dee f33d 4adc 9a3b f03e bbbd 18f8 903c
00000100: 1e09 fe3d 6844 003c 8ecc 963d 7d4a 373e
00000110: 2dce 483e 6f98 373e 68a4 e33d 44c5 453e
00000120: 406f ff3d 2f35 563e dc4a 3c3d 3341 543c
00000130: 6bb4 583e d7dd a73d 741f 3dbd 8d44 36bd
00000140: b7ca 03be 0f72 58bd 4b16 28bd 6597 dcbd
00000150: 0c00 8e3d 7da6 66bd 92c6 d53c 825a 1f3d
00000160: 3149 9fbd 500c 0c3e 6664 72bc b54d d0bd
00000170: 1767 0dbe 7697 223e 6bc2 90be 4641 83be
00000180: 116a 223c 7064 3abd 7349 313e 4302 cd3d
00000190: e075 02be 26d0 10bd bf5e cf3c 0ca5 0fbe
000001a0: 8d16 59be df5d 083e 3b5a 86bd c8a2 4dbd
000001b0: 3247 ea3c 53a8 143e 373c 613d b514 d1bd
000001c0: 998e e23d adc4 85bd cc89 1cbe cb3e 78bd
000001d0: c58e a03c 9bc8 e8bb 60e5 063e 3b7b 8f3d
000001e0: a571 863d e9ef 873d a39a b63d c4ef 0ebc
000001f0: 965d 54bd 162a 963d 6780 3bbe 7288 92bd
00000200: f162 3abd 3d0d d53d cd52 023d 694a a9bd
00000210: 9bdc 003e 6ba6 063e 9bfa 363d e447 11be
00000220: ee10 e6bd 2f9d b3bd 4e4e 1fbe c155 00bc
00000230: 96c0 03be 9032 5dbd a04d 83bd 1eca 17be
00000240: 9b77 90bd f3a7 a43d 8827 203e ebe8 20bd
00000250: 7ad7 33bd 15be 27bc 3d4c 163d 8133 bcbd
00000260: 1b35 d03d ea1f 34bd 3a3e 20be 86a1 29be
00000270: 0333 59bd 0e27 04bd 63fe 143e 8127 f0bd
00000280: 25fe bb3d 1cc7 e83d 7193 043e 236a 62bc
00000290: d176 793c f9d1 9a3d 8623 da3c adb4 3ebd
000002a0: 5362 15be 490b 8cbd 52ff 9d3d 46ab a5bd
000002b0: a13f 973d 9e40 083d f657 3c3e 1580 bd3d
000002c0: fcaf 2a3e 2470 b9bd 6c03 b6bd ab08 b8bd
000002d0: 8dc9 9abc 7bf8 e33c 1b33 9dbd 4205 61be
000002e0: 2e72 70be 407b a2bc 7337 05be 1263 19be
000002f0: 1a07 323d d165 fa3c 5307 f9bd 1286 afbd
00000300: a07d a9bc bf3c 8abd f885 8abd 206a e4bc
00000310: f740 efbc e8d8 cd3a 3da4 9a3d b572 b8bd
00000320: 7790 d43d 3110 30bd 5e4b 473e 90db 1a3e
00000330: ea25 2e3d cca7 023e 103c e2bc 98ec dd3d
00000340: 5048 f6bd 8db4 4fbd 7d30 a03d 4981 f33d
00000350: 9df2 a03d fe19 873d 6786 cbbc dc4f 8d3d
00000360: c10b 9cbd 3223 8f39 14b1 993d 59f4 d33d
00000370: b136 c73c a6d9 ac3d 6e9c cd3d 788a dbbd
00000380: dffc 983d 2ed4 353a 6bf6 663d 8834 133e
00000390: ba06 50bd 3609 1a3e d4b5 353d eda4 2d3e
000003a0: b315 123e 9655 fa3d 45eb 6d3c e512 86bd
000003b0: 4cf1 fe3d 5f5b aebd f1f3 9bbd 3463 4abc
000003c0: fdee 383e e9f4 183d 6989 5a3d 5884 a5bc
000003d0: 0253 f1bd 0201 8a3d dc05 23be 6d18 e43d
000003e0: 0981 0ebd 1c7b 2f3d 9f24 66bd 3073 8b3d
000003f0: f3a1 413e cb6d 683e 8a8b c3bc 6a0f 163e

conv2.0.bias f4 [16]
0.07540419 0.0731287 0.1438901 0.122750804 -0.04892497 -0.024712233 0.11146259 -0.14999607
-0.04133342 -0.07523938 -0.018718217 0.11576452 0.025691211 -0.035144527 -0.059433978 0.07777603
00000000: 836d 9a3d 80c4 953d ed57 133e c664 fb3d
00000010: 8d65 48bd 4f71 cabc 8046 e43d 9298 19be
00000020: 3b4d 29bd 1b17 9abd f256 99bc f315 ed3d
00000030: 6076 d23c b5f3 0fbd 0b71 73bd 0a49 9f3d

conv3.0.weight f4 [32, 16, 3, 3]
-0.077730976 -0.08128023 0.017758755 -0.14469886 0.019893814 0.08643198 -0.05228184 -0.04983361
0.021536965 0.046056267 -0.031823292 -0.022777116 -0.1389968 -0.27081057 -0.012820382 0.04943697
-0.116984546 -0.043544196 0.06860537 -0.06822482 -0.13272624 0.026936123 -0.04897761 -0.07233159
0.0023880983 0.120422825 -0.0573794 0.036037877 -0.03540841 -0.052596394 -0.01954931 -0.08305273
-0.017309098 0.04680734 -0.10727623 -0.1403947 -0.17486022 -0.11774302 -0.052504256 0.18528639
0.13669461 0.20028903 0.2189602 0.26448527 0.12718718 -0.043760005 -0.14596668 0.093781985
0.039149936 -0.004175607 0.03748098 0.087242424 0.06520758 0.016928326 -0.0339724 -0.08066354
0.12828115 -0.11194678 -0.16474532 -0.12532228 -0.15655495 -0.21655118 -0.06476466 0.046041
0.062877744 -0.06949407 0.084673494 -0.07241535 -0.037630647 -0.01420833 0.06959719 0.02764582
-0.048086528 0.091371015 0.049672898 -0.07302792 -0.1102466 0.024451168 0.32400104 0.29097968
0.23181799 -0.098854564 -0.14033286 -0.13071172 0.016627813 0.01829217 -0.00087438617 0.17472088
0.09281539 0.06351403 -0.0694808 -0.04853069 0.15122892 -0.007069848 -0.08278882 0.056733027
0.021518128 0.051569983 0.11785838 0.015753474 -0.101721376 -0.065446 -0.048747648 -0.08452214
-0.035982836 -0.12244463 -0.029508904 0.00024322397 -0.111954235 -0.044919368 0.10859238 -0.100994825
-0.024663296 -0.004388321 -0.009232203 0.030059684 0.112073876 0.03447648 0.01821041 0.20551527
-0.016047677 0.07334925 0.059795085 -0.006173469 0.16148572 0.24114893 0.01853474 -0.09256179
0.0024564432 0.025246773 -0.08453022 -0.08801961 0.029111754 0.13026063 0.103533044 -0.07097349
0.023251927 -0.044316802 -0.031028606 -0.05221015 -0.04272379 0.08623035 0.04777454 0.0085729575
-0.07010004 -0.08909783 -0.099512175 -0.14570901 -0.09491505 -0.011220879 0.0722199 -0.08304175
0.023697846 -0.0063718725 -0.025353005 -0.017437328 -0.02172348 -0.09613567 0.004932173 0.031723186
0.021672213 0.07896719 -0.056176748 0.051976785 -0.019525075 0.025660107 -0.07466085 -0.10173778
0.0055074873 -0.18369094 -0.042791795 -0.07976819 -0.087031744 0.03242013 0.024102813 -0.057963308
-0.012340611 -0.023987323 -0.0900637 -0.029592467 -0.05565572 -0.04130638 -0.02576772 0.10896303
0.15436344 0.15224029 0.14298807 0.18094148 0.07905206 -0.07701797 -0.11519956 -0.01737174
-0.00309117 -0.052311093 -0.11596702 0.019949486 -0.022319466 -0.063117504 0.11422899 0.117411986
0.011540018 -0.01796577 -0.23112497 -0.20172672 0.042835105 -0.034984063 0.009477445 -0.047640968
0.052379172 0.023716718 -0.08234837 0.018881498 -0.046060756 0.0273005 -0.06042271 0.05714879
0.022360196 -0.024643075 0.19516402 -0.0039568874 0.109894976 0.037905995 0.088438466 0.17136504
0.15614468 0.09944673 -0.0056627267 0.0110320095 0.06570081 0.10781399 0.122077726 0.07462225
0.11069093 0.02957561 0.033143267 0.021468956 -0.025404474 0.01600977 0.08937202 -0.013644647
-0.074171916 -0.05578967 0.0734274 -0.0010578317 0.0027430705 -0.0425437 -0.030109165 -0.037732776
0.07206024 0.029176043 0.041169878 0.0051436685 -0.075363144 -0.1361291 -0.110855736 -0.07938549
00000000: 6b31 9fbd 4076 a6bd cf7a 913c f02b 14be
00000010: 5af8 a23c 4003 b13d 7c25 56bd 541e 4cbd
00000020: 4a6e b03c 7fa5 3c3d 2459 02bd 1397 babc
00000030: 2d55 0ebe afa7 8abe 940c 52bc 6c7e 4a3d
00000040: 9895 efbd 665b 32bd f980 8c3d 74b9 8bbd
00000050: 63e9 07be 25a9 dc3c bf9c 48bd 9622 94bd
00000060: a481 1c3b 3ea0 f63d a906 6bbd 749c 133d
00000070: 6908 11bd 516f 57bd e025 a0bc 8d17 aabd
00000080: cfcb 8dbc 0eb9 3f3d a4b3 dbbd a1c3 0fbe
00000090: 8f0e 33be 4123 f1bd b40e 57bd b7bb 3d3e
000000a0: acf9 0b3e 9118 4d3e 1a37 603e 9d6a 873e
000000b0: 5b3d 023e b13d 33bd 4a78 15be c510 c03d
000000c0: af5b 203d 88d3 88bb a885 193d 28ac b23d
000000d0: 8d8b 853d 46ad 8a3c a526 0bbd ed32 a5bd
000000e0: 225c 033e 5a44 e5bd ffb2 28be 7c54 00be
000000f0: f14f 20be 98bf 5dbe 56a3 84bd 7d95 3c3d
00000100: 0cc6 803d e852 8ebd 4c69 ad3d 804e 94bd
00000110: 9822 1abd 0eca 68bc f988 8e3d 7d79 e23c
00000120: 61f6 44bd ba20 bb3d cf75 4b3d aa8f 95bd
00000130: f8c8 e1bd d14d c83c 77e3 a53e 4afb 943e
00000140: b261 6d3e 4374 cabd 6bb3 0fbe 4bd9 05be
00000150: 0d37 883c 76d9 953c 1037 65ba 08ea 323e
00000160: ff15 be3d a513 823d f34b 8ebd 1ec8 46bd
00000170: c1db 1a3e 2faa e7bb 2f8d a9bd e460 683d
00000180: c946 b03c 0c3b 533d bc5f f13d 6e0d 813c
00000190: 4c53 d0bd 8d08 86bd 9dab 47bd f219 adbd
000001a0: bd62 13bd 40c4 fabd a8bc f1bc f009 7f39
000001b0: 4348 e5bd 5ffd 37bd af65 de3d 60d6 cebd
000001c0: ae0a cabc e8cb 8fbb aa42 17bc ba3f f63c
000001d0: fd86 e53d 3637 0d3d ff2d 953c 9872 523e
000001e0: 6b76 83bc 2238 963d b1eb 743d d04a cabb
000001f0: 835c 253e bfef 763e 2bd6 973c 0991 bdbd
00000200: 47fc 203b 52d2 ce3c 2e1e adbd a043 b4bd
00000210: c67b ee3c 0b63 053e 2209 d43d 8d5a 91bd
00000220: d37a be3c 8985 35bd b42f febc 4fda 55bd
00000230: 24ff 2ebd 8a99 b03d 3caf 433d 9775 0c3c
00000240: 9c90 8fbd ec78 b6bd 0acd cbbd be34 15be
00000250: d262 c2bd c7d7 37bc 07e8 933d cb11 aabd
00000260: fc21 c23c 24cb d0bb 1bb1 cfbc bad8 8ebc
00000270: 71f5 b1bc c7e2 c4bd 119e a13b 2cf0 013d
00000280: ed89 b13c 8db9 a13d 9719 66bd 9ce5 543d
00000290: 0df3 9fbc 2535 d23c cae7 98bd e65b d0bd
000002a0: 2778 b43b 7a19 3cbe 7346 2fbd 815d a3bd
000002b0: b33d b2bd f8ca 043d 4373 c53c ef6a 6dbd
000002c0: 4630 4abc 1081 c4bc 5173 b8bd e76b f2bc
000002d0: 41f7 63bd e130 29bd d316 d3bc 0228 df3d
000002e0: 7311 1e3e e1e4 1b3e 776b 123e b948 393e
000002f0: 0ce6 a13d 99bb 9dbd bfed ebbd 2e4f 8ebc
00000300: 3a95 4abb 2844 56bd 1e80 edbd 1b6d a33c
00000310: 50d7 b6bc c043 81bd e4f0 e93d b275 f03d
00000320: 5812 3d3c f32c 93bc 06ac 6cbe 7391 4ebe
00000330: dd73 2f3d 734b 0fbd 4947 1b3c 2d23 43bd
00000340: 8b8b 563d 9049 c23c 43a6 a8bd 5fad 9a3c
00000350: 34aa 3cbd 4ca5 df3c ce7d 77bd da14 6a3d
00000360: bb2c b73c 46e0 c9bc 14d9 473e c7a8 81bb
00000370: 9e10 e13d 5143 1b3d 3a1f b53d 517a 2f3e
00000380: 64e4 1f3e baaa cb3d 658e b9bb 9abf 343c
00000390: 258e 863d 95cd dc3d e303 fa3d 8dd3 983d
000003a0: edb1 e23d 8d48 f23c 3cc1 073d aadf af3c
000003b0: 0b1d d0bc ec26 833c ad08 b73d cc8d 5fbc
000003c0: 72e7 97bd b683 64bd 1b61 963d f1a6 8aba
000003d0: 16c5 333b 4e42 2ebd 7fa7 f6bc af8d 1abd
000003e0: 5294 933d 9902 ef3c bfa1 283d 388c a83b
000003f0: fe57 9abd 6d65 0bbe 5508 e3bd dc94 a2bd

conv3.0.bias f4 [32]
-0.0022389616 0.059303936 0.06614671 0.025330842 0.11411011 0.06396622 0.11741289 -0.0759795
-0.018804241 -0.043657452 -0.091947 0.048507247 0.047670808 -0.01593748 0.10200132 0.04050513
-0.07992231 -0.10783737 0.008931373 -0.061088666 0.089658916 -0.008250508 0.0739227 -0.052370854
0.0018756655 -0.023764191 -0.087038584 -0.08750485 0.120858744 -0.072341904 0.106487684 0.06647761
00000000: 8bbb 12bb afe8 723d ed77 873d a082 cf3c
00000010: 90b2 e93d b900 833d 2b76 f03d 249b 9bbd
00000020: 5a0b 9abc 28d2 32bd b54e bcbd 89af 463d
00000030: 7742 433d 518f 82bc 11e6 d03d b5e8 253d
00000040: 4fae a3bd d7d9 dcbd e554 123c 1c38 7abd
00000050: 189f b73d 242d 07bc c964 973d d282 56bd
00000060: e4d8 f53a 1fad c2bc 4941 b2bd be35 b3bd
00000070: ca84 f73d fe27 94bd 3716 da3d 6a25 883d

conv4.0.weight f4 [64, 32, 3, 3]
0.0065293745 -0.050374575 -0.019336766 -0.029378897 0.01943846 -0.025998814 0.0072422563 0.0056382213
0.029860517 0.033222254 0.010593293 -0.04440163 -0.040713478 -0.04072116 -0.030364165 -0.0011913803
-0.016809616 -0.04552736 -0.052569073 -0.064383656 0.015386019 0.010139754 -0.057206333 0.004757803
-0.057403103 0.02885812 -0.02134737 -0.031994075 0.014479362 0.023307055 0.009084738 0.009289733
0.0020470503 -0.060933243 -0.042100847 -0.02625396 -0.065442204 0.00785682 -0.035558444 -0.00590792
0.011659761 0.006975712 -0.01761298 -0.001818665 -0.015673904 -0.018681629 0.017435323 -0.0049408823
-0.022002202 0.007721678 -0.056694593 -0.034578145 -0.07945768 0.00866506 -0.012024162 0.009819764
-0.023407286 0.04734885 0.03608456 0.028741086 -0.018146653 -0.037271686 -0.015384353 -0.056299012
-0.06295154 -0.027459312 -0.020614285 0.01181257 0.035041843 -0.04491915 -0.046057448 0.040982723
-0.043304678 -0.0004102029 -0.0050567985 0.04502483 0.04374228 -0.006592162 -0.010962218 0.0072301365
-0.018319346 -0.06008458 -0.035219837 0.020191303 0.002391025 -0.059498843 -0.043187376 -0.016182235
-0.01672936 0.04324439 -0.057045724 -0.039902143 -0.042947054 -0.0088888 -0.0184136 0.04904421
-0.001939252 0.041077938 0.004575964 0.0021205412 0.028690971 -0.018816158 0.040462248 -0.048497286
-0.006848865 0.025749799 0.017765949 0.02183957 0.01899338 -0.04797916 0.038090993 -0.03441116
-0.02548652 0.019248242 0.0025100037 -0.023339964 0.010876342 -0.023084536 -0.05901366 -0.06621982
-0.029242415 -0.015308006 0.014966741 -0.027704006 -0.019870104 -0.02316054 -0.0093286205 -0.010879366
-0.06068187 -0.043511584 -0.0069935755 0.027946187 0.043774992 -0.02710125 -0.048326652 0.006278278
-0.07203091 -0.05502375 -0.04324479 -0.017532015 0.048971012 0.02925817 -0.039460108 -0.034230176
-0.071085446 0.009722632 0.049675036 0.01005846 0.011065636 0.031269487 -0.0483096 -0.011896251
0.0152960755 -0.0035642635 -0.02791755 -0.05129365 -0.06468192 0.032143846 0.015869806 0.003325129
-0.0049257046 -0.045575947 -0.06284016 -0.06419913 -0.030689802 -0.076291144 -0.07017545 -0.013230005
-0.04122898 0.0066578905 -0.03729711 0.0022560104 0.03420308 -0.06189464 -0.031219099 -0.06215186
0.05160048 0.0133517245 0.021885963 0.030488975 0.033483498 -0.01634486 0.0132783335 -0.04015415
-0.018421963 -0.051391844 -0.056232855 -0.063622706 -0.04487685 0.010578168 -0.0653842 0.012808501
0.040948007 -0.007863886 0.0127566075 -0.05808295 -0.017143529 0.026195498 -0.031386357 -0.0067316913
-0.0028408025 0.017843865 0.035852615 -0.018572662 -0.043330953 0.010642547 -0.0014837869 -0.054270353
0.009655605 -0.025478154 0.029018039 -0.077070884 -0.03927561 -0.07108848 -0.044783115 0.029059567
0.024275437 -0.040174115 -0.022711426 -0.03245613 0.0334178 0.004935117 0.012673992 0.0094685685
-0.03342905 -0.011882184 -0.033728898 0.033767406 -0.012854957 -0.07354961 -0.03444392 -0.011863068
0.044733055 -0.054745875 0.03830565 0.010475906 -0.002589459 0.008646175 -0.023886712 0.04127428
-0.04295195 -0.03175259 -0.036056094 -0.051970072 0.05537482 0.035680767 0.0015925877 -0.057673797
-0.0069681667 -0.025835253 -0.005698076 0.04588176 0.011726189 -0.023771526 0.02137979 -0.047104426
00000000: 5df4 d53b 9255 4ebd 2368 9ebc 03ac f0bc
00000010: 683d 9f3c 77fb d4bc 7350 ed3b d4c0 b83b
00000020: 0b9e f43c 0f14 083d 7e8f 2d3c 7cde 35bd
00000030: 2dc3 26bd 3bcb 26bd 45be f8bc 1728 9cba
00000040: 52b4 89bc e67a 3abd ab52 57bd 94db 83bd
00000050: a415 7c3c 3621 263c 3051 6abd 58e7 9b3b
00000060: 841f 6bbd dd67 ec3c aee0 aebc 380c 03bd
00000070: d93a 6d3c 70ee be3c 27d8 143c f733 183c
00000080: ce27 063b 2395 79bd f071 2cbd 8b12 d7bc
00000090: 9006 86bd e4b9 003c bba5 11bd 3a97 c1bb
000000a0: 9508 3f3c 8394 e43b 1949 90bc 4560 eeba
000000b0: 8f66 80bc 370a 99bc 86d4 8e3c 20e7 a1bb
000000c0: f63d b4bc 2106 fd3b 9738 68bd d0a1 0dbd
000000d0: b5ba a2bd e5f7 0d3c fe00 45bc 13e3 203c
000000e0: a3c0 bfbc def0 413d 67cd 133d 6d72 eb3c
000000f0: 4aa8 94bc 32aa 18bd a70e 7cbc cb99 66bd
00000100: bdec 80bd 5af2 e0bc 4adf a8bc 8289 413c
00000110: 0988 0f3d 25fd 37bd bca6 3cbd 80dd 273d
00000120: 3f60 31bd 8010 d7b9 80b3 a5bb f56b 383d
00000130: 1b2b 333d 1003 d8bb e09a 33bc c8ea ec3b
00000140: 7412 96bc 401b 76bd ad42 10bd 3b68 a53c
00000150: beb2 1c3b 0fb5 73bd 3fe5 30bd 9b90 84bc
00000160: 030c 89bc 0821 313d c7a8 69bd 6e70 23bd
00000170: 40e9 2fbd 54a2 11bc 1ed8 96bc 95e2 483d
00000180: 802e feba 5741 283d f8f1 953b c7f8 0a3b
00000190: 5409 eb3c 5824 9abc bebb 253d 17a5 46bd
000001a0: 726c e0bb 3ef1 d23c e589 913c e6e8 b23c
000001b0: 0198 9b3c cc85 44bd 4d05 1c3d b7f2 0cbd
000001c0: 1bc9 d0bc 7dae 9d3c e07e 243b 7433 bfbc
000001d0: af32 323c c81b bdbc 4fb8 71bd 429e 87bd
000001e0: ca8d efbc 6ece 7abc 1037 753c 83f3 e2bc
000001f0: a1c6 a2bc 2cbb bdbc 12d7 18bc 5e3f 32bc
00000200: 8d8d 78bd 3439 32bd 5d2a e5bb 67ef e43c
00000210: 684d 333d 7103 debc 2bf2 45bd 03ba cd3b
00000220: f184 93bd 9560 61bd 7321 31bd 4d9f 8fbc
00000230: d495 483d d4ae ef3c eca0 21bd f134 0cbd
00000240: 3f95 91bd ad4b 1f3c 0d78 4b3d 3dcc 243c
00000250: a44c 353c 6f14 003d 4ae0 45bd 7ee8 42bc
00000260: 649c 7a3c 6b96 69bb 59b3 e4bc 4a19 52bd
00000270: f477 84bd 44a9 033d 6501 823c 68ea 593b
00000280: ce67 a1bb d8ad 3abd 58b2 80bd d57a 83bd
00000290: 2e69 fbbc 883e 9cbd 25b8 8fbd aac2 58bc
000002a0: b8df 28bd 6f2a da3b dbc4 18bd 93d9 133b
000002b0: 8718 0c3d 3c85 7dbd 32bf ffbc f392 7ebd
000002c0: 065b 533d 31c1 5a3c 314a b33c 04c4 f93c
000002d0: fe25 093d a8e5 85bc 5e8d 593c ae78 24bd
000002e0: a8e9 96bc 4180 52bd 6c54 66bd 9f4c 82bd
000002f0: cad0 37bd 0d50 2d3c 27e8 85bd bfda 513c
00000300: 19b9 273d 87d7 00bc 1701 513c 63e8 6dbd
00000310: 9670 8cbc f197 d63c fb8e 00bd 8595 dcbb
00000320: c22c 3abb 4c2d 923c 31da 123d b225 98bc
00000330: cc7b 31bd 145e 2e3c a07b c2ba 974a 5ebd
00000340: 8b32 1e3c 90b7 d0bc 3db7 ed3c 57d7 9dbd
00000350: 76df 20bd d696 91bd 806e 37bd 540e ee3c
00000360: 48dd c63c 9d8d 24bd 500d babc b8f0 04bd
00000370: 1ae1 083d c3b6 a13b 93a6 4f3c 0e22 1b3c
00000380: e6ec 08bd 7ead 42bc 5027 0abd b14f 0a3d
00000390: 999d 52bc 2ea1 96bd 1115 0dbd 505d 42bc
000003a0: 023a 373d 363d 60bd 63e6 1c3d 22a3 2b3c
000003b0: eab3 29bb b0a8 0d3c 11ae c3bc 380f 293d
000003c0: 62ee 2fbd 010f 02bd 8eaf 13bd 92de 54bd
000003d0: b5d0 623d ff25 123d 60be d03a 5c3b 6cbd
000003e0: 3855 e4bb 74a4 d3bc edb6 babb 83ee 3b3d
000003f0: 341f 403c 81bc c2bc ab24 af3c 92f0 40bd

conv4.0.bias f4 [64]
-0.011906727 -0.12965581 0.016068678 0.022724379 -0.020146905 0.08555453 0.02715977 -0.0031447185
-0.0125591345 0.01094626 -0.08763655 0.019479927 0.07362028 0.0008713121 0.014194965 -0.15155645
-0.07062489 -0.03972501 0.1155662 0.038955323 -0.048101734 0.046203356 -0.07083541 0.015482908
-0.0061787385 -0.038992003 -0.025201371 -0.069985695 -0.037521612 0.08950257 -0.08638886 -0.061022058
-0.063991 0.0020002155 -0.03706788 0.012866311 -0.05288397 -0.00706083 -0.089365155 -0.025241554
0.0015559243 -0.063248664 -0.05004396 0.033139862 -0.098952934 -0.02211175 -0.018258223 -0.039012067
-0.003577806 0.048985478 0.039850965 -0.05768936 -0.009114515 -0.015114568 0.050492376 0.017512739
0.024610348 -0.049185596 -0.105094805 0.030259162 0.018478451 0.043156922 -0.09216691 0.029791065
00000000: 6f14 43bc 7ec4 04be 76a2 833c 7a28 ba3c
00000010: 1f0b a5bc 3737 af3d 2a7e de3c 9f17 4ebb
00000020: d4c4 4dbc f157 333c cb7a b3bd 5e94 9f3c
00000030: 3bc6 963d c468 643a 0092 683c 9d31 1bbe
00000040: c8a3 90bd b1b6 22bd f9ad ec3d 9e8f 1f3d
00000050: 5306 45bd bb3f 3d3d 2812 91bd 06ac 7d3c
00000060: 0477 cabb 14b6 1fbd 1b73 cebc a954 8fbd
00000070: 43b0 19bd 204d b73d a5ec b0bd 44f2 79bd
00000080: b70d 83bd 0c16 033b 7dd4 17bd 38cd 523c
00000090: dd9c 58bd 895e e7bb 1405 b7bd 60c7 cebc
000000a0: 28f0 cb3a 8488 81bd e5fa 4cbd aabd 073d
000000b0: d6a7 cabd b323 b5bc 4592 95bc 1ecb 1fbd
000000c0: a079 6abb ffa4 483d c43a 233d ae4b 6cbd
000000d0: 0c55 15bc 18a3 77bc 18d1 4e3d e076 8f3c
000000e0: a49b c93c d676 49bd f23b d7bd 10e2 f73c
000000f0: 1f60 973c 50c5 303d 01c2 bcbd 640c f43c

conv5.0.weight f4 [128, 64, 3, 3]
-0.03772558 0.033837143 -0.015120193 -0.031340476 0.021873413 -0.016430672 0.03510659 0.035064463
-0.021925151 0.06775403 0.0072332127 -0.09221359 -0.02057511 -0.056999747 -0.03963784 0.00032347796
-0.010375416 -0.011604553 0.1056442 0.048998863 -0.07118817 0.23938099 -0.19274001 -0.061848424
-0.017929018 -0.00059549283 0.03703377 0.12770379 0.050429393 -0.04201995 -0.059484374 -0.08109015
-0.07129899 -0.059457533 -0.0128194 0.013261244 0.07697613 0.012164623 -0.09919888 -0.02096666
0.027885962 -0.05383661 -0.06523602 -0.047545537 0.014590666 0.094602264 -0.042340107 -0.09124151
-0.0205705 -0.09259911 -0.09338303 -0.024091791 -0.056930155 0.021911878 0.042925306 0.017343566
-0.019988472 -0.07666113 -0.0536042 -0.057941668 -0.0065176487 -0.027655337 -0.034993142 -0.019124208
-0.08460164 -0.05625249 0.088978924 0.021095963 -0.06736829 -0.03631101 -0.07268217 0.026579026
0.0247392 0.065297134 -0.021731073 0.08037255 0.10501239 -0.03308026 -0.067893624 0.0023556324
0.033654083 0.064401075 -0.11475874 -0.08677875 0.13727051 -0.006854993 -0.07084282 -0.08131001
-0.05259938 0.008798767 0.032285202 0.045835886 -0.014482569 0.059348036 0.019260915 -0.011198577
-0.025929209 0.031538654 -0.037140936 -0.1407211 -0.03736419 -0.047466706 0.0037914596 0.070822604
-0.0074169375 -0.017348204 -0.030647907 -0.022919944 -0.05207522 0.040836796 -0.058546744 0.029226251
0.1417209 -0.0050716763 -0.046233498 -0.08128674 -0.00044573843 -0.07450789 -0.0025124706 -0.02109701
-0.11251198 -0.210188 -0.029317532 -0.024094563 -0.071080625 0.017668664 0.09653962 0.09425521
-0.04596851 0.018948263 0.10286733 -0.07318331 -0.072919525 -0.029527264 0.024202105 0.10358342
-0.016737668 -0.033128127 0.03622988 -0.0076911305 -0.08221928 -0.04939133 -0.03438381 -0.040189102
0.15725814 0.11482036 -0.029936291 -0.06381068 -0.034505423 -0.040892765 -0.08136352 -0.041320026
0.024446052 0.063908964 0.0826563 -0.060035862 -0.11312901 -0.04615979 -0.0471637 -0.017539857
-0.06670852 -0.0045688897 0.18338016 -0.06722914 -0.06140121 -0.018134158 -0.0099315625 -0.052657958
-0.033707235 -0.026631445 -0.00772731 0.040732488 -0.0028085634 -0.047097694 0.07748287 0.04636349
-0.05105884 -0.06645144 0.014618412 0.021156888 0.0020359766 -0.0074786423 -0.0054569356 -0.04623592
0.023824442 0.025327396 -0.023800626 0.02670722 0.020988751 -0.13363965 -0.020442631 0.016353775
-0.023774417 0.11404498 -0.057096884 -0.06038657 -0.020259423 -0.025835654 0.01847054 0.032312047
-0.011939904 -0.02174864 -0.0068646553 -0.018871889 0.030285593 0.020517733 0.02492727 0.08560249
0.16159023 0.013582539 -0.03131043 0.023067394 -0.096429855 -0.066184945 0.005328621 -0.030028736
0.028733835 -0.1686071 -0.048519745 0.023062969 -0.04551754 -0.0755655 -0.023261724 -0.10377694
0.015779633 -0.07329867 0.04494623 -0.09905857 -0.03195742 0.12612638 -0.02452282 -0.0333841
0.011882345 0.002488047 0.1383249 0.13003936 -0.039926745 0.03628984 -0.0047615413 -0.07867959
-0.053601924 -0.038759716 -0.019873481 -0.029821789 0.061742608 0.009138554 0.020544104 -0.038748298
0.01838531 0.015681429 0.017792862 0.017645184 0.033579938 -0.07806263 -0.06611963 0.040200558
00000000: 2386 1abd d198 0a3d b0ba 77bc df5e 00bd
00000010: df2f b33c 9e99 86bc edcb 0f3d c19f 0f3d
00000020: 609c b3bc a0c2 8a3d 9604 ed3b 7bda bcbd
00000030: 228d a8bc 9178 69bd 4a5b 22bd 7a98 a939
00000040: a6fd 29bc 0621 3ebc fd5b d83d 08b3 483d
00000050: 1acb 91bd 4a20 753e a35d 45be c654 7dbd
00000060: e0df 92bc d91a 1cba b9b0 173d c8c4 023e
00000070: 0d8f 4e3d 1c1d 2cbd e3a5 73bd 9812 a6bd
00000080: 3405 92bd be89 73bd 7608 52bc b045 593c
00000090: a9a5 9d3d 204e 473c c828 cbbd 46c2 abbc
000000a0: 1a71 e43c c783 5cbd 769a 85bd 1cbf 42bd
000000b0: b00d 6f3c d5be c13d d26c 2dbd d4dc babd
000000c0: 7783 a8bc 9aa4 bdbd 9a3f bfbd 265c c5bc
000000d0: 982f 69bd 8a80 b33c 72d2 2f3d 1814 8e3c
000000e0: ddbe a3bc 8300 9dbd 1490 5bbd 3e54 6dbd
000000f0: 0092 d5bb 728d e2bc f854 0fbd 5faa 9cbc
00000100: a043 adbd 0369 66bd 953a b63d 71d1 ac3c
00000110: 63f8 89bd dbba 14bd 64da 94bd 42bc d93c
00000120: dda9 ca3c 81ba 853d 5d05 b2bc 5d9a a43d
00000130: bc10 d73d 2b7f 07bd d00b 8bbd f460 1a3b
00000140: ddd8 093d b6e4 833d a106 ebbd 0fb9 b1bd
00000150: a490 0c3e d99f e0bb 0a16 91bd dd85 a6bd
00000160: 7372 57bd b428 103c 7d3d 043d 69be 3b3d
00000170: 4c48 6dbc ed16 733d 11c9 9d3c 3c7a 37bc
00000180: 7e69 d4bc ad2e 013d 1821 18bd 3119 10be
00000190: 310b 19bd 736c 42bd 237a 783b 710b 913d
000001a0: c809 f3bb d21d 8ebc 5211 fbbc 9bc2 bbbc
000001b0: d34c 55bd 7c44 273d b6ce 6fbd e46b ef3c
000001c0: 491f 113e 4e30 a6bb 565f 3dbd aa79 a6bd
000001d0: 00b2 e9b9 9897 98bd 43a8 24bb a3d3 acbc
000001e0: ae6c e6bd 863b 57be 522b f0bc f661 c5bc
000001f0: b892 91bd e0bd 903c 90b6 c53d e008 c13d
00000200: 7a49 3cbd 6339 9b3c 1bac d23d 22e1 95bd
00000210: d556 95bd 29e3 f1bc 7e43 c63c 8b23 d43d
00000220: 6f1d 89bc 5cb1 07bd c865 143d e105 fcbb
00000230: 9562 a8bd 904e 4abd 0ad6 0cbd 549d 24bd
00000240: 4708 213e f026 eb3d f43c f5bc 2caf 82bd
00000250: 8f55 0dbd 2c7f 27bd eba1 a6bd 303f 29bd
00000260: 1643 c83c b4e2 823d b547 a93d 2ae8 75bd
00000270: 2fb0 e7bd 0c12 3dbd b92e 41bd bfaf 8fbc
00000280: 7a9e 88bd a0b6 95bb 02c8 3b3e 6eaf 89bd
00000290: d67f 7bbd 168e 94bc feb7 22bc dfaf 57bd
000002a0: 9910 0abd 302a dabc 6035 fdbb 1cd7 263d
000002b0: e00f 38bb 83e9 40bd 57af 9e3d a5e7 3d3d
000002c0: 1323 51bd b117 88bd 1082 6f3c 3651 ad3c
000002d0: 056e 053b 660f f5bb 18d0 b2bb e061 3dbd
000002e0: 7a2b c33c 667b cf3c 88f9 c2bc 1ac9 da3c
000002f0: 9af0 ab3c d5d8 08be 4e77 a7bc 5af8 853c
00000300: 91c2 c2bc 6a90 e93d 6cde 69bd e857 77bd
00000310: 17f7 a5bc 4ba5 d3bc 884f 973c a359 043d
00000320: 969f 43bc 342a b2bc e7f0 e0bb 3899 9abc
00000330: 7e19 f83c ce14 a83c 4634 cc3c 5c50 af3d
00000340: e977 253e 4c89 5e3c 5e3f 00bd d5f7 bc3c
00000350: 047d c5bd f98b 87bd b69b ae3b d3fe f5bc
00000360: 3863 eb3c 57a7 2cbe a4bc 46bd 8dee bc3c
00000370: 9a70 3abd 16c2 9abd 5f8f bebc 0189 d4bd
00000380: 4a44 813c 9d1d 96bd 8a19 383d 38df cabd
00000390: c9e5 02bd 4627 013e 15e4 c8bc c4bd 08bd
000003a0: 2bae 423c 800e 233b 0ba5 0d3e 0a29 053e
000003b0: 3a8a 23bd a8a4 143d b406 9cbb c422 a1bd
000003c0: b18d 5bbd 82c2 1ebd b6cd a2bc d34c f4bc
000003d0: d1e5 7c3d e0b9 153c 1c4c a83c 89b6 1ebd
000003e0: ca9c 963c 5776 803c 56c2 913c a28c 903c
000003f0: 1e8b 093d 4ddf 9fbd bb69 87bd 57a9 243d

conv5.0.bias f4 [128]
5.7902827e-05 0.0055597345 -0.05289449 -0.05000749 0.023135625 0.030028453 -0.11313926 -0.033264693
-0.055908702 0.02146857 0.092047304 -0.020958083 -0.06838641 0.031382095 -0.045570247 0.00038455587
-0.015097831 0.046438355 0.02938019 -0.017425142 -0.0140724275 -0.07061877 -0.10291707 0.04752578
-0.044650745 -0.061272636 0.020763204 -0.11510376 0.05441657 -0.021976694 -0.012344473 0.013210079
-0.044599418 -0.027686859 -0.007841787 -0.016512109 -0.008730155 0.008282601 0.022453744 -0.04914352
0.03911783 -0.032538857 0.060434703 0.017628327 0.020152211 0.025590252 0.02132328 0.08617674
0.035969894 -0.13971433 0.06436685 -0.043287057 0.08938663 -0.031119896 0.034967132 0.047773916
0.03774604 0.0790887 0.0046095564 0.021816565 -0.036724906 -0.05423763 -0.033731792 -0.03146112
0.005427605 -0.0783247 0.058939338 -0.063857056 -0.005566384 0.08109938 -0.020191874 0.025507158
0.01818241 0.16535637 0.004017107 -0.015096212 -0.012008538 -0.002732348 -0.033368852 0.054267786
-0.053953644 0.024360295 -0.0013063959 -0.020482799 0.025877757 -0.011168862 -0.02247599 -0.02908312
-0.13885868 -0.04763603 -0.03328199 0.027949287 -0.07873879 -0.023281438 0.033567954 -0.052140962
-0.0075195045 0.019402483 -0.068119675 0.06998023 -0.084577195 -0.040235378 0.0017893867 -0.0075363964
-0.022439942 -0.057501864 0.008403143 0.013093548 -0.044866815 -0.0022541706 -0.050152276 -0.011772918
0.06037692 -0.073354766 0.06877291 -0.010264613 -0.0049112863 0.021963326 -0.045166403 0.054220174
0.046232827 -0.05357354 -0.06800492 -0.06204245 -0.021996731 0.05304351 -0.008571926 -0.06532741
00000000: b0dc 7238 6f2e b63b e5a7 58bd a7d4 4cbd
00000010: ec86 bd3c 3bfe f53c 8eb5 e7bd 8f40 08bd
00000020: 8600 65bd dbde af3c 4c83 bc3d 49b0 abbc
00000030: 2d0e 8cbd 838a 003d dea7 3abd 379e c939
00000040: e55c 77bc 2536 3e3d b9ae f03c 2cbf 8ebc
00000050: 0a90 66bc 93a0 90bd 2fc6 d2bd 64aa 423d
00000060: b3e3 36bd 04f9 7abd 9817 aa3c 85bb ebbd
00000070: e9e3 5e3d 7808 b4bc 7940 4abc 166f 583c
00000080: e1ad 36bd 8dcf e2bc d77a 00bc 6744 87bc
00000090: ed08 0fbc bfb3 073c eaf0 b73c b74a 49bd
000000a0: 053a 203d 7747 05bd 618a 773d 4869 903c
000000b0: 4016 a53c a6a2 d13c 29ae ae3c 6e7d b03d
000000c0: 2b55 133d 4611 0fbe c4d2 833d c54d 31bd
000000d0: 5610 b73d 27ef febc b239 0f3d 95ae 433d
000000e0: 979b 1a3d 42f9 a13d c30b 973b a7b8 b23c
000000f0: db6c 16bd 4728 5ebd 592a 0abd 60dd 00bd
00000100: 0dda b13b b368 a0bd 606a 713d 7dc7 82bd
00000110: 3766 b6bb 6f17 a63d 6e69 a5bc 63f4 d03c
00000120: 47f3 943c 2e53 293e f0a1 833b 1a56 77bc
00000130: 75bf 44bc 3111 33bb c7ad 08bd e647 5e3d
00000140: 7ffe 5cbd 3e8f c73c 5f3b abba 8bcb a7bc
00000150: 97fd d33c 9afd 36bc 911f b8bc b93f eebc
00000160: f830 0ebe ff1d 43bd b252 08bd e7f5 e43c
00000170: cd41 a1bd b7b8 bebc 8d7e 093d c391 55bd
00000180: 2d66 f6bb f5f1 9e3c 5482 8bbd cb51 8f3d
00000190: cf36 adbd dacd 24bd db89 ea3a e0f3 f6bb
000001a0: f8d3 b7bc 1387 6bbd 56ad 093c 5286 563c
000001b0: 44c6 37bd b5ba 13bb 796c 4dbd 32e3 40bc
000001c0: ca4d 773d 063b 96bd d0d8 8c3d e82c 28bc
000001d0: dbee a0bb 6fec b33c 6800 39bd f915 5e3d
000001e0: a25e 3d3d ee6f 5bbd 2a46 8bbd 3920 7ebd
000001f0: 7d32 b4bc 2744 593d 4371 0cbc 61ca 85bd

dense.0.weight f4 [120, 128]
0.056936476 0.2099184 0.04899501 0.10308195 0.09881156 0.06216145 -0.00092469057 -0.04299753
0.2081084 0.08582364 -0.029868945 -0.07891401 0.038167298 0.05142391 0.06443488 0.026504647
-0.059012327 -0.09927636 -0.0118339835 0.04828321 0.014521149 -0.06668298 0.09775168 0.12258403
0.1446123 -0.028469604 0.29682374 0.13305922 0.11656904 0.09621123 0.07551066 -0.0029322854
0.06956201 0.18633479 0.1083798 -0.035276186 -0.002709178 -0.008647633 0.0018022776 -0.06797452
0.078345664 0.0059112264 -0.0035743979 -0.12646051 -0.0142684905 -0.054059707 0.13097464 -0.040053174
0.041947175 -0.074931316 -0.06982813 -0.02973645 0.037370276 0.07347406 -0.25876585 -0.0067620743
-0.07073538 0.06996378 0.09153241 0.10821536 -0.045624774 -0.11677832 0.096038684 -0.03628556
0.011646063 -0.011820382 0.0741936 -0.06407276 -0.117277324 -0.0023762134 0.043837987 0.025217917
0.2469905 0.2734781 0.04447973 0.046200972 0.18351132 0.20203911 0.010864354 -0.13999027
0.0822085 0.29499245 0.09815277 -0.05448279 -0.0028452442 -0.0054839873 -0.035611346 -0.0038186824
-0.040500395 0.0510188 0.085448034 0.15721662 0.00937786 0.03156769 -0.04123607 -0.04772697
-0.051578388 -0.2221318 0.09749339 -0.024589488 -0.20920767 0.042930927 -0.03626823 0.014360387
0.121758886 0.08981857 -0.11213231 -0.13122986 -0.022366384 -0.045556013 -0.10115153 0.13493869
0.004895455 0.014482101 0.05323747 0.047720533 -0.015611888 0.14514631 -0.056141738 -0.0563389
-0.03262327 0.05454627 0.056530464 0.17730317 0.042252146 0.14279635 -0.024928937 0.042742863
-0.011630415 0.03537902 0.01648441 0.007998781 -0.025629638 -0.013897732 0.038466156 0.057473816
0.061120562 -0.06916658 -0.07097592 0.0029444573 -0.08344061 0.023384908 -0.013233766 0.018346652
-0.10390069 -0.05323938 -0.08840934 -0.08589382 -0.029106475 0.03941641 0.015334838 0.05206254
0.017581712 0.0782113 -0.03743091 0.0068034655 -0.09264021 0.07262758 -0.037725873 -0.012437754
-0.048439465 0.08163422 0.05508703 -0.047843534 -0.04941538 0.021266224 0.010283902 -0.053947628
0.010358898 0.050463878 -0.03474348 -0.037043393 -0.062424786 -0.051807966 0.008944332 -0.042110667
-0.084753096 -0.006081848 -0.009945652 0.08605542 0.069561854 0.034999564 -0.05846259 0.063257165
-0.088246986 0.06078003 -0.07297345 0.021015026 -0.046109736 -0.052423704 -0.048220854 -0.049955238
0.03908282 -0.044992354 0.07049141 0.013259217 0.033797666 0.021279357 -0.05686698 0.061554175
-0.0496961 0.05010298 0.017755045 -0.048521537 -0.07919848 -0.079071134 -0.08017833 0.047725655
-0.07431635 -0.06541833 0.06454995 -0.06539843 0.027363695 0.0318651 0.037945714 -0.03790393
0.020616319 -0.024544423 0.037908375 0.065198645 -0.020149713 -0.022322811 0.011429663 -0.073355325
-0.080475256 -0.006448119 -0.048340876 -0.080107905 0.079721674 0.03495419 -0.02410909 -0.0429882
-0.087839425 0.054161064 -0.092985466 -0.015379332 0.027108219 0.009709634 0.040224485 0.05919313
-0.04460764 -0.016485475 -0.029296523 -0.029118137 0.07973262 0.01450996 -0.08578542 -0.013216944
-0.02829087 -0.030864716 0.018837921 -0.0749708 0.017691225 0.026976932 -0.06108051 -0.016816854
00000000: 3936 693d d9f4 563e feae 483d a11c d33d
00000010: b75d ca3d 019d 7e3d ef66 72ba 2e1e 30bd
00000020: 5e1a 553e 4ec4 af3d b8af f4bc ab9d a1bd
00000030: 5055 1c3d e1a1 523d 6ff6 833d 4620 d93c
00000040: e9b6 71bd 6751 cbbd 53e3 41bc 9dc4 453d
00000050: 1dea 6d3c 1691 88bd 0832 c83d 560d fb3d
00000060: 3f15 143e 1639 e9bc 48f9 973e ad40 083e
00000070: c0bb ee3d 650a c53d 55a5 9a3d 962b 40bb
00000080: 8776 8e3d 8cce 3e3e 3bf6 dd3d c37d 10bd
00000090: 778c 31bb cdae 0dbc 673a ec3a 3a36 8bbd
000000a0: b173 a03d f6b2 c13b 7240 6abb dd7e 01be
000000b0: 63c6 69bc b66d 5dbd 371e 063e cc0e 24bd
000000c0: cdd0 2b3d 9775 99bd 0d02 8fbd db99 f3bc
000000d0: 9311 193d 9179 963d f57c 84be 6494 ddbb
000000e0: b6dd 90bd 2c49 8f3d 5875 bb3d 04a0 dd3d
000000f0: 0be1 3abd 7929 efbd eeaf c43d 2ba0 14bd
00000100: 21cf 3e3c 47aa 41bc d0f2 973d 9438 83bd
00000110: 182f f0bd 3fba 1bbb 768f 333d ce95 ce3c
00000120: 14eb 7c3e 5205 8c3e 6130 363d 3b3d 3d3d
00000130: 64ea 3b3e 57e3 4e3e 6700 323c 9c59 0fbe
00000140: ee5c a83d 4009 973e 5204 c93d 5929 5fbd
00000150: 4777 3abb 05b3 b3bb 34dd 11bd dc42 7abb
00000160: bee3 25bd 17f9 503d 61ff ae3d 65fd 203e
00000170: 99a5 193c 1f4d 013d 27e7 28bd 5b7d 43bd
00000180: dc43 53bd 8576 63be 9daa c73d e56f c9bc
00000190: 893a 56be 57d8 2f3d ff8d 14bd d447 6b3c
000001a0: b95c f93d ccf2 b73d a0a5 e5bd 1f61 06be
000001b0: b539 b7bc f198 3abd 8928 cfbd 5e2d 0a3e
000001c0: 0e6a a03b 5646 6d3c 890f 5a3d 9b76 433d
000001d0: 01c9 7fbc 3ca1 143e e1f4 65bd 9ec3 66bd
000001e0: fa9f 05bd e96b 5f3d 7d8c 673d f68e 353e
000001f0: 9610 2d3d 3539 123e c537 ccbc 2413 2f3d
00000200: 7f8d 3ebc 97e9 103d 500a 873c 520d 033c
00000210: 3ff5 d1bc 50b3 63bc b08e 1d3d aa69 6b3d
00000220: 8e59 7a3d 35a7 8dbd d35b 91bd ccf7 403b
00000230: e9e2 aabd b591 bf3c 70d2 58bc b84b 963c
00000240: e3c9 d4bd 8911 5abd f50f b5bd 19e9 afbd
00000250: b470 eebc 1a73 213d f93e 7b3c 883f 553d
00000260: 8607 903c 3f2d a03d 2751 19bd 9bef de3b
00000270: 27ba bdbd c5bd 943d 7286 1abd b9c7 4bbc
00000280: 7668 46bd d82f a73d f0a2 613d 95f7 43bd
00000290: c867 4abd 8136 ae3c d07d 283c 30f8 5cbd
000002a0: 5eb8 293c 36b3 4e3d 2e4f 0ebd d0ba 17bd
000002b0: 22b1 7fbd 9734 54bd 3f8b 123c 3c7c 2cbd
000002c0: 0893 adbd 3d4a c7bb 17f3 22bc d33d b03d
000002d0: 7276 8e3d b45b 0f3d 7876 6fbd f98c 813d
000002e0: d6ba b4bd 7bf4 783d 1b73 95bd b427 ac3c
000002f0: 90dd 3cbd 3dba 56bd 3b83 45bd dd9d 4cbd
00000300: 4f15 203d e749 38bd cd5d 903d 303d 593c
00000310: 6c6f 0a3d 0c52 ae3c 5aed 68bd 3b20 7c3d
00000320: 238e 4bbd c838 4d3d 0773 913c 85be 46bd
00000330: d032 a2bd 0cf0 a1bd 8934 a4bd fa7b 433d
00000340: 2c33 98bd 0cfa 85bd c432 843d 9def 85bd
00000350: d429 e03c fb84 023d f76c 1b3d 2741 1bbd
00000360: 8ee3 a83c 6311 c9bc d045 1b3d de86 853d
00000370: 0311 a5bc 54de b6bc 7b43 3b3c 513b 96bd
00000380: 36d0 a4bd be4a d3bb 1501 46bd 9d0f a4bd
00000390: 1e45 a33d 202c 0f3d 6d80 c5bc 6514 30bd
000003a0: 28e5 b3bd fed7 5d3d 2a6f bebd 98f9 7bbc
000003b0: 0e12 de3c 2815 1f3c 6ec2 243d 7f74 723d
000003c0: 80b6 36bd 8c0c 87bc 43ff efbc 2989 eebc
000003d0: db4a a33d 2fbb 6d3c 44b0 afbd e28b 58bc
000003e0: 41c2 e7bc 00d8 fcbc fc51 9a3c 4a8a 99bd
000003f0: 30ed 903c bafe dc3c 8f2f 7abd 80c3 89bc

dense.0.bias f4 [120]
-0.068201035 -0.059186213 -0.06384348 -0.039882213 -0.015516787 0.19136633 -0.05907356 -0.06451264
-0.06414976 0.13124506 0.086297125 0.019572984 -0.10404498 0.062026266 0.14056422 -0.048196077
0.1990366 0.06224976 0.17274895 -0.07089275 0.029847238 0.24506408 -0.017445875 -0.039017167
-0.038244203 -0.101754874 0.068808876 0.058520727 -0.03828531 0.025589218 0.03165383 -0.031550698
-0.12005885 0.015938437 -0.05913751 -0.0063599185 -0.055685584 -0.018853672 0.06491984 -0.015802685
0.00025098107 0.25225532 0.026904238 -0.018798433 -0.09802547 -0.08134183 -0.06294851 0.20721048
-0.018853854 -0.11208861 -0.05940599 -0.065879785 -0.0521645 0.1023065 -0.037596136 -0.033836212
0.036244746 -0.06497151 0.11762697 0.052359816 0.13108984 -0.09575872 0.1697231 -0.06722544
-0.08165911 0.044412404 -0.0057633314 0.061271094 0.023207514 -0.054893814 -0.09956148 0.014687017
0.1223288 0.109762914 0.07027744 0.1379712 0.047320727 -0.0076876394 0.086592406 0.10261922
-0.044716895 0.06820405 0.023934241 -0.082754016 -0.03429052 0.14380711 -0.06828375 -0.062619925
-0.055274792 0.11688159 -0.094473034 -0.0037270244 0.08553735 -0.038238842 0.011333273 0.098554865
0.11655565 0.23706122 -0.0186347 0.013198947 -0.016444582 -0.050569993 -0.03956814 -0.16305254
-0.07921912 0.07862615 -0.05587459 -0.06892583 0.23488368 0.119597584 0.09911301 0.049533755
0.05304303 0.11094153 -0.038959812 -0.07595059 -0.009854238 0.051862326 -0.02970211 -0.08674032
00000000: fcac 8bbd 3e6d 72bd 5fc0 82bd 885b 23bd
00000010: 1f3a 7ebc 89f5 433e 1ef7 71bd 341f 84bd
00000020: f360 83bd 1b65 063e 8cbc b03d 8657 a03c
00000030: 8915 d5bd 410f 7e3d 11f0 0f3e 4069 45bd
00000040: 40d0 4b3e 9bf9 7e3d 1ae5 303e 3830 91bd
00000050: 3282 f43c 14f2 7a3e a7ea 8ebc 77d0 1fbd
00000060: f4a5 1cbd dc64 d0bd abeb 8c3d 6eb3 6f3d
00000070: 0fd1 1cbd 7ba0 d13c 72a7 013d 4e3b 01bd
00000080: 6ae1 f5bd 5391 823c 2c3a 72bd dd66 d0bb
00000090: 9116 64bd 0473 9abc b1f4 843d a274 81bc
000000a0: 1c96 8339 9c27 813e 4766 dc3c 2cff 99bc
000000b0: 94c1 c8bd 8c96 a6bd 26eb 80bd fc2e 543e
000000c0: 6673 9abc b78e e5bd b253 73bd fbeb 86bd
000000d0: 71aa 55bd 1286 d13d 68fe 19bd d797 0abd
000000e0: 5f75 143d c80f 85bd 69e6 f03d 3f77 563d
000000f0: 6a3c 063e 261d c4bd e4cb 2d3e 7ead 89bd
00000100: e43c a7bd c8e9 353d 54da bcbb 66f7 7a3d
00000110: af1d be3c 56d8 60bd e4e6 cbbd d0a1 703c
00000120: 8687 fa3d 61cb e03d 9eed 8f3d 5248 0d3e
00000130: 61d3 413d 98e8 fbbb 5c57 b13d 072a d23d
00000140: 1029 37bd 91ae 8b3d be11 c43c f07a a9bd
00000150: 3774 0cbd 2c42 133e 5ad8 8bbd e03e 80bd
00000160: d267 62bd 9d5f ef3d 147b c1bd 1841 74bb
00000170: 352e af3d 55a0 1cbd 31af 393c 22d7 c93d
00000180: bbb4 ee3d 2dc0 723e cca7 98bc 6540 583c
00000190: cab6 86bc 7b22 4fbd 3412 22bd 3ff7 26be
000001a0: a23d a2bd bf06 a13d c1dc 64bd fc28 8dbd
000001b0: 5985 703e 94ef f43d c3fb ca3d e8e3 4a3d
000001c0: a643 593d 5035 e33d 5394 1fbd fc8b 9bbd
000001d0: ab73 21bc 976d 543d d751 f3bc e9a4 b1bd
