pth/model.pth (torch, 502673 bytes, 16 tensors)

conv1.0.weight f4 [6, 3, 3, 3]
000000 7e 9a 93 bc be 73 04 be 29 99 ee bd c7 6d f3 3c
       -0.018018004 -0.12934777 -0.11650307 0.029715432
000010 9f 38 25 bc 66 14 4b bd e9 46 42 3e bb e9 9c 3d
       -0.0100843 -0.04958 0.18972363 0.07661768
000020 92 fe a0 3d 41 83 39 3d 2e 64 0e be f0 d9 2a be
       0.078610554 0.04529119 -0.13905403 -0.16684699
000030 3d 62 21 3e ac 0e 62 bd f5 78 4e be 94 ab 21 3d
       0.15760131 -0.055189773 -0.20163329 0.03947027
000040 55 2c 80 3e 64 36 29 3d c8 c0 38 3e a3 61 c3 bd
       0.25033823 0.041311637 0.1804229 -0.09540107
000050 49 20 54 be f4 8a ea bd 47 02 2a 3e 4a 8c 6b be
       -0.20715441 -0.114522845 0.16602431 -0.23002735
000060 a4 42 50 3c 0f 8d 7a 3e fe 1b f8 3d df d2 17 3d
       0.012711201 0.24467872 0.12114714 0.037066337
000070 43 72 11 be cf e3 6d bd b9 1b ef 3d e9 7f a7 3d
       -0.14203744 -0.058078583 0.116752096 0.08178694
000080 d3 4d 0b be f4 5b 16 3e 74 ad c7 3d 2e cd 99 bd
       -0.13603906 0.14683515 0.097498804 -0.07509838
000090 39 e4 d2 3d d2 d0 ee bb 0c 7f 1a 3e 45 6c 28 3e
       0.10297436 -0.007288077 0.15087527 0.16447552
0000a0 fa 0d 27 3d bc e6 5b 3d 64 4f 8e 3d 7a 3d 8f 3d
       0.040784813 0.053686842 0.06948736 0.069941476
0000b0 65 0f 29 3e f8 ee 18 3e 17 34 2b 3e ec fb 54 be
       0.16509779 0.1493491 0.1671909 -0.20799226
0000c0 ce b0 55 bd 08 3e 06 3e 5d 2e ec 3d c3 fc d0 bc
       -0.052170567 0.131096 0.115322806 -0.025511151
0000d0 65 a3 5c 3d bf 84 0d 3d 5e aa 58 3d c7 99 16 be
       0.053866763 0.034550425 0.05289685 -0.14707099
0000e0 44 e6 12 bd 48 67 ae 3d 1b 15 9c be 5c 1a ee 3d
       -0.03586413 0.08515793 -0.30484852 0.116261214
0000f0 40 5c 14 bb bd 58 93 be 9f 72 ef 3d 15 67 fb bd
       -0.0022637993 -0.2877864 0.11691784 -0.12275521
000100 98 65 3e 3e d8 e9 f9 bd b6 72 6f 3e 92 ed 40 3d
       0.18593442 -0.12202805 0.23383602 0.047101565
000110 0f d2 31 3d d9 6f 2b 3e 75 52 58 bd c7 c7 88 3d
       0.043413218 0.16741885 -0.052813012 0.066787295
000120 b3 08 06 be ed e1 05 3e e8 e0 c2 3c 60 93 e9 3d
       -0.13089256 0.13074465 0.023788884 0.11405063
000130 4f 43 38 be 9e fd 72 3d 28 9a 01 bd 9a 76 2d be
       -0.17994426 0.0593239 -0.031641155 -0.16939774
000140 6c ec 4d 3e 04 2b 72 3e 24 78 26 be d9 e3 51 3e
       0.20109719 0.23649222 -0.16256768 0.20497073
000150 ab 37 78 3e 1b 1e de 3c e6 ff 68 3e 90 28 89 3d
       0.24239986 0.027113965 0.22753868 0.0669719
000160 7f b6 3b be 4d ee bb bd df 73 95 3d eb 08 6a be
       -0.18331335 -0.09176312 0.07297491 -0.22854964
000170 71 2f 6e bd 8f 58 85 3d 99 b4 02 be 93 f5 d9 3a
       -0.058150712 0.06511032 -0.12764205 0.0016628973
000180 4a d1 3c 3e b3 e7 2a bb 4a 83 a2 bd 9f 1d 73 3d
       0.18439212 -0.0026078045 -0.07935198 0.05935442
000190 27 e9 8b 3d fb 59 2b be 85 ad d2 3d 07 8f 05 be
       0.0683158 -0.16733544 0.102870025 -0.13042842
0001a0 5b 21 8e 3b dd ac 31 3d e0 9e 37 be 4f e0 e6 bc
       0.0043374724 0.043377746 -0.179317 -0.02818313
0001b0 29 af 18 be f7 d4 27 bd cb 25 e3 bd fa f4 da 3d
       -0.14910568 -0.040974583 -0.11091193 0.10691257
0001c0 a8 8e 8e bc 9b 3f 58 bc a5 f3 f6 bd 7c b4 00 be
       -0.017402008 -0.0131987585 -0.1205819 -0.1256885
0001d0 56 d2 79 bd a1 2b ec bd a8 38 6d bd a8 64 b3 bd
       -0.060991608 -0.11531759 -0.05791536 -0.08759433
0001e0 b3 23 b4 bd ed c7 bc 3d eb dc 69 3e 3d 29 f6 3d
       -0.087958716 0.0921782 0.2283818 0.12019584
0001f0 f1 4a 45 bc ce cc fa bd 28 b4 4f 3d 5b e8 bc bd
       -0.012041793 -0.12246095 0.05070892 -0.09224006
000200 bf 90 79 bc bc c7 1c 3e 58 b5 ea 3a 5a 1a cc 3c
       -0.015232264 0.15310568 0.0017906828 0.02491491
000210 53 b7 ad 3d a2 3f 6e 3e a0 cf 39 3e 22 05 de 3c
       0.08482232 0.23266461 0.18145609 0.027102057
000220 ed ce c1 3d c5 ae af bd eb 4c 2d 3e 5d 5f 95 3c
       0.09463296 -0.085782565 0.16923873 0.01823395
000230 19 4c ce bd 97 90 0e be 48 6c 8d bd 45 74 8b 3d
       -0.10073108 -0.13922344 -0.06905419 0.06809286
000240 1b d1 f6 3a 58 c9 09 be de 4d 8b bd 10 1a ec 3d
       0.0018830629 -0.13455713 -0.06801961 0.115284085
000250 a4 04 ed bd c1 0d 70 be 4e 42 45 3e 11 ae 10 bc
       -0.11573151 -0.23442747 0.19263574 -0.008830563
000260 e6 16 80 be 07 b3 4f 3e c3 ec 7d 3e fd 9a b9 bd
       -0.2501747 0.20283137 0.24797349 -0.09062765
000270 1f 35 6c 3e d5 99 4f 3e 58 81 a0 bc db 83 2d 3e
       0.23067139 0.20273526 -0.019592926 0.1694483
000280 b7 06 0a be 1b d2 55 bc
       -0.13479124 -0.013050581

conv1.0.bias f4 [6]
000000 9a df 03 3c f4 6a ce bd 31 f6 4a 3d 0e 7d 5a bb
       0.008048916 -0.100789934 0.049551193 -0.0033338699
000010 aa 58 5a 3d 0f 1f e3 3c
       0.053307213 0.02772477

conv2.0.weight f4 [16, 6, 3, 3]
000000 c6 ff 24 bc 90 ab 3a be ae e0 08 3e 39 c4 7d be
       -0.010070747 -0.18229508 0.13366958 -0.24781884
000010 10 a1 6b be 5a d2 0d 3e 3c b7 1c be 73 65 73 be
       -0.23010659 0.13849774 -0.15304273 -0.23769169
000020 f2 24 9d 3d 75 14 3e 3e a9 d9 7b bc 9f d0 05 bd
       0.076730624 0.18562491 -0.015371718 -0.03266966
000030 c8 2e 83 bd f7 4c 03 3e 4e 97 b0 3d eb 66 81 bd
       -0.06405407 0.12822329 0.08622609 -0.06318458
000040 8b 98 75 bd b1 73 0d 3e ce 8f 6a 3d 98 d6 3f bc
       -0.05995993 0.13813664 0.05726605 -0.011708878
000050 e9 3c d4 bd a1 16 c1 bd 11 b0 9f 3c ef 52 a5 3d
       -0.1036318 -0.09428144 0.019493135 0.08072459
000060 e4 b1 0c be 91 ad 60 bd 2a 3b 11 3e ac 82 31 3d
       -0.13739735 -0.054853026 0.14182726 0.04333751
000070 9d 2e 42 be b5 33 f3 3d 41 93 ab be 5d 9b 8e be
       -0.18963094 0.11875097 -0.33510783 -0.27852908
000080 45 d6 69 bd fc 71 2f bd 75 44 93 bd 00 db 0f be
       -0.05708911 -0.042833313 -0.071907915 -0.14048386
000090 5f b3 c3 3d 1f a1 57 3e 71 2f 52 3e ff 5f a0 3d
       0.09555697 0.21057557 0.2052591 0.0783081
0000a0 7b 07 3b 3e 0a 7e c2 3d f4 03 9d bd f9 40 87 3e
       0.18264572 0.09496696 -0.076667696 0.26416758
0000b0 ef 6b a5 3e 24 65 28 bd ac 6c 13 3e 6f 17 81 3c
       0.3230891 -0.04111208 0.14396924 0.015758244
0000c0 14 e1 d2 3d 77 f8 dd 3d b6 12 9d 3d 98 e8 43 bc
       0.102968365 0.108384065 0.076695845 -0.01195731
0000d0 f9 85 01 bd 1a 62 e5 3d 4e 65 5a be 02 c9 d9 3d
       -0.031621907 0.11200352 -0.21327707 0.10634042
0000e0 c0 04 04 3d 07 fe 2e be 1f 93 23 3d 8b a3 07 3d
       0.032231092 -0.17089091 0.039935227 0.03311495
0000f0 66 30 cd bc 2c 68 9c 3c 1e 15 87 3b ff df 58 3d
       -0.025047492 0.019092642 0.0041223904 0.052947994
000100 1c 65 35 be a7 24 98 bd 74 82 0e be 7d 91 06 bd
       -0.17714351 -0.07428866 -0.13916951 -0.032853592
000110 3d 49 31 bd 60 db 11 be 1e da c5 3d d9 b2 19 3e
       -0.043282736 -0.14243841 0.09660743 0.15009631
000120 73 76 9e 3d 05 3b 91 3e 54 44 6d 3e f0 71 21 3e
       0.07737436 0.2836534 0.23170596 0.1576612
000130 87 27 68 3e 01 6b 1c 3e 89 f9 fa bd c5 68 1b 3e
       0.22671328 0.15275194 -0.12254626 0.15176685
000140 f2 c7 5d 3e 90 c9 e4 3c a9 dc 6b 3d 7d 30 87 bc
       0.21658304 0.027928144 0.057583485 -0.016502613
000150 99 89 42 3d f6 55 21 3e 40 22 3c 3e 2c 23 4d bd
       0.047494505 0.15755448 0.1837244 -0.05008237
000160 d8 d6 46 3b 13 4c 00 3e b4 b8 f3 bd 69 81 99 3d
       0.003034046 0.1252902 -0.11900464 0.07495386
000170 37 ef 28 be 78 ad 60 bd 88 34 13 bd 1f ef 88 3c
       -0.16497503 -0.054852933 -0.03593877 0.016715584
000180 a7 30 7b be a9 32 89 bb 4f 6a 06 be d9 fe ad bd
       -0.24530278 -0.0041869474 -0.13126491 -0.08495874
000190 be 31 0e 3d d1 9a c0 3d db 97 06 bd 76 47 63 3e
       0.034715407 0.09404529 -0.032859664 0.22195229
0001a0 6b 70 05 3e 10 2a 39 3a 16 f0 96 bd 42 78 7d 3e
       0.13031165 0.0007063458 -0.073700115 0.24752906
0001b0 a6 44 bf 3c 57 33 99 be 57 ec a3 be f2 fc 11 3d
       0.023348164 -0.29921982 -0.3201625 0.035641618
0001c0 31 06 bb be 25 9f 9c be 6a 91 b8 bd 6b 34 b7 be
       -0.3652816 -0.30590168 -0.090121105 -0.3578218
0001d0 e2 6f 48 be da 12 ae 3d 1b b1 4d bd 73 cb 4b bd
       -0.1957393 0.084996894 -0.05021773 -0.04975457
0001e0 78 74 65 bd 90 c4 d1 bc 24 06 20 bd eb c7 ba 3d
       -0.056019276 -0.025606424 -0.039068356 0.091201626
0001f0 6c d4 91 bd 63 92 02 3e 39 a3 c2 bd 97 48 8d bc
       -0.071205944 0.12751155 -0.095037885 -0.017246528
000200 f5 ae 88 bd fe 60 bd 3d 1c a8 3d 3d e6 aa 17 3d
       -0.066739954 0.092470154 0.0463029 0.037028216
000210 2e ac 0a 3e cb 25 72 bd 3a c3 62 3d fb 8f ca 3d
       0.13542244 -0.059118073 0.055361964 0.09890743
000220 b0 1c 03 3e 89 cc 60 bd d0 01 12 3e 92 de 24 3c
       0.12803912 -0.05488256 0.14258504 0.0100628305
000230 48 34 0a be dd 2a 5b 3e 1a 0f 9b 3c 05 81 c0 bd
       -0.13496506 0.2140307 0.0189281 -0.093996085
000240 74 2f 6c be 1b 49 07 be 57 62 e4 3c af 14 f1 bd
       -0.23064977 -0.13211481 0.027878923 -0.11771523
000250 18 a3 db 3b 9e 4e 33 bd a2 34 61 bd 56 88 b7 3d
       0.006702792 -0.043776147 -0.054981835 0.08961551
000260 63 91 17 3e b6 31 02 3e e4 38 57 3d 57 7a 6f be
       0.14801554 0.12714276 0.05254449 -0.23386513
000270 cf 53 99 3d 93 78 1d be 41 57 6e bd 27 61 0e 3e
       0.07486688 -0.15378027 -0.05818868 0.13904248
000280 9d ac 34 be 92 54 69 bd 9a fb 21 3e d3 ed ef bc
       -0.17643972 -0.05696542 0.15818635 -0.029288208
000290 5e 84 9b bd 0b 2a 7b 3d ae 96 28 be 5f 3b 0f be
       -0.075936064 0.061319392 -0.1646373 -0.13987492
0002a0 87 7e b2 bd c2 c0 8d 3c 67 40 97 3a f2 8d d9 bd
       -0.087155394 0.017303828 0.0011539579 -0.10622777
0002b0 f3 e8 01 be af 78 22 3e 5f 0d 27 bd c7 d9 4e 3d
       -0.1268652 0.1586635 -0.040784236 0.050500657
0002c0 ec 65 19 bc 0c 51 cb bd 02 bf 01 3e 64 6d 24 3d
       -0.009362679 -0.09927568 0.1267052 0.040143386
0002d0 c3 25 6e bd f6 0e aa bd 84 32 00 3c 6a 58 a9 bd
       -0.05814148 -0.08303635 0.007824544 -0.08268817
0002e0 3b 27 bc bd d8 0a c5 bd 05 f9 0c 3d 98 9e 60 be
       -0.0918717 -0.09621209 0.03441717 -0.21935499
0002f0 5d 32 53 be a0 66 bd 3d be c8 7a be ba 62 89 bc
       -0.20624681 0.0924809 -0.2449064 -0.01677071
000300 43 51 6c be d0 03 90 3d 47 73 86 3d fe 1d 31 be
       -0.23077874 0.07031977 0.06564956 -0.17296597
000310 d1 85 bc 3d 63 09 23 3e ae 19 b7 bd fe 8f 10 be
       0.09205211 0.1592155 -0.08940445 -0.14117429
000320 ea 56 c7 3b 72 a9 cc 3d 63 7a b4 bc c4 73 1b be
       0.006083359 0.09993257 -0.022031015 -0.1518088
000330 c1 04 a6 3e 66 29 0a bd ae fa 8b be 1f e8 af 3c
       0.32425502 -0.033730887 -0.2733969 0.021472989
000340 b6 e5 75 be 27 a7 db bd 95 b3 89 3c c3 ef 9a bd
       -0.24013409 -0.10725241 0.016809264 -0.07565262
000350 ee 39 d5 3b 9d 22 23 3d 59 1f 25 3e 9d 5c be 3d
       0.00650715 0.03982793 0.1612524 0.09295008
000360 1f cb e2 3d 67 ed 94 3d 6d a6 c1 bd 09 f5 07 3d
       0.110738985 0.072718434 -0.09455571 0.033192668
000370 b6 34 5a 3e 99 78 b4 3d 58 55 2f bd 6c 08 78 3d
       0.2130917 0.08812065 -0.042806 0.060554907
000380 aa 52 60 3e 3e f4 e0 3d c5 9a fe bc 96 2f d8 3d
       0.21906534 0.109840855 -0.03107966 0.10555951
000390 1d 02 c9 bd d8 eb 04 3d 88 c6 23 be 4a 37 54 3d
       -0.09814856 0.03245148 -0.15993702 0.05181054
0003a0 91 e4 c3 bd 4b 7d c8 bd f4 93 46 3e 17 4f 2f bd
       -0.0956508 -0.09789523 0.19392377 -0.042800035
0003b0 37 ff 57 3d 14 57 d0 3d 17 d5 fa 3d 54 f7 2b 3e
       0.052733626 0.10172859 0.12247675 0.16793567
0003c0 1c 43 4a bd 20 b2 15 3e b4 22 d5 bd 2f 2e 22 3e
       -0.049380407 0.1461873 -0.1040701 0.1583793
0003d0 47 6a b9 3d 63 24 ec bd 00 81 05 3e 25 98 91 ba
       0.09053474 -0.11530378 0.13037491 -0.0011107965
0003e0 84 e1 98 3b bc ec 08 3e df 57 78 3d 8b 74 15 bd
       0.0046655554 0.13371557 0.060630675 -0.036488097
0003f0 98 cd dd 3d 33 21 d0 3d 9c fc e8 3c 58 f5 c5 3d
       0.108302295 0.10162582 0.028440766 0.09665936

conv2.0.bias f4 [16]
000000 13 d7 ba bd 0c e5 63 bc 76 a5 07 3e 79 f2 35 3e
       -0.091230534 -0.0139095895 0.13246712 0.17768277
000010 a3 90 be bd 04 e6 77 3c 58 b3 4e bc 72 7d ad 3d
       -0.09304931 0.015130524 -0.012616001 0.084711924
000020 0b 2f cf 3d 51 d3 d4 3d 3c af 48 3d 7f 44 6d bb
       0.101163946 0.10391868 0.04899524 -0.0036204157
000030 61 da 89 3d 69 64 8c 3c 06 ce 80 bc 71 f1 5d 3d
       0.067311056 0.017137723 -0.01572324 0.054185335

conv3.0.weight f4 [32, 16, 3, 3]
000000 66 a0 2f 3d 05 0a 8b bd 9f 6d ce bc 07 2d bd bc
       0.042877577 -0.067890204 -0.025198756 -0.02309276
000010 9d 94 af bd 99 e4 4a 3d 8d b0 96 3d be 3a c2 bc
       -0.085732676 0.049534414 0.07357893 -0.023709651
000020 ac 40 e6 3c e3 23 c6 3d d0 86 02 be a1 27 43 bd
       0.02810701 0.096748136 -0.1274674 -0.047645215
000030 ef 9b 4a 3d cc 7c 61 be da 82 f2 bd b9 43 0b be
       0.049465116 -0.22020262 -0.11841364 -0.13600053
000040 ea 35 27 be 8a dc 67 3d 3c 88 23 bd d9 86 0a be
       -0.1632916 0.056606807 -0.039924845 -0.13528003
000050 d2 57 0a be a8 cd 99 bc fb 78 91 bc 91 7e b4 bd
       -0.13510063 -0.018774822 -0.017757883 -0.08813203
000060 54 7b 08 3d f4 03 8c 3e 70 20 29 3e 8c 58 72 3d
       0.03332074 0.27346766 0.1651628 0.059166476
000070 29 7e 3a 3e f7 9a ce 3c 4a 3b 48 3e b0 30 6d 3e
       0.18212189 0.025220377 0.19553867 0.23163104
000080 2f 96 3e 3e ae 81 3c 3e 83 86 f4 3d 31 38 7c 3d
       0.18611978 0.18408844 0.119397186 0.061577026
000090 8d 46 a7 3d 88 61 9a bc 9d fe fe bc 26 aa b1 bd
       0.08167753 -0.018845335 -0.031127268 -0.08675031
0000a0 dd b5 63 be 4c 36 f4 bc 19 7d 35 bd 76 8e aa be
       -0.22237344 -0.029811047 -0.044308756 -0.33311814
0000b0 fb 88 3f be 2c 6f 8f 3b db c2 8b 3d 8e 28 26 3a
       -0.18704598 0.0043772664 0.06824275 0.00063384406
0000c0 f4 92 4f 3d 9c 4b 5a 3d e6 61 cb bc b0 c4 e5 3c
       0.050677255 0.053294763 -0.024826955 0.02804789
0000d0 e9 ce c6 3d ae 2e 37 3c ac 93 7d bc 3a 89 6d 3d
       0.09707434 0.011180563 -0.015477102 0.057992198
0000e0 31 54 c4 3d 7a d2 80 bb 16 58 2e 3d 39 c3 01 3e
       0.09586371 -0.0039313408 0.042564474 0.12672128
0000f0 8c 6c 68 3b df 3f 64 3c ac 1b 74 3d 80 9b ef 3d
       0.003546509 0.013931244 0.059596702 0.11699581
000100 29 92 f4 3c e5 49 da 3d 36 a1 8b 3d 36 eb 87 bd
       0.02985485 0.106586255 0.06817858 -0.0663666
000110 18 31 a2 bd b7 e0 5b 3d 55 8e 9a 39 08 5b b9 bd
       -0.0791952 0.0536811 0.00029479215 -0.09050566
000120 6f a3 b6 bd 37 4d 2c be ea 5a 15 be 8d c7 30 3d
       -0.08917891 -0.1682633 -0.14585462 0.043159056
000130 41 45 9d bd 81 e6 6a bd 61 c6 02 3e b4 fc dd 3d
       -0.07679225 -0.057348732 0.12770988 0.10839215
000140 a1 97 69 3d 75 e7 e6 bd 1a ad f9 bc 09 fa f6 bd
       0.05702937 -0.11274616 -0.03047805 -0.12059409
000150 88 9e f3 3c fc ac f2 ba 08 0f 8b 3c c8 6f ef bc
       0.02973868 -0.0018514688 0.01697494 -0.029228106
000160 10 69 15 be b2 80 f4 bb 79 0e ed 3c 0e cf 01 be
       -0.1459086 -0.0074616307 0.028937565 -0.12676641
000170 5d 13 bb 3d 05 85 bf 3b bf fa a6 bd c3 03 a3 3d
       0.09134553 0.0058447146 -0.08153295 0.07959702
000180 85 5c 37 3e ac aa 4e 3e 0d a6 83 3e 46 fe b5 bd
       0.17906387 0.20182294 0.25712624 -0.088863894
000190 f0 2e 07 be 51 86 94 bd 32 3a ae bd 78 a6 c5 be
       -0.13201499 -0.07252181 -0.085071936 -0.38603568
0001a0 48 a5 2e be 0b d0 ad 3c b1 ec e5 bd 5b d4 fa bd
       -0.17055237 0.021217367 -0.11226786 -0.12247535
0001b0 80 d8 5f be 7d 8b ec bd 23 61 96 bb 0f af d0 3d
       -0.21859932 -0.11550043 -0.0045892163 0.1018964
0001c0 87 40 c4 3d 78 dc 96 3d 33 f0 c4 3d 3a ba 53 3d
       0.0958262 0.0736627 0.09616127 0.05169127
0001d0 60 11 17 3e c1 ed d4 3d 65 5d a8 3d df 9b ed b9
       0.14752722 0.103969105 0.082209386 -0.00045320296
0001e0 cc 5e c4 bd cb 03 3c be 44 25 e2 3d ba 8e 60 3d
       -0.095883936 -0.18360822 0.11042264 0.054823615
0001f0 fa 4e 80 bd 1b e9 a8 bc 69 58 74 bc 66 32 94 bc
       -0.062650636 -0.020618966 -0.014913657 -0.018090438
000200 cf 9e 2d bc 7d 32 c4 3d 6b 6d 7c 3d e4 64 aa bd
       -0.010596945 0.095799424 0.061627787 -0.083200246
000210 06 54 ca bc 8c 73 0e 3d 0c 81 1a bd df 88 56 bc
       -0.024698269 0.034778163 -0.037720725 -0.013094156
000220 a7 4f 4b 3b 74 dc a7 bc 6a da 11 3d 41 99 43 bd
       0.0031022818 -0.020490862 0.035608687 -0.047753576
000230 ac 0a 5b 3d e0 0f 7a bd d1 4b 25 bd 6e 15 52 3d
       0.053476974 -0.061050296 -0.040355507 0.05128997
000240 cc b7 9c bd fa 2a 22 bd 02 31 08 3c 3c 6b 21 3d
       -0.07652244 -0.039591767 0.008312466 0.039408907
000250 a8 f0 54 3d b0 6c 62 bd f7 0b 33 be 6a 3a 54 bd
       0.05198732 -0.055279434 -0.17485033 -0.05181352
000260 75 0d 1b be 45 7d e4 bd dd b3 c7 3c ea 6c 05 3c
       -0.15141852 -0.11156706 0.024377758 0.008143643
000270 ea 94 74 bc d5 87 d0 3d 64 bc c0 bc b1 77 10 3e
       -0.014928082 0.10182158 -0.023527332 0.14108159
000280 cf 1b b9 3d 3e 87 31 bd 9d fe c0 3d 7a 89 d8 3d
       0.09038507 -0.043341868 0.09423564 0.105730966
000290 2a 4f 15 3d ff 8c 22 be 2c f7 10 be cc 99 06 be
       0.03645245 -0.15874098 -0.14156789 -0.13144606
0002a0 a7 a4 2e be 65 01 0f bc 0e a8 75 bd 7c 1b f1 bc
       -0.17054997 -0.00872836 -0.059974723 -0.02943205
0002b0 5b 9a 8d 3d d3 f6 3c 3e a2 b9 d9 bd 24 20 01 3e
       0.069142066 0.18453531 -0.1063111 0.12609917
0002c0 dd fb 53 3d 5c 58 c4 bd 9b 0e ea bd f2 84 05 be
       0.051753867 -0.09587166 -0.11428567 -0.13038996
0002d0 d0 27 63 be c3 f6 bd bd 73 48 09 be c7 37 8e 3d
       -0.22183156 -0.09275582 -0.13406543 0.069442324
0002e0 72 14 92 3a f7 23 cc 3c 39 5c 74 3d d7 90 28 bd
       0.0011145009 0.024919493 0.059658263 -0.041153755
0002f0 f0 92 5d bc d7 4a 97 bd 8b 8e f0 3b 5d ac c6 bc
       -0.013523802 -0.073873214 0.007341211 -0.024252111
000300 f9 42 13 3d 14 a6 7e 3b 1e df b3 bd 5e 87 2b 3d
       0.035952542 0.0038856314 -0.087827906 0.041877143
000310 3c 97 52 3d b9 e5 c0 bd 94 5f f7 bd 45 42 f8 3c
       0.05141376 -0.09418816 -0.12078777 0.030305037
000320 af a0 81 3d 9c 0e f5 3c cf 05 b8 3c 3f 0c 8b 3d
       0.06329476 0.029914193 0.022463707 0.06789445
000330 28 a4 ec bd 31 7d 8f bd 2f 2a ab bd 36 09 9f bd
       -0.11554748 -0.070063 -0.08357655 -0.07765429
000340 fa c7 23 bd 82 f6 43 3d ca 7d a0 3d 0a 42 8d 3d
       -0.039985634 0.04784251 0.07836492 0.068973616
000350 5f c6 94 3c bf 79 3e 3d 23 70 f2 3d 5c eb 08 bd
       0.018160997 0.046502825 0.11837795 -0.03342758
000360 38 43 6e 3d ba a3 fe 3d c0 79 09 be 37 78 b3 3d
       0.058169574 0.12433572 -0.1342535 0.087631635
000370 f0 2c b2 3c 93 cc 1a be 9c 18 c2 bd 5f e3 04 3b
       0.021749943 -0.15117101 -0.0947735 0.0020277125
000380 55 82 6b be 04 b5 00 be 1c 5f 88 bd 1c 65 e4 bd
       -0.22998936 -0.12569052 -0.06658766 -0.111520976
000390 d0 e4 a7 3c c5 e5 fd 3d b2 80 be 3c c5 c4 7e bd
       0.020494848 0.12397341 0.023254726 -0.062199373
0003a0 26 b8 27 be f9 06 11 be 31 11 4e bd ef 7e 58 bd
       -0.16378841 -0.14162816 -0.050309364 -0.05285543
0003b0 1d 7f d5 bd fa b8 f7 ba 68 bb 92 3d 27 b2 c7 bd
       -0.104246356 -0.0018899732 0.07164651 -0.09750777
0003c0 fa b0 83 3e 60 37 8e 3e 89 b1 71 3e 14 0a 5c be
       0.2572096 0.27776623 0.2360288 -0.2148822
0003d0 f6 a0 9e bd 47 9a 0a be f4 6a e4 bb df a6 5d bd
       -0.077455446 -0.13535415 -0.0069707576 -0.05411422
0003e0 66 5d 60 bd d6 56 02 3e de 59 2d 3d 38 7b 26 be
       -0.05477657 0.12728438 0.042322032 -0.16257942
0003f0 1c 9c e8 3c 8f 8b 9c 3c 00 ea 96 bc 7f b1 23 be
       0.028394751 0.019109515 -0.018422127 -0.15985678

conv3.0.bias f4 [32]
000000 9e ea ed 3d 7d fd 95 3d e0 7f d7 3d 7a dd dc bd
       0.11617015 0.0732374 0.10522437 -0.10784431
000010 78 04 9e bd e7 da 5a 3d 6a 91 d9 bd c4 42 30 bc
       -0.07715696 0.053431418 -0.10623439 -0.010758106
000020 38 fe bc 3c 7f 5c e8 bb 7b 71 12 be 4f 74 fd bc
       0.02307044 -0.0070911045 -0.14301102 -0.03093925
000030 35 8f 94 3d 86 9e 6a bc 3c 73 f9 3c 78 53 fc bd
       0.07253877 -0.0143200215 0.030450456 -0.12320608
000040 87 cc d6 3c 91 cc 37 bd 93 36 a5 3d a8 44 b5 3d
       0.026220573 -0.044872824 0.0806705 0.08850986
000050 48 69 fb bd fe 39 f8 3b 1d 1e 27 be ee 40 fa 3d
       -0.1227594 0.0075752726 -0.16320081 0.122194156
000060 7d 28 bb bd f7 68 02 3d 7c 9c 27 3e ae b9 27 bd
       -0.09138582 0.031838384 0.16368288 -0.040948562
000070 b1 8b 54 bd c0 05 e8 3d 76 d0 cf bb f3 91 42 3d
       -0.051891033 0.11329222 -0.006341989 0.04750247

conv4.0.weight f4 [64, 32, 3, 3]
000000 e7 6e 1e 3d 3f 30 a1 3c a2 d5 66 3d d1 1a 3c bd
       0.038679983 0.019676326 0.05635608 -0.04592401
000010 d8 52 95 3d ea fc a4 bc 6a 36 32 3d 7b 20 11 bc
       0.07291192 -0.02014013 0.043508925 -0.008857842
000020 d4 8d fe 3d dd 0c 18 3d c7 60 b5 3d 18 9d e6 3d
       0.12429395 0.037121642 0.088563494 0.11260432
000030 27 17 89 3c 8b 3a 13 3e 8b ff d1 bd b3 af 82 ba
       0.016734673 0.14377801 -0.10253819 -0.0009970575
000040 07 4c cf 3c 21 0f 88 3b 18 ef bb bd 2f b3 eb bd
       0.025304807 0.004152194 -0.09176463 -0.11508786
000050 23 c7 e4 bd 3d 99 e8 bb a6 53 03 be 31 3f 76 be
       -0.11170795 -0.0070983456 -0.12824878 -0.24047543
000060 f1 3d 7e bb 98 72 15 3e b6 44 48 3d d9 f3 cf bc
       -0.0038794244 0.14594495 0.048893653 -0.02538483
000070 a7 cb e4 3c 64 bc 46 3d 92 32 ca 3c f7 01 a1 3d
       0.02792914 0.048519507 0.024682317 0.07861703
000080 39 08 5f 3d 88 44 2a bc c4 04 cd bc 8e 73 a6 3c
       0.0544512 -0.010392316 -0.025026686 0.020318773
000090 6f 21 ea bc 18 3b 58 be 6b 8b 4f bc d5 d9 97 3c
       -0.028580396 -0.21116292 -0.012667517 0.018536488
0000a0 96 67 0a be d1 c2 43 3d 59 3f ac 3d 9d 51 db be
       -0.13516077 0.047793213 0.0841052 -0.42835703
0000b0 ee 70 3f be 0f 0d c8 bd 94 9d 88 bd d6 9d 59 bd
       -0.18695423 -0.09768116 -0.06670681 -0.05312904
0000c0 0b a7 f9 bd 3a f5 3e be 2d 2e ad 3d 43 5e 3a 3e
       -0.12190064 -0.18648234 0.08456073 0.1820002
0000d0 13 75 b6 3d ef b1 38 3d cb a1 a3 3d 07 5f ba 3d
       0.08909049 0.045091566 0.07989844 0.09100156
0000e0 bc e7 8d 3d 26 c9 0c 3d 45 33 ed 3d b6 be 29 3d
       0.069289654 0.034371518 0.115820445 0.04144164
0000f0 7a 18 92 bb 83 07 cc b9 2a 08 54 be 69 d9 92 3c
       -0.0044584842 -0.0003891551 -0.2070624 0.017925935
000100 1b ee 78 3d 51 04 ad 3d 32 6e 45 3d c5 9f 95 bd
       0.06077395 0.08448089 0.048200794 -0.07305864
000110 af 18 b1 3d f6 0e 08 3d 94 4b 03 be 78 90 51 bc
       0.08647286 0.033217393 -0.128218 -0.012790792
000120 6d cc 32 3d 81 fb 5d 3e 79 6e c1 3d 7f c1 ab 3d
       0.043651987 0.21677972 0.09444899 0.08386516
000130 a8 18 52 3d 61 19 21 3d e2 d5 1a be 48 9d 81 3d
       0.051293045 0.039330844 -0.15120652 0.06328827
000140 54 28 b8 bd f4 75 f8 3d 06 96 a6 bc 8f de 9a bd
       -0.08992067 0.12131873 -0.020335209 -0.07561981
000150 c8 e4 ad bd b1 67 6e 3d a3 f7 eb 3d 34 d0 a9 3b
       -0.08490902 0.058204357 0.11521842 0.0051822904
000160 21 a6 14 bd 65 48 08 3c 7f c5 9a bd aa 7d b1 bc
       -0.036291245 0.008318041 -0.07557201 -0.021666367
000170 05 0e 48 bc 12 38 d6 bc 32 08 b9 bd f9 91 3b bc
       -0.012210374 -0.026149783 -0.09034766 -0.011448377
000180 08 b2 b2 ba e2 3a 66 bd f8 2f de bc eb 89 7a bd
       -0.001363338 -0.0562085 -0.027122483 -0.061166685
000190 fa dc 0a be a2 e0 4b 3c 6b 68 49 bd 2c 50 b6 bc
       -0.13560858 0.012443693 -0.049171846 -0.022255026
0001a0 43 5d 81 3c 63 c2 5b 3e fc f4 bb bd 65 a3 a8 bd
       0.015791541 0.21460871 -0.091775864 -0.0823429
0001b0 56 19 9c 3d 54 b7 3b bd 32 f2 1a 3b 2a be 59 be
       0.0762202 -0.045829132 0.0023642895 -0.21263948
0001c0 2a e5 a9 3c 87 4f 8f 3c 0a 73 26 bc 1b 27 65 3e
       0.020739157 0.017493976 -0.010159263 0.22378199
0001d0 3d dd fd 3c 87 ef 86 3d 76 03 2b bd 98 c6 13 be
       0.030989284 0.06588655 -0.041751347 -0.14431226
0001e0 9f db 7c 3c 94 d1 c7 3d f9 0b 48 bd 73 21 a3 bd
       0.015433221 0.09756771 -0.048839543 -0.07965364
0001f0 2d a1 5e 3d ab 3a 98 3e 1d 1b 2a bd 01 89 ce 3c
       0.054352928 0.2973226 -0.041529763 0.025211813
000200 00 40 84 3d 93 31 25 bd 0d fb 0c 3d 6f 51 26 bc
       0.064575195 -0.04033048 0.03441911 -0.010151251
000210 6e 5f ab 3d 78 72 7d bd 94 9a 70 bd 4e 14 d3 3c
       0.08367811 -0.061876744 -0.058741167 0.025766518
000220 05 a6 cb bd e2 1e 0b 3e 6b d9 5b 3b 36 b4 eb 3c
       -0.09943775 0.13586 0.003354634 0.028772455
000230 d2 90 90 bd ee 56 db 3d e2 11 34 bc b8 d5 74 bb
       -0.07058872 0.1070994 -0.010990592 -0.0037358832
000240 e0 94 12 bd c2 16 23 be ab 6f b7 bd 53 2b 1e bd
       -0.03578651 -0.1592665 -0.08956846 -0.038615536
000250 e9 89 df bd 21 08 61 be 05 6a ef bd 85 67 c7 bd
       -0.10914976 -0.21975757 -0.116901435 -0.09736542
000260 b3 d0 6c bb a7 f8 14 3e 02 07 30 3d 57 e6 bf 3d
       -0.0036135137 0.14547978 0.042975433 0.09370106
000270 28 ac 1e 3c 6d 29 8b bd 5a 39 91 bd 25 c2 dc bd
       0.0096846 -0.06795011 -0.07091017 -0.10779218
000280 e3 2f 13 be 04 9c 12 be 44 ed e4 bd b0 d7 29 be
       -0.14373736 -0.14317328 -0.11178067 -0.16586185
000290 12 bb 7e bc 16 d5 13 3e ce 84 a0 3d 6b b8 e2 bd
       -0.015547531 0.14436755 0.078378305 -0.11070331
0002a0 87 e4 0e 3d 54 d3 36 3e 9b bc f3 bc d9 4a 59 bc
       0.03488591 0.17854053 -0.02975302 -0.013262474
0002b0 41 63 02 bc d5 db 50 3d 5f 54 33 3d 1c 41 c2 bc
       -0.007958234 0.0509909 0.043781634 -0.023712687
0002c0 72 b5 d8 bc 50 21 f1 3b 06 87 75 bd 89 8e e9 3d
       -0.026453707 0.0073587075 -0.05994322 0.114041395
0002d0 70 98 d5 3d 56 11 06 bc 7e bd 73 3d 2f de ca 3d
       0.10429466 -0.008182844 0.059506886 0.099056594
0002e0 83 5a ae 3d d1 c1 1d 3e bd 8b 1e be 25 54 9f 39
       0.085133575 0.15405966 -0.15482993 0.00030389536
0002f0 f7 d4 bd bd 0c ca 8f bd a8 82 73 bd 5b 35 b7 bd
       -0.092691354 -0.07020959 -0.059450775 -0.089457236
000300 f3 23 61 bd 45 21 f6 bd db 82 40 3d e1 85 22 3e
       -0.054965924 -0.120180644 0.046999793 0.15871383
000310 b5 e2 3c 3e 5b e3 6f 3e 93 99 1c 3c ce 5f 54 3d
       0.18445857 0.23426573 0.009558099 0.05184918
000320 3c 75 b1 3d 93 26 b3 3d fd 99 0a 3d 7b eb 99 3d
       0.08664939 0.08747592 0.03383826 0.075156175
000330 25 42 01 3e 47 03 0c bd 56 a2 19 be 6f 1d 1e bd
       0.12622888 -0.034182813 -0.15003332 -0.03860229
000340 d0 09 9d bd f8 c1 26 bd 07 84 37 3e ed 90 27 3d
       -0.07667887 -0.040712327 0.17921458 0.040909696
000350 6a 49 5d bd 46 2c 69 3d fa 50 03 3d e2 a0 86 3c
       -0.05402509 0.056926988 0.032059647 0.016434137
000360 4a 19 5e bc ab c9 65 bd 22 7f 95 bd a5 f1 16 3c
       -0.013555834 -0.05610053 -0.07299639 0.009212886
000370 1d 2a 1a 3d d9 a8 3b 3d 3c b6 8c bc c2 b4 da bc
       0.03763782 0.045815323 -0.01717674 -0.02669752
000380 45 3c 39 3d d1 b2 09 3e 48 d9 5e bd 11 06 04 3e
       0.045223493 0.1344712 -0.054406434 0.12892939
000390 24 54 54 bd d9 11 64 3c 5c 46 35 be ae d8 1a 3c
       -0.051838055 0.013920271 -0.17702621 0.0094510745
0003a0 77 e8 18 bc 54 bb 0e bd 52 e9 1d bd df 62 37 be
       -0.009332768 -0.03484662 -0.03855259 -0.1790881
0003b0 be c6 78 bd 4f 10 f2 bd 73 38 ba bd a8 9a 2b bd
       -0.06073641 -0.11819517 -0.09092798 -0.04189554
0003c0 0a 42 54 3d b4 3a 34 3d 96 17 9a be cb a5 2f be
       0.051820792 0.044001296 -0.3009612 -0.17153089
0003d0 f2 a0 a7 bc 05 62 31 3c 44 56 27 3d 75 99 99 bd
       -0.020462487 0.010826592 0.040853754 -0.07499973
0003e0 49 df e2 3c 9c be 03 3d 1f c5 26 3e 22 12 03 bb
       0.027694361 0.0321642 0.16286133 -0.0019999822
0003f0 b8 65 51 be 98 da 3d 3d 22 24 8b 3c ec 1c ae 3c
       -0.20448959 0.046351045 0.016985003 0.021254025

conv4.0.bias f4 [64]
000000 51 e5 1d 3d aa 0f b1 bd b4 48 36 3c 8c cb 04 bd
       0.03854877 -0.08645566 0.011125732 -0.03242068
000010 bd 10 33 ba 2c 12 5e bd 97 25 bc 3b 3c 15 f8 bc
       -0.00068308023 -0.05421655 0.0057417857 -0.030283563
000020 17 df 3a bd 54 59 92 3d da 68 c8 bd ea a5 34 3d
       -0.04562291 0.07145944 -0.09785624 0.04410354
000030 d8 93 77 3b 23 6c 80 3d f9 bb 61 bd 4a e5 8b bc
       0.003777733 0.062706254 -0.055110905 -0.017077107
000040 47 ad 5b 3d 20 d3 be bd 51 e6 5b bc 57 5b 2a 3d
       0.053632047 -0.09317613 -0.013421611 0.041591015
000050 09 a7 26 bd 08 a0 61 bd 1c a7 38 bd 48 87 eb bd
       -0.04068664 -0.05508426 -0.045081243 -0.11500412
000060 b5 55 65 bc d4 0c c6 3c e8 11 ab 3c 95 78 ad bd
       -0.013997485 0.024176039 0.020882562 -0.08470265
000070 c7 1f ff bd 0d 02 50 3d f7 b5 5b 3d 71 f5 c1 bc
       -0.12457233 0.050783206 0.053640332 -0.023676606
000080 5e d3 d0 bd 6b 15 d9 bd 00 ac 27 bd dd 68 f4 3b
       -0.10196565 -0.10599788 -0.040935516 0.0074587897
000090 a1 40 fd 39 19 39 dc bd 13 6c 82 3d ef 3d 80 3c
       0.00048304073 -0.10753078 0.0636827 0.015654532
0000a0 44 5e 13 bc 3f c4 9c bc bd 8c ab bd 51 21 2d 3d
       -0.008994643 -0.019136546 -0.08376453 0.0422681
0000b0 24 e7 c3 bd 27 1d 99 bc a7 8b a2 3c 59 7e 0a bd
       -0.09565571 -0.018690659 0.019841982 -0.0338119
0000c0 47 47 34 bd 52 c6 0d be 19 6f ec 3c 3d df 59 3d
       -0.044013288 -0.13845184 0.02886157 0.053191412
0000d0 7c 3b a6 bc 70 33 c3 bd 5e 63 b1 bd a7 a0 c6 bc
       -0.020292036 -0.09531295 -0.08661531 -0.024246527
0000e0 b4 06 98 ba 69 62 06 be 71 7f 37 3d 62 2f be bd
       -0.0011598677 -0.13123478 0.044799272 -0.09286381
0000f0 fb d0 f3 bd 58 7c 69 3d 45 09 9f ba 1a 25 21 3d
       -0.11905094 0.05700335 -0.00121335 0.039342023

conv5.0.weight f4 [128, 64, 3, 3]
000000 20 9c a1 bd 6f a4 74 3b e8 6f f4 bb f1 cc 0a bc
       -0.078911066 0.0037329455 -0.0074596293 -0.008471713
000010 57 2e 0c 3e 88 9e df bc cd ec 0d 3e 89 23 09 3d
       0.13689552 -0.027297273 0.13859864 0.033481155
000020 ab 36 ec bd f0 10 bb bd b7 0d e5 bc e6 82 7d bc
       -0.115338646 -0.0913409 -0.027960641 -0.015473103
000030 19 09 cf bd f9 8d ac bd db 6e bf bd 4c d0 5b 3d
       -0.10109157 -0.08425517 -0.09347316 0.053665444
000040 b3 2a e8 3b 3c c8 29 bd 85 e5 31 bd 5a e3 a4 bd
       0.0070851683 -0.041450724 -0.043431778 -0.08051176
000050 be 91 c7 3c cf e2 0f bd 7f b9 2b 3d 74 c5 97 bd
       0.024361487 -0.03512841 0.04192495 -0.07410708
000060 00 55 be bb e9 90 b9 bd 0f 1e db bd 6e ec c4 bd
       -0.0058084726 -0.090608425 -0.106990926 -0.09615408
000070 d3 f8 b6 bd e2 f0 f9 3c 42 7f 10 3b 56 ff 90 3d
       -0.08934178 0.03051037 0.0022048508 0.070799515
000080 12 b0 7e bd 99 1b e5 3c 6d cc 69 bc 23 0a 60 bd
       -0.062179632 0.027967261 -0.01426993 -0.054697167
000090 3f 4c 9e bd 53 09 4a bd ca ac a8 3c 65 8d ad 3c
       -0.077293865 -0.0493253 0.020590205 0.021185586
0000a0 a8 92 01 3d db 63 84 bd 72 46 b0 3b 7e aa ab bc
       0.031634003 -0.064643584 0.0053794915 -0.02095532
0000b0 3c d1 86 bd 35 ed 1c 3d 80 fc 71 bc ea 15 b9 3c
       -0.06582877 0.038312156 -0.014769673 0.022593457
0000c0 64 03 2e 3d 1d 69 84 3d 60 6b a3 bb f4 d5 2c 3c
       0.042483702 0.06465361 -0.0049871653 0.010549057
0000d0 b8 3c 69 bc 46 65 ea bc dd 50 84 bd 30 cc fd bd
       -0.014235668 -0.028612744 -0.06460736 -0.12392461
0000e0 10 0d 4d bb 60 67 d1 3d da 67 bb 3d 04 dc 59 bd
       -0.0031288303 0.10224795 0.091506675 -0.05318834
0000f0 ff c4 72 3e 9e 6d 82 bd 15 fe 1e bd 34 9d be bd
       0.2370796 -0.06368564 -0.03881653 -0.09307328
000100 b2 61 e1 bd 68 c0 8e 3b 62 74 d2 bd 4e 26 ec 3d
       -0.11004962 0.0043564327 -0.102761045 0.115307435
000110 80 40 81 bd 53 23 ae bd e4 28 57 3c d6 b5 c5 bc
       -0.063111305 -0.08502831 0.013132308 -0.024134558
000120 d3 66 73 bd a0 3d b7 bd bb 03 c6 bc 83 b8 83 3d
       -0.059424233 -0.08947301 -0.0241717 0.06431677
000130 3d a3 d4 bd 2e c8 d5 bd 14 83 e8 3d 57 17 65 bc
       -0.10382698 -0.10438572 0.11353126 -0.013982615
000140 ec fc 73 bd c6 20 ba bd 7e c1 ce bd b8 f5 c6 bb
       -0.059567377 -0.09088282 -0.100954995 -0.0060717724
000150 3d 8a 90 bd ee 81 c6 3d 3c a4 cb bd 1e 3f c9 3d
       -0.07057617 0.09692751 -0.099434346 0.09826492
000160 e1 fe b9 bd 64 f6 a0 bd 76 6e 0a bd e2 e8 e6 3c
       -0.090818174 -0.07859495 -0.03379675 0.028187219
000170 58 4c e3 3b 12 6c db 3c 1a bb 3e 3c 38 30 d5 bc
       0.006936591 0.02678493 0.011641288 -0.026023969
000180 c3 ce 1b 3d 4f 5b 03 bd 13 7a 04 bd ee 86 b0 bd
       0.03803898 -0.0320695 -0.03234298 -0.08619486
000190 2a b1 c7 bd e8 b4 e5 bb 8b 08 f4 bd b7 ad 39 bd
       -0.09750588 -0.007010091 -0.11915692 -0.045331683
0001a0 a3 11 77 bd cb a2 27 3e c5 2d 29 bd 31 62 51 bd
       -0.060319554 0.16370694 -0.041303415 -0.051119033
0001b0 56 de ac bd e3 d4 f0 bb 60 0b 0c 3c bb 98 2b bd
       -0.08440845 -0.007349597 0.008547634 -0.041893702
0001c0 55 ed bf bd a4 83 24 bd ae 45 83 3d 03 e6 82 bd
       -0.09371439 -0.040164605 0.06409775 -0.063915275
0001d0 51 fc 57 bd a7 6a 77 bd 97 63 a5 bd 10 ac 3f 3b
       -0.052730862 -0.060404446 -0.08075636 0.0029246844
0001e0 fc 3e ea 3d a8 9b 0a 3d 14 00 d1 bd ac 08 83 3d
       0.114377946 0.03383985 -0.10205093 0.063981384
0001f0 a7 75 1d be e4 bc 89 bd 9d 48 94 bd 86 ca 4e bd
       -0.15376912 -0.06725481 -0.072404124 -0.05048611
000200 b8 fb 21 bd 3d 05 41 bb b1 51 82 ba 19 cb 82 bd
       -0.0395467 -0.0029452585 -0.0009942559 -0.06386394
000210 99 ed 01 be 6b fb 20 bd fc d6 e0 bc fa 1d b1 bd
       -0.12688293 -0.03930227 -0.027446263 -0.08648296
000220 37 6f 05 bd 42 56 28 bd 33 c7 43 3c f8 4a 43 bd
       -0.032576766 -0.041097887 0.011949348 -0.047678918
000230 0f 2c 8c bd cf 67 00 bc c2 7a d1 3d 2c c6 ee bc
       -0.06844341 -0.00783725 0.10228492 -0.02914723
000240 ef b5 d5 bd dc 28 36 bd e8 ec 8a bc 65 39 01 3d
       -0.10435092 -0.04447256 -0.016958669 0.031548876
000250 dd 3c 87 3d 4a 45 ea bc f7 a0 2c 3d 97 56 1a bd
       0.066034056 -0.028597493 0.042145696 -0.037680235
000260 ca 8f 82 bd fa 17 12 bd d5 68 e2 bc 3b 8f 15 3d
       -0.06375082 -0.035667397 -0.027637878 0.03651355
000270 f4 bf f4 bc 21 73 b8 bd 14 c9 3d bc 04 18 5f 3e
       -0.029876687 -0.09006334 -0.011583585 0.21786505
000280 c3 0c e2 bd 09 45 88 3b 34 4d c5 bd a9 4e 37 bc
       -0.1103759 0.0041586203 -0.09633866 -0.011188188
000290 4a 5f b2 3c e1 37 90 3d db e1 3e bd a8 c4 bd bc
       0.021773953 0.07041908 -0.04660211 -0.023165062
0002a0 a5 1b b1 bd 70 40 70 3d 8b a5 1c bd 19 c1 c5 bc
       -0.08647851 0.058655202 -0.03824381 -0.024139928
0002b0 8c 43 cb 3b a8 77 d9 bb 29 c5 08 3d 8b 92 30 3d
       0.0062031206 -0.0066365786 0.03339115 0.043108504
0002c0 42 70 76 bd 42 f6 0e bc 2b a7 5e bd a0 87 81 bd
       -0.06016565 -0.008725705 -0.054358643 -0.063246965
0002d0 49 9f 63 bd fc 71 7f bd 30 2b 0f bb b4 b1 3c bc
       -0.055571828 -0.062364563 -0.002184581 -0.011516977
0002e0 cf 45 8d bd 6b 0a 03 bd 94 93 82 3d 20 18 3d 3d
       -0.068980806 -0.031992357 0.063758045 0.046165586
0002f0 8d 86 c3 3c 44 b0 a0 bc a9 a2 37 bd 40 c5 a3 bc
       0.02386787 -0.0196153 -0.04483286 -0.019991517
000300 a9 4d cd 3d a8 c9 ca bd cb 09 64 bd f8 80 03 3e
       0.10024578 -0.09901744 -0.0556734 0.12842166
000310 35 27 35 be b6 8f 62 bd 5b 89 c7 bd 4f c2 48 bd
       -0.17690738 -0.055312835 -0.09742995 -0.049013432
000320 0c bf 2e bc a8 28 e7 bb 07 27 76 3d 47 a2 80 bd
       -0.010665666 -0.007054407 0.060095813 -0.06280952
000330 0d fe 07 bb 25 97 1e 3e ec 47 a4 bc 96 d3 86 bd
       -0.0020750791 0.15487345 -0.020053826 -0.065833256
000340 c1 12 36 bc a0 ff 8c ba 30 0f ad 3d 2d 12 c7 bd
       -0.01111287 -0.0010757335 0.084501624 -0.09720264
000350 3f fe e3 bc 38 24 03 3e 75 91 64 3d 62 e7 6b bc
       -0.027831195 0.12806785 0.05580278 -0.014398428
000360 b3 30 47 bd d5 6d 7c bd 60 9e 48 bc 48 aa 23 3d
       -0.048630428 -0.06162818 -0.012244791 0.039957315
000370 80 66 f6 bd 08 3a 50 bd 9c 3b ef 3d c5 6a 8e 3c
       -0.12031269 -0.050836593 0.116812915 0.017384896
000380 c6 91 6f bd ca d7 a8 bd 11 07 ca bd ab fa 1f 3d
       -0.05848863 -0.082442835 -0.09864629 0.039057415
000390 b9 53 76 bd b5 6d 14 be 03 89 af bd 84 d8 13 3d
       -0.060138438 -0.14494975 -0.08571055 0.036095157
0003a0 06 f0 f4 3b 22 35 d2 bc 32 a4 47 bd f2 89 23 bd
       0.007474902 -0.025660101 -0.048740573 -0.039926477
0003b0 22 3e da 3c af df 51 39 47 81 f2 3c 30 0f a5 bd
       0.026640955 0.00020015122 0.02960266 -0.080595374
0003c0 3e aa ff 3c b8 54 c4 3c 2d 8a 2a bd e1 91 85 bd
       0.031209107 0.023966178 -0.04163568 -0.06521965
0003d0 4d 21 84 bd eb a0 ab bc 3b 95 31 3d 54 38 19 bd
       -0.06451664 -0.020950755 0.043355208 -0.037407234
0003e0 c9 f1 59 bc b9 05 5c 3c db a9 d1 3c 10 e4 9c bd
       -0.013302275 0.013429099 0.025593689 -0.07660687
0003f0 c3 a4 80 3c f1 2c 59 bd 7e a7 b9 3c 23 f8 a2 3c
       0.015703565 -0.053021375 0.022662874 0.019893711

conv5.0.bias f4 [128]
000000 bd 8a ca 3c 64 a7 52 3d a6 3e 82 3c 81 3e b2 3d
       0.024724359 0.051429167 0.015899014 0.08703328
000010 c1 77 9b bb 6f 1e 73 bd 18 05 3d 37 98 af a4 bc
       -0.0047445004 -0.059355196 1.1266464e-05 -0.02010326
000020 e0 17 93 bb d7 ed 89 3d 04 07 1c bc 63 39 86 bd
       -0.00448893 0.067348175 -0.009523157 -0.065539144
000030 8a a9 a9 3d dd 33 d7 bc d5 4d 80 bd 40 85 25 bd
       0.0828429 -0.026269848 -0.06264845 -0.04041028
000040 78 7d 5f 3d f5 1f 91 bb 33 2d 62 3e cb 24 9d 3c
       0.054563016 -0.0044288584 0.22087555 0.019182583
000050 57 35 31 bd 50 9d 5b bd 1c af 05 3d 5b b0 37 bd
       -0.04326376 -0.05361682 0.0326377 -0.04484592
000060 94 0a b5 bc 78 1b 63 bd 33 5b aa bb 0e 3b 65 3d
       -0.02209977 -0.055446118 -0.00519886 0.055964522
000070 78 e4 99 bd ef 5f 51 bd 74 7e db bb 91 5f 2a bb
       -0.0751428 -0.05111688 -0.006698424 -0.0025996903
000080 df e9 8e 3d 82 43 b7 3d 90 d8 a0 bc 23 e6 77 bd
       0.06978201 0.08948423 -0.019634515 -0.06052221
000090 40 93 74 bd 45 ad 97 3d ac a5 15 3d 82 4d 78 bd
       -0.05971074 0.074060954 0.03653495 -0.060620792
0000a0 3d 60 41 bd e6 a5 19 3d 8a 8d 33 3d 44 05 53 3d
       -0.04721092 0.03751173 0.043836154 0.051518694
0000b0 8f 7a 0c 3c 26 05 b3 bd 53 a5 2c bd f8 2b 97 bd
       0.008574142 -0.08741216 -0.042149853 -0.07381433
0000c0 8a df 73 bc c6 6a 6f bd c1 1b 8a bd 82 4c 2e 3d
       -0.014884839 -0.058451436 -0.06743575 0.042553432
0000d0 82 2f 14 3e ee 00 e5 3d 25 38 c5 bd 36 2c 49 3a
       0.14471248 0.11181818 -0.09629849 0.00076741294
0000e0 5a 83 90 bc 54 df 6b bd 11 7d 8c bd f4 39 a5 3d
       -0.017640758 -0.05758603 -0.06859792 0.08067694
0000f0 0e 94 83 3d a1 64 51 3c f7 05 4b bd df 2c 55 bd
       0.064247236 0.012780339 -0.049566235 -0.052044746
000100 f0 2c 5c bd 41 32 26 bc 10 b7 35 bd 02 0e 80 bc
       -0.053753793 -0.010143817 -0.044364035 -0.01563168
000110 ba 54 2d bd 78 ac f0 3c ee 79 c4 3d b4 cf 95 bd
       -0.04231713 0.029379115 0.09593569 -0.07315007
000120 ef ac 5b 3c 51 45 ab 3d 01 d5 be 3d b1 91 68 bd
       0.01340793 0.083628304 0.09317971 -0.056779567
000130 27 37 0d bd cd 8a e4 bc c7 da 04 bd 33 9c 67 bd
       -0.034476425 -0.027898217 -0.032435205 -0.056545448
000140 8e 63 30 3d bd c2 13 3d 03 13 9c 3d 3d 1a 56 bd
       0.043063693 0.03607439 0.07620814 -0.052271117
000150 06 76 8a ba 9c 7c 4f 3d 83 be 99 bd 84 b2 87 3d
       -0.0010563738 0.050655946 -0.0750704 0.06625846
000160 1c a7 aa bc b1 b1 d8 bb d6 9b 0f bc 71 c1 db 3d
       -0.020831637 -0.0066129793 -0.0087651815 0.107302554
000170 ef e5 17 bd 93 53 af 3c af b4 ca 3d 41 dd 5d bd
       -0.037084516 0.021402156 0.09897744 -0.054166082
000180 89 81 29 3d ef 38 10 3c 89 3d 00 bd 35 00 07 bd
       0.0413833 0.0088026365 -0.031308684 -0.03295918
000190 8c 51 cf ba ed f8 a7 3d 97 79 35 bc 4e 15 c4 3d
       -0.001581715 0.08201776 -0.011076353 0.09574376
0001a0 e4 6c 86 bd 1a 70 68 bd 5b 8f 5a 3d 84 dd 10 3d
       -0.06563738 -0.056747533 0.05335937 0.035367504
0001b0 04 c3 87 bd 3c 99 87 bd 28 86 43 3c 1a ff 06 3d
       -0.06628993 -0.06621024 0.011933841 0.032958128
0001c0 84 cc f1 bc 3d b2 9c 3d 5c 4f cf bc 56 d8 d9 3b
       -0.029516466 0.07651184 -0.025306396 0.0066481037
0001d0 3b f5 f5 3c ab 8e 42 bc 18 2c a1 bc 1f fd 2d bd
       0.030024162 -0.011874835 -0.019674346 -0.042477723
0001e0 1f 09 8a bd 3c 00 38 3d 95 a7 86 bd 09 13 e4 bc
       -0.06740021 0.0449221 -0.065749325 -0.027841108
0001f0 94 12 da bc f3 a1 9e bd d2 34 03 3d 46 eb 2d 3d
       -0.026620187 -0.07745733 0.032032795 0.042460702

dense.0.weight f4 [120, 128]
000000 3b de dc bd 75 d6 76 3d 45 2f 86 bb f6 0d d6 bd
       -0.107845746 0.060263116 -0.0040949904 -0.104518816
000010 f6 be 25 bd 24 8e 12 3c b7 61 8a bd b6 f1 00 3d
       -0.040465318 0.008945022 -0.06756919 0.031480514
000020 e1 38 d9 bd 33 73 6e bc fc 1e a8 bd 3c a3 86 bc
       -0.10606552 -0.014553833 -0.08209035 -0.016435258
000030 8d ff a7 bd 02 d4 5e 3d d7 b3 06 bd 80 54 de 3c
       -0.08203039 0.054401405 -0.032886352 0.027139902
000040 43 1b c3 bc c5 b5 03 bc 8c 8e 0f 3c ba c6 97 3c
       -0.02381671 -0.008038943 0.008762013 0.018527377
000050 2f 8e 44 3d 9b 3c e7 bd ef a6 2e bd f7 9c 31 bd
       0.04798716 -0.112908565 -0.04263967 -0.043362584
000060 1f 57 19 bd df 5d 56 bd 82 06 8d 3c 2b 9b 0f bc
       -0.0374366 -0.052335616 0.017215017 -0.008765022
000070 2f 0f 58 bd 1a d5 43 bd 53 5a c1 3b ad b9 7c bd
       -0.052748855 -0.04781065 0.00590066 -0.06170051
000080 bc 5d 6b bd fe 55 ca bd 45 00 de bc fb 86 a7 3d
       -0.05746244 -0.09879683 -0.027099738 0.08180042
000090 ef dd 8d 3d 45 8d 6f 3d bf 49 9a bd 69 6b 19 bd
       0.06927096 0.058484334 -0.07533597 -0.03745595
0000a0 42 5c 83 bd 63 a3 7f 3c 54 15 db bd 19 e1 23 bd
       -0.06414081 0.015602919 -0.106974274 -0.04000959
0000b0 57 a3 30 bd 60 e4 fc bc 8b ad 68 3c 00 49 cf 3c
       -0.043124523 -0.030870616 0.014201532 0.025303364
0000c0 2c a5 6e 3d a6 d8 a0 bd d9 24 4e bd f1 4f 05 3c
       0.05826299 -0.078538224 -0.05032811 0.008136735
0000d0 0f 00 8a 3c fc fc 0e bc 76 da 15 3d eb d9 d5 3b
       0.016845731 -0.008727308 0.036585294 0.006526222
0000e0 9d aa 2c bd 4b c1 e5 bd 4c 80 ec bb 22 d2 be bd
       -0.042154897 -0.11218508 -0.0072174426 -0.093174234
0000f0 73 41 63 bd bb be 9c 3d 00 11 96 3c c4 43 45 bd
       -0.05548234 0.076535664 0.018318653 -0.04816033
000100 56 75 8b bd a8 ff 52 bc 58 38 86 bc 63 57 8e bd
       -0.068094894 -0.012878336 -0.016384289 -0.069502614
000110 cc 48 4c bd ab 5b b6 bd 2d 41 a1 bd 2f e8 7e 3b
       -0.049874112 -0.08904203 -0.078737594 0.0038895716
000120 61 b4 dc bd 8c db d6 bd ec 8e 72 bd a3 bf b1 bd
       -0.10776592 -0.10491094 -0.059218332 -0.0867913
000130 5f d4 8c 3d 62 42 e0 bd c4 d5 9f bc e1 d2 1d bd
       0.06876444 -0.109501615 -0.019511111 -0.038531188
000140 00 3e 4b bd b6 b7 09 3d 0e b9 2f 3c e2 b4 72 3d
       -0.049619675 0.033622466 0.010725273 0.059254535
000150 5e b4 71 3d ac a2 31 3c 4f 9d 07 bd fd 13 84 3d
       0.059009902 0.010842007 -0.033109006 0.06449125
000160 e1 d8 90 3d 8a d3 c2 bd 32 ca 7f bd 79 a2 54 3d
       0.07072616 -0.09513004 -0.062448688 0.05191276
000170 d8 bf 77 3c 08 df 2c bc ba e1 37 bd 31 50 ac bc
       0.015121423 -0.010551222 -0.044893004 -0.021034332
000180 1d f7 7b bd 27 2d ea 3a 5e 72 51 3d db d2 2d bd
       -0.061514962 0.001786624 0.05113446 -0.042437416
000190 1b 7f 5c bc 9e da 67 3d 50 9e 0e 3c 85 7f db bc
       -0.013458039 0.056604974 0.008704737 -0.026794204
0001a0 40 20 71 3c 52 15 49 3d 4f 50 c0 bd 60 72 c2 bd
       0.014717162 0.0490926 -0.09390318 -0.094944715
0001b0 fd 35 0c bd e7 5c b6 3a 4f 1c bd 3c 74 26 79 bd
       -0.034231175 0.0013913185 0.023084788 -0.060827687
0001c0 7a 93 94 bd d2 ee 0c bd e6 fb ea 3b a7 b9 92 bd
       -0.072546914 -0.034407444 0.007171142 -0.071643166
0001d0 72 7e 93 bd be 05 19 3d a9 75 98 bd eb db 8f bd
       -0.07201852 0.03735899 -0.07444317 -0.07024368
0001e0 d0 50 b1 bd 19 d4 5a bd 07 7f 3d bd 1c b2 75 bd
       -0.08657992 -0.05342493 -0.04626372 -0.05998431
0001f0 c0 84 bc ba 62 51 64 3d 07 45 4e bc 4a 72 1d bd
       -0.0014382824 0.055741675 -0.0125897 -0.038439073
000200 c6 7a 8d bd a3 32 20 bd 67 b3 a4 3e 90 e2 61 3d
       -0.06908183 -0.03911079 0.32168123 0.055147707
000210 3f f9 9b 3c 90 02 1e 3e 26 98 3a bd 59 44 ad bd
       0.019039748 0.15430665 -0.045555256 -0.08460302
000220 da 05 8d be 4a 5a af 3d ec 6a 8b 3d cc 58 cd bd
       -0.27543527 0.08562143 0.06807503 -0.10026702
000230 c5 81 b6 3c 5f a0 15 bd a1 3c b9 3d fa be 29 bd
       0.022278676 -0.036529895 0.09044767 -0.041441895
000240 56 5d 74 3d cc f1 de bd b9 94 68 be 83 73 9f bd
       0.059659325 -0.10885963 -0.22712983 -0.07785704
000250 24 8c 99 bb 21 13 d7 3c ee ea a1 ba 53 63 8a bd
       -0.0046858955 0.026254239 -0.001235334 -0.06757226
000260 08 b2 95 bd a4 dd ac bd b8 6a cb 3d 81 5e 00 3e
       -0.073093474 -0.08440712 0.09932464 0.1253605
000270 6e 1e f2 bc de 15 47 3e c6 24 58 3d 54 a7 a7 3b
       -0.029555526 0.19441935 0.052769445 0.0051163826
000280 c6 3d 85 bd 75 a1 9d 3d 55 f9 ec 3d 8f 82 64 bc
       -0.06505923 0.07696811 0.11570994 -0.013947143
000290 08 a4 02 bd c9 ec 9e be 29 0d d2 3d 46 1b 5c 3d
       -0.031894714 -0.31040028 0.10256416 0.053736947
0002a0 c6 3f c3 3d 88 35 3a 3d 01 91 69 3d 63 47 28 bd
       0.09533648 0.045461208 0.057023052 -0.041083705
0002b0 13 5b 7c 3c 4e b5 c0 bc 41 b9 59 3d 43 d1 8a bd
       0.015402573 -0.023523953 0.053155188 -0.06778195
0002c0 3d 95 80 3b 21 d7 b2 3d 14 45 12 3d d1 37 2d 3d
       0.0039240406 0.08732439 0.03571041 0.04228956
0002d0 83 ee c8 3d ab bd 96 3d c8 e5 ee bd fd e3 8d 3d
       0.098111175 0.07360395 -0.11664921 0.06928251
0002e0 c2 9e d8 3d db a9 9c bd 58 ea 8d 3d e9 4e 0a be
       0.10577156 -0.07649585 0.06929463 -0.13506664
0002f0 63 65 5a 3d 35 9b 89 3d d4 3d bb 3c d3 a7 f0 bc
       0.053319346 0.067190565 0.02285663 -0.0293769
000300 e0 1f db 3b b7 a4 17 ba ab 6f 79 bd ea f5 01 bd
       0.0066871494 -0.00057847373 -0.06089751 -0.031728663
000310 25 bd 89 bd 15 25 f2 3d 92 b2 d6 3d ba bc 1c 3d
       -0.067255296 0.11823479 0.10483278 0.03826592
000320 57 18 bf 3d 05 e4 d6 3d 91 64 a5 bd f0 eb 96 3d
       0.09330814 0.1049271 -0.08075822 0.0736922
000330 3e f9 16 bc b2 02 8d 3c e9 ea 0c be d1 27 bb 3d
       -0.009214697 0.0172132 -0.13761486 0.09138454
000340 42 f9 98 bd ef 40 82 bd a9 fe d7 bd 8e c9 30 bd
       -0.07469417 -0.06360041 -0.105466194 -0.043160968
000350 64 52 19 3d d1 41 27 3e 6b af 65 bd 44 33 f7 bb
       0.03743209 0.163337 -0.056075495 -0.007543953
000360 7a 3d 52 bd be be 97 3d 6d 79 77 bd de b5 45 3c
       -0.05132816 0.07409428 -0.060418535 0.012067286
000370 0a dd 84 3d 23 10 3b 3e de fb 1f be 2c 10 50 3e
       0.06487472 0.18267874 -0.15623423 0.20318669
000380 ef df 87 bd 69 a7 b9 bc fe 86 84 bd 17 32 19 3e
       -0.06634509 -0.022662835 -0.0647106 0.14960514
000390 7e e4 ad 3b 9c 25 ac 3e ad c2 a2 bd e2 03 0d be
       0.0053067794 0.33622444 -0.07947288 -0.13771012
0003a0 41 ff 87 bd 1c 00 66 3d 2d 1f 58 be 81 f4 26 3e
       -0.06640483 0.056152448 -0.21105643 0.16304208
0003b0 ea c0 ba bd 9d ed 92 bd 4f 3e 8c be f2 8c f3 3d
       -0.09118827 -0.071742274 -0.27391288 0.118921176
0003c0 16 11 32 bd 41 11 fb bc d7 89 8d 3d 2e 6d 9a bb
       -0.043473326 -0.030647876 0.069110565 -0.0047127223
0003d0 60 5b bf 3d 8b 3e 0a bd 9c ee c1 3d 2d 75 11 3d
       0.093436 -0.033751052 0.09469339 0.03551214
0003e0 7e d8 5b bd 88 4f 80 3e ff 86 3b 3d 7e ae bb 3d
       -0.05367326 0.25060678 0.04578304 0.09164141
0003f0 a3 28 c6 3d 47 7a 01 3d cc c1 b7 3d 41 8d e6 3d
       0.096757196 0.031610753 0.08972511 0.11257411

dense.0.bias f4 [120]
000000 b8 88 c8 bc fe e8 ec bc be 34 ec 3d 2d c7 54 bd
       -0.024479255 -0.028919693 0.11533497 -0.05194776
000010 af 52 17 be c5 1d 98 3c 1a 6b c8 bd c6 8b 3f bc
       -0.14777635 0.018568883 -0.09786053 -0.011691039
000020 8d e5 d8 3c 7d da cd bd 82 38 9e 3d c2 bf c2 3d
       0.026476646 -0.10051439 0.07725622 0.09509231
000030 de 9c 7b 3d d1 9a 14 bd a9 6d 04 3d 7e 55 04 3d
       0.061428897 -0.036280457 0.032331143 0.032308094
000040 be c8 82 bb 21 0c fd 3d 1e b0 8c bd e4 e6 a7 bc
       -0.0039912155 0.12355829 -0.06869529 -0.02049584
000050 d0 b6 a8 3d b7 75 d8 3a a6 fd a1 3b 23 f4 6f bd
       0.08237994 0.0016514574 0.0049435673 -0.058582436
000060 a2 20 91 3d bd 29 96 3d d6 0a 93 3b 15 76 a1 3d
       0.07086302 0.0733218 0.0044873757 0.078838505
000070 d8 25 b7 bc 72 d6 bf 3c 96 55 be bd 01 f2 5c bb
       -0.022356912 0.023417685 -0.09293668 -0.0033713582
000080 66 58 73 bd b5 8e 4a bd 37 db 8d 3d 8c fa c2 3d
       -0.059410475 -0.049452502 0.069265775 0.09520444
000090 ca 47 34 bd 99 d6 a6 bd b6 01 df bd 83 82 83 bd
       -0.044013776 -0.081464 -0.10888998 -0.064213775
0000a0 85 0a 56 3e ad ab c6 3c 1a 50 89 3d a3 13 cc bc
       0.2090245 0.024251783 0.06704731 -0.024911707
0000b0 78 9c d6 bd dd fa e3 bd 95 fb fa 3d 55 bd 30 3e
       -0.10479063 -0.11131833 0.12255017 0.17259724
0000c0 19 81 34 3d 4e cb 54 bd ba a6 64 bd b2 19 70 bd
       0.04406843 -0.0519517 -0.055823065 -0.058618255
0000d0 2d a0 9f bd 1d 0f dd 3b 6c 59 ef bc 5e ba 7b 3d
       -0.07794223 0.0067461864 -0.029217444 0.06145703
0000e0 8c 1a dc bd 65 8f 9b 3d 01 5a b6 bb 56 a0 bc bd
       -0.10747251 0.0759571 -0.0055649285 -0.09210269
0000f0 ee 62 75 bc ac 11 23 3e 14 42 e5 bc 52 5a 21 3e
       -0.0149772 0.1592471 -0.02798561 0.1575711
000100 f6 e0 91 3b 7e c9 41 bd 36 44 a6 bd 0f 82 f9 3d
       0.0044518663 -0.0473113 -0.08118479 0.1218301
000110 dd f0 80 3d 0a d8 f7 3d 98 51 30 bb ff 73 61 3d
       0.06295941 0.12101753 -0.0026904102 0.055042263
000120 6c 2d 9e bd 6d eb 06 bd 2a 5e f9 bc 10 ed 19 3d
       -0.07723507 -0.032939363 -0.030440409 0.037579596
000130 84 6f c9 bc b3 5c dc 3c 4a 69 a0 bd b4 92 90 3d
       -0.024589308 0.026899671 -0.07832582 0.070592314
000140 22 52 34 3c 24 b2 92 3c 72 8a 83 3d 32 84 15 3e
       0.01100591 0.01790721 0.06422891 0.1460121
000150 31 c4 c1 3d 17 1f b5 bd 94 10 4c 3e e3 dc 19 3e
       0.09461249 -0.088438205 0.19928199 0.15025668
000160 3c ed 01 3e 97 cb bf bd 1c de a4 3d 86 30 11 bd
       0.12688154 -0.093650036 0.080501765 -0.035446666
000170 7d ab 1c 3d d1 12 b4 bd 2d 3e 6e bd 38 90 70 3d
       0.03824948 -0.087926514 -0.058164764 0.058731288
000180 49 3a 42 3e 4a bf c4 bd 66 59 2f bd 10 fb af 3d
       0.18967547 -0.09606798 -0.042809866 0.08592808
000190 12 43 f5 bd cf 6d 7c bd 91 c9 21 3c 79 51 71 3d
       -0.11975683 -0.06162816 0.009874717 0.05891559
0001a0 69 67 de bd 6d 63 92 ba db 01 b8 bc cf 3c f2 bc
       -0.10859568 -0.0011168547 -0.022461822 -0.029570011
0001b0 db af 22 3e 05 b5 12 3e 31 b0 a8 bd 05 7c 3d bd
       0.15887396 0.14326866 -0.08236731 -0.046260852
0001c0 4b 68 ee 3d 2d 95 b8 bd 5b 16 61 bc ad 41 e6 bd
       0.11640986 -0.09012828 -0.01373824 -0.112429954
0001d0 af 59 26 3d df e7 0d 3e 3a 87 9a 3d de 8a 81 bd
       0.040612873 0.13857983 0.07545324 -0.06325315
