pth/model.pth (torch, 502673 bytes, 16 tensors)

conv1.0.weight f4 [6, 3, 3, 3]
-0.12938659 0.020028843 -0.035669785 0.20702629 0.13546702 0.08324522 0.006483484 -0.038172092
-0.10933917 -0.08607485 -0.24122982 -0.24272704 0.0397118 0.111231744 0.11480219 -0.041669276
-0.06006728 0.040365316 -0.14678726 -0.11666488 -0.062255323 0.086828366 0.16829531 0.07401964
0.1420909 0.065641604 0.18826209 -0.07849282 0.06493901 0.19229463 -0.13827212 0.10106341
-0.035522476 -0.1333856 -0.22639523 -0.24833527 0.080296755 0.15699461 0.15800576 0.23552492
0.051970463 0.16832888 -0.110105716 -0.005889712 -0.16071656 0.10194454 0.11039017 -0.018161532
0.21021008 -0.04185088 0.09380557 0.02505319 -0.11559335 -0.12627572 -0.2801307 0.12757544
0.0011994904 -0.018301504 0.21115091 0.09152324 0.017097874 -0.06117861 -0.18486819 -0.13460036
0.20785421 0.16445605 -0.19117971 0.30446872 -0.012031178 0.16495061 0.13913484 0.03878062
-0.2996502 0.15974216 0.20395084 -0.1461869 0.29471964 0.14128856 -0.0047814213 -0.01887047
0.015664056 0.03493576 0.031676777 -0.11870605 0.08398255 0.070001684 -0.12867552 0.0759139
-0.11121911 0.01587311 0.036146697 0.011305884 0.06669987 0.104672566 0.18598233 0.06968181
-0.0745979 0.11677314 0.15333448 0.036078177 0.2144595 0.2642496 0.062204707 0.008753078
0.18386827 0.2165326 0.25618437 0.1659888 0.19360039 0.17326994 0.18297078 0.1832208
0.32056803 0.3425245 0.33599812 0.36269796 0.2958652 -0.17041776 0.18782948 0.07930708
0.09974652 0.09251397 0.18273713 -0.19826195 0.09572234 0.08753136 -0.1887137 -0.06620216
-0.009805462 -0.003009813 -0.12692297 -0.0004890597 -0.10375471 -0.09054467 -0.1395606 -0.02149595
0.03173915 -0.15901245 -0.05792777 0.004800404 -0.1446212 -0.16226724 -0.16633318 -0.15097901
-0.12172227 0.025873795 0.104721 0.08538038 -0.08349697 0.029987479 -0.12419359 0.06872019
0.14349389 0.12812851 0.044045586 0.16482805 0.090790376 0.13777399 0.24564503 0.205186
0.20967689 0.10868278
00000000: eb7d 04be 8713 a43c 7b1a 12bd b3fe 533e
00000010: deb7 0a3e 787c aa3d 6873 d43b 575a 1cbd
00000020: 37ed dfbd 0348 b0bd f304 77be 708d 78be
00000030: d7a8 223d 78cd e33d 691d eb3d 67ad 2abd
00000040: 1c09 76bd 1a56 253d 664f 16be ffed eebd
00000050: 70ff 7ebd 12d3 b13d 9b55 2c3e 9c97 973d
00000060: 4780 113e 1b6f 863d c7c7 403e d8c0 a0bd
00000070: befe 843d e2e8 443e 3597 0dbe 55fa ce3d
00000080: 0480 11bd 3c96 08be 27d4 67be 9a4b 7ebe
00000090: a072 a43d 32c3 203e 43cc 213e 722d 713e
000000a0: fbde 543d 685e 2c3e 1b7f e1bd 7cfe c0bb
000000b0: e292 24be 4dc8 d03d 3e14 e23d 7ec7 94bc
000000c0: 5041 573e d46b 2bbd 221d c03d 593c cd3c
000000d0: 35bc ecbd 6c4e 01be 4b6d 8fbe 23a3 023e
000000e0: 3838 9d3a 09ed 95bc f237 583e 8970 bb3d
000000f0: d710 8c3c 6c96 7abd 164e 3dbe add4 09be
00000100: bcd7 543e 2b67 283e 9dc4 43be 53e3 9b3e
00000110: 6b1e 45bc d0e8 283e 5d79 0e3e 6dd8 1e3d
00000120: c06b 99be 7393 233e 7dd8 503e 05b2 15be
00000130: 7ee5 963e f3ad 103e 78ad 9cbb 3e96 9abc
00000140: e851 803c cd18 0f3d 82bf 013d 281c f3bd
00000150: 0bff ab3d 0b5d 8f3d 84c3 03be bf78 9b3d
00000160: d8c6 e3bd 5308 823c 8f0e 143d 513c 393c
00000170: f199 883d 925e d63d 2772 3e3e 56b5 8e3d
00000180: c9c6 98bd c226 ef3d b703 1d3e b6c6 133d
00000190: 459b 5b3e b94b 873e 5dca 7e3d 1269 0f3c
000001a0: f747 3c3e b9ba 5d3e 992a 833e f8f8 293e
000001b0: 2e3f 463e ad6d 313e b15c 3b3e 3c9e 3b3e
000001c0: 7e21 a43e 5f5f af3e f207 ac3e 8cb3 b93e
000001d0: a57b 973e fe81 2ebe 5f56 403e c06b a23d
000001e0: e747 cc3d f777 bd3d 711f 3b3e 2e05 4bbe
000001f0: 130a c43d a443 b33d 2a3e 41be 0095 87bd
00000200: 17a7 20bc 4840 45bb 18f8 01be 3e34 00ba
00000210: 597d d4bd 7c6f b9bd f9e8 0ebe 4618 b0bc
00000220: e900 023d 29d4 22be ab45 6dbd b54c 9d3b
00000230: 9417 14be 6229 26be 3f53 2abe 3e9a 1abe
00000240: 8749 f9bd 48f5 d33c f777 d63d e9db ae3d
00000250: 7600 abbd 4da8 f53c 3559 febd 2cbd 8c3d
00000260: 10f0 123e 1f34 033e 2569 343d afc8 283e
00000270: 4ef0 b93d a014 0d3e 5f8a 7b3e 471c 523e
00000280: 8ab5 563e 1495 de3d

conv1.0.bias f4 [6]
0.020697901 0.024371643 -0.09030037 0.018415779 -0.23244755 -0.059115916
00000000: a58e a93c 0aa7 c73c 66ef b8bd b0dc 963c
00000010: bb06 6ebe 8823 72bd

conv2.0.weight f4 [16, 6, 3, 3]
-0.08383754 -0.14009167 -0.113199666 -0.0647323 0.012597669 -0.068045564 -0.04857147 -0.04852107
-0.035143327 0.08085789 0.09257303 0.23088223 0.15243366 0.1307443 0.15550485 0.0665685
-0.011776799 -0.12560515 0.016187092 0.12505028 0.07594853 -0.01226791 0.15335946 0.00377383
0.1146013 0.067272656 -0.030062437 0.1089505 -0.106270835 0.087996714 0.033987384 0.025568254
-0.056112353 0.05168553 0.08977078 0.014644254 -0.045020305 -0.04322797 -0.022305945 0.016448312
0.0151554635 -0.14856589 -0.093950786 -0.049126744 -0.074840814 -0.13734135 -0.085343495 -0.11167241
-0.08010687 -0.07808367 -0.18749085 -0.013915159 -0.047603704 -0.07876039 0.0770806 0.3098929
0.2971486 0.20374078 0.052032594 -0.08229819 -0.000412885 -0.09831421 -0.11701003 -0.02027446
0.028984237 0.034247402 -0.1818803 -0.047480788 -0.056134153 -0.08852771 0.017107006 -0.056245327
-0.00081916095 0.09096727 0.06427893 0.044367827 0.02765007 -0.17994972 -0.06833027 -0.1369038
-0.069557674 -0.014744368 0.034488507 0.024836168 -0.035755225 0.036453977 0.104928195 -0.092750534
0.085367106 0.009528951 -0.015725292 0.104079835 0.1448125 0.050093908 0.038433004 0.032647192
-0.088187724 -0.15158693 -0.0112866955 -0.11610967 0.10113392 0.11262446 0.07139723 0.1203699
0.07456091 0.14209665 0.10186233 0.060723376 0.12708272 0.21986987 0.10280762 0.008584391
-0.041594807 -0.0078340545 -0.02989885 0.014595464 -0.10291553 0.15572429 0.18536618 0.14440198
0.02364882 0.21507397 0.14530191 -0.18002214 0.16763435 0.14208893 0.0010227783 0.05806585
0.06472643 -0.0022520248 0.10470533 0.064944066 -0.107114136 -0.06934805 0.16346714 0.012018458
0.12735946 0.042801738 -0.018923717 0.07227769 0.052803062 -0.119264975 -0.1565541 0.014293495
-0.1670094 -0.105711974 -0.109713115 -0.10068841 -0.066158965 -0.037132964 0.0940378 -0.21988831
-0.065083385 0.20658004 0.26050335 0.148435 -0.015814947 0.2083267 0.20016225 -0.18001397
-0.054503594 0.0760065 -0.0679782 0.06914364 0.18127595 -0.00015361194 0.10662556 0.093227565
0.14257969 0.017977469 0.009752435 0.25501415 -0.017708242 -0.056185666 -0.16770495 0.1797874
0.28966412 0.10417855 0.072763875 0.10163388 0.08285147 -0.041137543 0.22661704 -0.031810213
0.23835838 0.16606669 0.17266199 0.13599579 -0.035004508 -0.080433615 -0.11110359 0.06369184
-0.11059514 -0.012034699 -0.110506624 -0.0060838573 -0.00833447 -0.11133445 -0.08537049 -0.06965851
0.047460847 -0.009736889 -0.0240325 0.030349946 0.12708497 -0.0926605 0.04358996 -0.045629807
-0.082164034 0.08883686 -0.13299324 0.020676991 -0.014693225 -0.020890191 -0.076391876 -0.10917316
0.18416797 0.06414824 0.2256987 0.15364958 0.38208658 0.29019168 0.06333984 0.16811216
0.05610946 0.12705235 0.3009267 0.046247024 -0.0061562187 -0.34238786 0.025183903 -0.16538802
0.03597791 -0.049239576 0.004034244 -0.15316607 -0.06542907 -0.08161111 -0.017566979 0.09606196
0.035390444 0.0629479 -0.09198495 0.018405182 -0.12920378 -0.067919746 -0.013514297 0.10675391
0.049677026 -0.014052982 0.11153425 -0.068466656 -0.05596879 -0.17499372 -0.11036859 -0.0535953
00000000: 04b3 abbd 3174 0fbe 3ad5 e7bd 5e92 84bd
00000010: 7466 4e3c 795b 8bbd e1f2 46bd 08be 46bd
00000020: 73f2 0fbd d298 a53d ee96 bd3d 646c 6c3e
00000030: 9217 1c3e d5e1 053e aa3c 1f3e 1155 883d
00000040: 7af3 40bc a39e 00be cb9a 843c 2e0d 003e
00000050: e78a 9b3d 58ff 48bc 430a 1d3e 5c52 773b
00000060: 16b4 ea3d 3fc6 893d 8045 f6bc 7121 df3d
00000070: 86a4 d9bd 9f37 b43d 5b36 0b3d 8474 d13c
00000080: 11d6 65bd 35b4 533d bed9 b73d 74ee 6f3c
00000090: 3667 38bd d00f 31bd f5ba b6bc 9cbe 863c
000000a0: 9f4e 783c a821 18be 4569 c0bd 2039 49bd
000000b0: 2446 99bd 36a3 0cbe 92c8 aebd 81b4 e4bd
000000c0: 120f a4bd 55ea 9fbd 9afd 3fbe 68fc 63bc
000000d0: 1afc 42bd 214d a1bd 6fdc 9d3d 48aa 9e3e
000000e0: dc23 983e 6ca1 503e 2120 553d f48b a8bd
000000f0: 7d78 d8b9 f658 c9bd f4a2 efbd a016 a6bc
00000100: 5a70 ed3c 0147 0c3d d43e 3abe 377b 42bd
00000110: edec 65bd 044e b5bd fe23 8c3c 8061 66bd
00000120: f6bc 56ba 0c4d ba3d aca4 833d 0abb 353d
00000130: 6682 e23c bd44 38be bef0 8bbd 8230 0cbe
00000140: 4174 8ebd 5d92 71bc d243 0d3d 3875 cb3c
00000150: 1274 12bd c450 153d 98e4 d63d fef3 bdbd
00000160: f3d4 ae3d 511f 1c3c 54d2 80bc cf27 d53d
00000170: ba49 143e 452f 4d3d ed6b 1d3d 10b9 053d
00000180: c49b b4bd 9b39 1bbe d5eb 38bc e8ca edbd
00000190: 4d1f cf3d a7a7 e63d b638 923d 7e84 f63d
000001a0: 64b3 983d c981 113e 339d d03d 13b9 783d
000001b0: f921 023e 9125 613e cd8c d23d 8ca5 0c3c
000001c0: 515f 2abd 685a 00bc 6fee f4bc d021 6f3c
000001d0: 61c5 d2bd 3076 1f3e a2d0 3d3e 1dde 133e
000001e0: 2cbb c13c 5a3c 5c3e 06ca 143e b957 38be
000001f0: 57a8 2b3e c37f 113e bf0e 863a 75d6 6d3d
00000200: 4a8f 843d b596 13bb c06f d63d 6501 853d
00000210: a85e dbbd 5a06 8ebd ee63 273e 11e9 443c
00000220: 856a 023e e050 2f3d e905 9bbc 5306 943d
00000230: 0648 583d 3241 f4bd b84f 20be 432f 6a3c
00000240: 8304 2bbe 857f d8bd 45b1 e0bd ba35 cebd
00000250: 5a7e 87bd bc18 18bd e496 c03d 672a 61be
00000260: 704a 85bd b889 533e b260 853e 58ff 173e
00000270: 598e 81bc 9853 553e 55f7 4c3e 9555 38be
00000280: 293f 5fbd 4ca9 9b3d 2838 8bbd 2e9b 8d3d
00000290: 67a0 393e e412 21b9 805e da3d 18ee be3d
000002a0: 6900 123e 7c45 933c adc8 1f3c 3791 823e
000002b0: e010 91bc f122 66bd d9ba 2bbe 301a 383e
000002c0: db4e 943e 905b d53d 3a05 953d 6c25 d03d
000002d0: 08ae a93d d77f 28bd 4c0e 683e 6d4b 02bd
000002e0: 3814 743e 630d 2a3e 4ece 303e 7b42 0b3e
000002f0: e360 0fbd 61ba a4bd 478a e3bd de70 823d
00000300: b47f e2bd 302d 45bc 4c51 e2bd 185b c7bb
00000310: 4d8d 08bc 5103 e4bd b9d6 aebd 1fa9 8ebd
00000320: 4e66 423d 7987 1fbc cedf c4bc 73a0 f83c
00000330: 9022 023e cac4 bdbd 638b 323d 52e6 3abd
00000340: 9e45 a8bd 1af0 b53d 612f 08be cb62 a93c
00000350: dabb 70bc e821 abbc 5873 9cbd 2d96 dfbd
00000360: 8796 3c3e 2760 833d 8f1d 673e 5156 1d3e
00000370: daa0 c33e 0194 943e 51b8 813d 9825 2c3e
00000380: 08d3 653d 031a 023e 1013 9a3e 856d 3d3d
00000390: 1bba c9bb 764d afbe 794e ce3c 7a5b 29be
000003a0: 935d 133d 70af 49bd b131 843b 91d7 1cbe
000003b0: adff 85bd ba23 a7bd a0e8 8fbc 22bc c43d
000003c0: 92f5 103d d4ea 803d 9b62 bcbd 77c6 963c
000003d0: ff4d 04be 8219 8bbd 126b 5dbc cba1 da3d
000003e0: 237a 4b3d 7b3e 66bc 126c e43d 3f38 8cbd
000003f0: 883f 65bd 8e31 33be ed08 e2bd bf86 5bbd

conv2.0.bias f4 [16]
0.12910497 -0.1593192 0.0113218315 0.071936645 0.13236101 0.07306034 -0.025564896 0.032408617
0.055619754 0.13793814 -0.128365 -0.047114246 0.07892298 -0.19139968 0.048062813 0.040894903
00000000: 1834 043e 9324 23be 347f 393c 8553 933d
00000010: a589 073e a9a0 953d 796d d1bc e6be 043d
00000020: 8ad1 633d a83f 0d3e 1d72 03be defa 40bd
00000030: 5fa2 a13d 47fe 43be 83dd 443d 6a81 273d

conv3.0.weight f4 [32, 16, 3, 3]
-2.381894e-05 -2.0676744e-05 -7.467316e-05 -5.851966e-05 -6.0635462e-05 -0.000105207 -0.000350107 -0.00030714966
-0.00046981158 -0.0009272288 -0.00092067185 -0.00074146024 -0.00073663495 -0.0007000053 -0.00048681398 -0.001460333
-0.0012653017 -0.00088957656 -7.737336e-06 -2.1559479e-06 -1.320463e-06 -2.4311296e-06 -8.2255633e-07 -2.1031283e-07
-0.00016469296 -9.4350726e-05 -3.860744e-05 -0.000677423 -0.0004819165 -0.00026020358 -0.00058029866 -0.00037277027
-0.00024370001 -0.0008347029 -0.0005293597 -0.00035393378 -0.0021506168 -0.0020100889 -0.001807397 -0.00046335865
-0.0003979091 -0.0003504266 -0.00026408082 -0.00033800927 -0.00032105012 -0.00035396538 -0.00040670793 -0.00067759334
-7.3839845e-05 -0.00010260675 -0.00023526144 -0.00017593135 -0.00017991435 -0.00040850573 -0.00034693987 -0.0004614494
-0.0005702254 -0.0003111409 -0.0004248434 -0.00059934903 -0.0005850372 -0.00067716656 -0.0010264656 -2.8344002e-05
-1.2862504e-05 -7.706957e-05 -3.2552543e-05 -2.8661032e-05 -9.7527016e-05 -1.1627235e-05 -4.8878546e-06 -4.7206457e-05
-2.0339972e-05 -1.2579315e-05 -3.7492842e-05 -2.3118138e-05 -2.9503348e-05 -3.7347585e-05 -2.6843878e-05 -2.0436773e-05
-1.5029878e-05 -2.4468636e-06 -1.2746053e-06 -9.021258e-07 -4.7779326e-06 -3.092655e-06 -3.8672188e-06 -6.1680366e-05
-3.835767e-05 -2.3766948e-05 -0.00012879226 -0.00018423582 -0.00014865246 -6.217106e-05 -9.3543706e-05 -9.0474656e-05
-2.6287616e-05 -3.710802e-05 -4.4183027e-05 -0.00010907911 -0.00010511637 -7.803889e-05 -0.00013250492 -0.00014603493
-0.00010398222 -0.0011473367 -0.0010967827 -0.00081881235 -0.00036789756 -8.6287444e-05 -2.2846221e-05 -0.00041915287
-9.6481956e-05 -3.2212236e-05 -0.00031183523 -0.00010258548 -1.8261637e-05 -0.005943426 -0.006746785 -0.006349903
-0.0058501763 -0.0062652086 -0.0059598573 -0.006161331 -0.006575845 -0.0063716657 -0.0037626077 -0.0041337414
-0.004332854 -0.0040713125 -0.004463902 -0.0045073815 -0.0037009134 -0.00396401 -0.0040690894 -0.00014794689
-0.00014684847 -0.00012975092 -0.00014597057 -0.00018297578 -0.00013149598 -0.00015647018 -0.00017914157 -0.0001423399
0.03397667 0.02009155 -0.05977512 0.048547722 0.039627954 0.032611992 0.10416266 0.07829903
0.10326838 -0.036721107 -0.035561234 -0.032477394 -0.04980804 -0.014637474 -0.12097384 0.02828642
-0.047035404 -0.06707214 0.03747963 0.017333696 0.15036137 -0.26235986 -0.11860719 -0.0517731
-0.064120874 -0.09824359 -0.16606984 0.071407236 0.020098314 -0.04617071 0.047904782 0.056789022
-0.09493007 0.025287239 0.036884338 0.022033807 0.028888585 0.09848202 0.06286809 0.1350445
0.15214139 0.115153424 0.09272049 0.0161626 0.06622969 -0.10682315 -0.14097255 -0.057187412
-0.025572915 -0.13085753 0.031555153 -0.019833894 -0.1737158 0.026429983 0.028050201 0.037359636
-0.05650502 0.0200265 0.001564919 -0.10436815 -0.013435901 0.010085703 -0.00925291 0.0048737917
0.076318994 0.18521766 0.04596429 0.016992759 0.06885374 0.1487671 -0.016397245 -0.013658131
-0.0047074556 0.03620021 -0.18292025 -0.0015637826 -0.083665594 -0.053676687 0.123901285 0.074519955
0.015730564 0.0471778 -0.08298222 0.05559197 -0.036323883 -0.18351637 -0.090633824 -0.011276029
-0.09365337 -0.04918883 -0.030092739 0.006167939 0.056610577 -0.07412096 -0.059091102 -0.08991219
0.04668152 -0.038871765 -0.019765658 0.042521518 0.057058256 0.08613612 0.067248814 0.0014888607
-0.01725096 0.06751384 0.0061513283 0.019067157 0.035562124 0.045723107 -0.02873743 0.051917993
00000000: c9ce c7b7 f872 adb7 d999 9cb8 0273 75b8
00000010: d552 7eb8 94a2 dcb8 918e b7b9 ee08 a1b9
00000020: 0b51 f6b9 4511 73ba 3e59 71ba 8e5e 42ba
00000030: bc1a 41ba 8f80 37ba 113b ffb9 a568 bfba
00000040: 7bd8 a5ba 7932 69ba 9bcf 01b7 e7ae 10b6
00000050: c33a b1b5 7d26 23b6 a4cd 5cb5 5ad2 61b4
00000060: 6eb1 2cb9 29de c5b8 6cee 21b8 1795 31ba
00000070: bda9 fcb9 ef6b 88b9 2f1f 18ba 6170 c3b9
00000080: b989 7fb9 f7cf 5aba bac4 0aba 3090 b9b9
00000090: 5df1 0cbb b2bb 03bb 2ee6 ecba f2ee f2b9
000000a0: 759e d0b9 76b9 b7b9 5474 8ab9 d636 b1b9
000000b0: 9e52 a8b9 6e94 b9b9 6a3b d5b9 85a0 31ba
000000c0: 77da 9ab8 942e d7b8 83b0 76b9 367a 38b9
000000d0: 64a7 3cb9 b62c d6b9 7be5 b5b9 b1ee f1b9
000000e0: 2e7b 15ba a020 a3b9 84bd deb9 a21d 1dba
000000f0: 2f5d 19ba e183 31ba 788a 86ba 48c4 edb7
00000100: 09cc 57b7 69a0 a1b8 0789 08b8 196d f0b7
00000110: 6b87 ccb8 9812 43b7 5a02 a4b6 8cff 45b8
00000120: c29f aab7 bf0b 53b7 a241 1db8 d3ed c1b7
00000130: f57d f7b7 aaa5 1cb8 ca2e e1b7 a36f abb7
00000140: d628 7cb7 cc34 24b6 1b13 abb5 9d29 72b5
00000150: 2152 a0b6 698b 4fb6 28c3 81b6 655a 81b8
00000160: 3ce2 20b8 225f c7b7 690c 07b9 6d2f 41b9
00000170: 97df 1bb9 d561 82b8 e52c c4b8 36bd bdb8
00000180: 3a84 dcb7 6fa4 1bb8 2a51 39b8 67c1 e4b8
00000190: ec71 dcb8 cfa8 a3b8 05f1 0ab9 f420 19b9
000001a0: 0711 dab8 3b62 96ba ecc1 8fba 91a5 56ba
000001b0: 60e2 c0b9 38f5 b4b8 e3a5 bfb7 bfc1 dbb9
000001c0: 5b56 cab8 a01b 07b8 d17d a3b9 2923 d7b8
000001d0: 9130 99b7 12c1 c2bb 2214 ddbb d912 d0bb
000001e0: d6b2 bfbb 614c cdbb e84a c3bb fee4 c9bb
000001f0: 307a d7bb 68c9 d0bb 1596 76bb 5674 87bb
00000200: 9dfa 8dbb a568 85bb ed45 92bb a8b2 93bb
00000210: 068b 72bb 87e4 81bb ff55 85bb 3122 1bb9
00000220: 56fb 19b9 bf0d 08b9 ad0f 19b9 30dd 3fb9
00000230: 2fe2 09b9 2512 24b9 f3d7 3bb9 1341 15b9
00000240: 1f2b 0b3d 0997 a43c c2d6 74bd fad9 463d
00000250: ec50 223d 2794 053d 3c53 d53d 3e5b a03d
00000260: 5f7e d33d df68 16bd a8a8 11bd 0407 05bd
00000270: 8403 4cbd 04d2 6fbc 22c1 f7bd ecb8 e73c
00000280: 32a8 40bd 1e5d 89bd 3e84 193d 65ff 8d3c
00000290: 55f8 193e 0854 86be 54e8 f2bd 0810 54bd
000002a0: ce51 83bd ef33 c9bd 360e 2abe f53d 923d
000002b0: 38a5 a43c 801d 3dbd ce37 443d 9b9b 683d
000002c0: b26a c2bd 2f27 cf3c 0814 173d 3e80 b43c
000002d0: c1a7 ec3c f1b0 c93d fcc0 803d 1b49 0a3e
000002e0: f4ca 1b3e 8fd5 eb3d 3ee4 bd3d 6e67 843c
000002f0: 6fa3 873d 18c6 dabd 1c5b 10be 593d 6abd
00000300: 4a7e d1bc 84ff 05be fa3f 013d b17a a2bc
00000310: 8ee2 31be b183 d83c 89c9 e53c 6b06 193d
00000320: cf71 67bd 9d0e a43c f81d cd3a f8be d5bd
00000330: 4122 5cbc 813e 253c 8499 17bc 54b4 9f3b
00000340: 224d 9c3d b3a9 3d3e 0d45 3c3d 6634 8b3c
00000350: 3103 8d3d 6756 183e 8453 86bc 5ac6 5fbc
00000360: 0041 9abb ac46 143d 724f 3bbe d6f7 ccba
00000370: de58 abbd 16dc 5bbd f5bf fd3d eb9d 983d
00000380: 62dd 803c 823d 413d 95f2 a9bd 68b4 633d
00000390: 5ac8 14bd b7eb 3bbe 3a9e b9bd 18bf 38bc
000003a0: 57cd bfbd 3a7a 49bd 0c85 f6bc 6c1c ca3b
000003b0: 7ee0 673d bbcc 97bd 8309 72bd e223 b8bd
000003c0: 1f35 3f3d 0038 1fbd 97eb a1bc 0b2b 2e3d
000003d0: ebb5 693d 2268 b03d bfb9 893d e025 c33a
000003e0: e351 8dbc b244 8a3d 1591 c93b ba32 9c3c
000003f0: 97a9 113d 2748 3b3d c26a ebbc f6a7 543d

conv3.0.bias f4 [32]
-0.016759524 0.16665193 0.023404233 0.10467329 0.090113185 0.07790131 -0.11484532 0.06101595
-0.022255836 -0.0046836156 0.21819606 -0.022059089 -0.08949008 -0.00041282643 -0.017744549 -4.803863e-05
-0.02771892 -0.16200446 -0.021910029 -0.0015964329 0.13573387 0.008659523 0.019470647 -0.00062850333
0.10272829 0.0901101 -0.004539079 -1.808052e-09 0.018307567 -0.07158487 0.04379267 0.09989064
00000000: 454b 89bc cea6 2a3e 3cba bf3c f35e d63d
00000010: 438d b83d b98a 9f3d 0634 ebbd dceb 793d
00000020: df51 b6bc 0479 99bb ca6e 5f3e 43b5 b4bc
00000030: 9346 b7bd a070 d8b9 045d 91bc 167d 49b8
00000040: ca12 e3bc 7fe4 25be a97c b3bc 663f d1ba
00000050: d2fd 0a3e ace0 0d3c e880 9f3c 25c2 24ba
00000060: 3663 d23d a58b b83d 8ebc 94bb 2d7f f8b0
00000070: c0f9 953c 179b 92bd f15f 333d 7793 cc3d

conv4.0.weight f4 [64, 32, 3, 3]
-2.092403e-15 -9.906345e-24 -1.4967793e-13 -8.875948e-08 -4.1342034e-07 8.12769e-08 -1.2171827e-07 -1.2151231e-06
-2.337534e-07 0.05043773 0.03844442 0.028699243 -0.06483026 -0.055344395 -0.024610793 0.11158015
0.042746928 -0.044151366 0.048756752 -0.047207315 0.0059682447 -0.006199995 -0.04366689 0.07236225
0.07996245 -0.12611265 0.14533137 -0.042441893 0.04824097 0.048027538 -0.062070366 -0.12793824
0.02986137 -0.1527816 -0.037188087 0.14852192 0.14201991 -0.02203322 -0.07004537 0.0020541959
0.027559927 0.016955003 0.12041916 -0.028766613 -0.09499615 -0.01760932 -0.121356465 -0.05327104
0.0048482176 -0.03199663 -0.08347227 0.113958284 -0.003684625 -0.057041924 -0.051907104 -0.051373456
0.07377379 -0.05401299 -0.026978098 0.16101806 0.0049591484 0.0016920916 0.01971792 -0.025181444
-0.086433135 -0.042726833 0.05098199 0.034677237 -0.041425247 0.14500369 -0.0056193615 0.094689004
-4.1512094e-06 -1.0526139e-05 -1.3313762e-07 2.3456623e-15 1.6055211e-14 2.1526683e-16 5.1697552e-12 6.0535895e-12
9.021934e-12 -0.046780653 -0.0134694595 -0.06369166 -0.033033963 -0.08524427 -0.053336013 0.05262868
-0.023381809 0.13639374 0.048085697 -0.037239686 0.08286903 0.0406816 0.0038547178 -0.07149221
-0.056707587 0.07191987 0.0812488 -0.006485004 0.02526554 0.0656793 0.09284372 -0.12788232
0.03434065 0.10162699 -0.14600149 0.13796587 -0.07272366 0.0024322534 -0.029999828 0.045150932
0.012723225 -0.062098972 0.15813805 -0.010986095 -0.17344525 -8.009277e-24 -6.168201e-23 -5.9636e-41
-8.305644e-28 1.4744553e-32 -1.30971e-40 -2.7492495e-24 9.827385e-32 -9.8096e-41 -0.003306407 -0.10194334
0.039227236 -0.022059975 0.015602144 0.029334493 0.013725286 0.026715687 0.06219017 -1.1745e-40
-1.22956e-40 -1.67018e-40 1.19678e-40 -9.031e-41 1.71213e-40 -5.69663e-40 -5.12884e-40 -3.57531e-40
0.022726707 -0.07054713 0.12751968 -0.08282303 -0.04890391 0.050291855 -0.023082653 -0.009251376
0.09205749 -0.0242696 -0.0013359666 -0.115685016 -0.012446739 -0.07937983 -2.4900459e-05 0.09769398
-0.038132578 -0.19971086 0.00027880017 0.0003633643 0.00030026273 8.810455e-05 0.00010268437 5.901081e-05
0.000116484916 0.00012945777 0.00021570179 0.045257956 -0.0018325145 -0.03685988 0.1097334 0.026911227
-0.13413763 0.14252512 0.10280242 -0.058958493 -0.07236661 -0.0035582203 -0.083925046 0.057291407
0.012783966 -0.07210763 -0.048783116 -0.07051956 0.060446702 -0.0623352 -0.029454965 -0.0021599343
-0.067643955 -0.070374504 0.0023739606 0.004951683 -0.045298968 0.10618381 0.06239982 0.04772147
0.03973118 0.1641952 0.06682577 -0.15218434 0.028514609 -0.027492302 -0.12151111 -7.316318e-19
-1.2032536e-17 1.7819845e-21 -3.80143e-40 2.97731e-40 4.2421203e-30 -2.68105e-40 3.12476e-40 -7.5625824e-34
-0.08339689 -0.042637743 0.13701063 -0.0752051 -0.08173502 0.030247703 0.16656472 0.052088216
-0.092861995 -0.06490018 -0.043363694 0.005475647 -0.002874162 0.05727109 -0.0072937435 0.12788408
0.030223317 0.13706131 4.0538746e-09 1.127575e-09 -2.7323445e-12 1.0643459e-23 -1.5923814e-15 -1.3989541e-10
-3.0064894e-15 -2.920065e-12 -1.6532173e-10 2.3144e-41 -1.20521e-40 -2.88791e-40 2.7089e-40 -1.46785e-40
2.311e-42 -3.77287e-40 -2.88383e-40 -3.756e-41 0.070217304 -0.05450565 0.06918765 -0.113299154
00000000: 06c6 16a7 d89d 3f99 ba85 28aa 0a9c beb3
00000010: 0ff4 ddb4 738a ae33 aab1 02b4 5017 a3b5
00000020: a5fd 7ab4 cb97 4e3d e577 1d3d ad1a eb3c
00000030: bac5 84bd ceb0 62bd 939c c9bc 2284 e43d
00000040: 6717 2f3d 10d8 34bd 29b5 473d 755c 41bd
00000050: 4491 c33b 5429 cbbb 0edc 32bd a932 943d
00000060: 5ac3 a33d ad23 01be bfd1 143e 8dd7 2dbd
00000070: 5398 453d 86b8 443d 7f3d 7ebd 3e02 03be
00000080: d59f f43c c872 1cbe 8952 18bd 2116 183e
00000090: ab6d 113e 037f b4bc f273 8fbd b09f 063b
000000a0: 5bc5 e13c 38e5 8a3c 529e f63d f6a7 ebbc
000000b0: 578d c2bd 6c41 90bc bd89 f8bd bc32 5abd
000000c0: ccdd 9e3b e60e 03bd 82f3 aabd f662 e93d
000000d0: c079 71bb cba4 69bd 8b9c 54bd f96c 52bd
000000e0: b616 973d ba3c 5dbd 2c01 ddbc ebe1 243e
000000f0: 5a80 a23b 2cc9 dd3a 7a87 a13c 5149 cebc
00000100: db03 b1bd 5502 2fbd 7ed2 503d b809 0e3d
00000110: 85ad 29bd d97b 143e 9f22 b8bb 4fec c13d
00000120: 9e4a 8bb6 6c99 30b7 97f4 0eb4 d505 2927
00000130: cc9c 9028 8e2f 7825 04e5 b52c e3fd d42c
00000140: 2eb7 1e2d 129d 3fbd 02af 5cbc c670 82bd
00000150: 9f4e 07bd 8c94 aebd dd76 5abd 2c91 573d
00000160: 358b bfbc cdaa 0b3e 82f5 443d a488 18bd
00000170: 3db7 a93d c0a1 263d 6f9f 7c3b 826a 92bd
00000180: 3746 68bd ba4a 933d c565 a63d 2880 d4bb
00000190: aef9 ce3c de82 863d d924 be3d 95f3 02be
000001a0: c8a8 0c3d d021 d03d 6a81 15be ed46 0d3e
000001b0: 24f0 94bd 7166 1f3b 33c2 f5bc 2ff0 383d
000001c0: 1375 503c 7e5b 7ebd f1ee 213e 06ff 33bc
000001d0: a29b 31be 05ec 1a99 5123 959a 3ea6 0080
000001e0: b29b 8392 bf1d 990a 186d 0180 7fb6 5498
000001f0: 2d22 ff0b 7411 0180 4eb0 58bb abc7 d0bd
00000200: bdac 203d 1fb7 b4bc 23a0 7f3c e44e f03c
00000210: 06e0 603c dbda da3c 1fbb 7e3d 6747 0180
00000220: c056 0180 94d1 0180 9d4d 0100 bffb 0080
00000230: 46dd 0100 fd33 0680 b695 0580 a7e4 0380
00000240: 5c2d ba3c 047b 90bd 8594 023e 1f9f a9bd
00000250: 774f 48bd d5fe 4d3d d517 bdbc 1593 17bc
00000260: a388 bc3d 0ad1 c6bc 9a1b afba 44ec ecbd
00000270: 68ed 4bbc e491 a2bd 54e1 d0b7 c813 c83d
00000280: e830 1cbd 0181 4cbe ed2b 9239 ee81 be39
00000290: 956c 9d39 c5c4 b838 4058 d738 6082 7738
000002a0: 5d49 f438 0ebf 0739 022e 6239 6860 393d
000002b0: fc30 f0ba 63fa 16bd e8bb e03d ef74 dc3c
000002c0: 605b 09be 1bf2 113e 138a d23d 767e 71bd
000002d0: f234 94bd 0831 69bb e5e0 abbd 65aa 6a3d
000002e0: d773 513c 2aad 93bd ced0 47bd 8f6c 90bd
000002f0: f696 773d 3253 7fbd 8a4b f1bc af8d 0dbb
00000300: ea88 8abd 8220 90bd 7394 1b3b ba41 a23b
00000310: 698b 39bd e676 d93d f496 7f3d 9777 433d
00000320: 29bd 223d c922 283e f3db 883d 36d6 1bbe
00000330: 7897 e93c 8937 e1bc d1da f8bd 89f0 57a1
00000340: 0bf6 5da3 98a4 061d af23 0480 f43d 0300
00000350: b214 ac0e 5eeb 0280 0e67 0300 564f 7b88
00000360: fdcb aabd eaa4 2ebd 844c 0c3e 2205 9abd
00000370: b164 a7bd 08ca f73c f18f 2a3e 745a 553d
00000380: 6e2e bebd 63ea 84bd 219e 31bd 0e6d b33b
00000390: 705c 3cbb 1795 6a3d 5b00 efbb 0bf4 023e
000003a0: e496 f73c cd59 0c3e 424a 8b31 05f9 9a30
000003b0: 8b45 40ac dbdf 4d19 817c e5a6 0fd1 19af
000003c0: f1a3 58a7 377b 4dac eec5 35af 8440 0000
000003d0: f74f 0180 0825 0380 22f3 0200 2d99 0180
000003e0: 7106 0000 b91b 0480 e523 0380 b468 0080
000003f0: 17ce 8f3d 5141 5fbd 41b2 8d3d 6309 e8bd

conv4.0.bias f4 [64]
-0.041577984 -0.15120548 0.049172357 -0.08885998 0.08341005 0.014112649 -3.980979e-06 -0.054498937
0.07542301 -0.006461421 -0.05484305 -0.048831616 0.04370552 0.0139910625 -0.17137139 -0.04709124
0.081040345 -0.04446688 0.120766684 -0.025449045 -0.0015604162 0.07541846 0.15853946 0.05407818
0.04935461 -0.08466377 0.041375052 0.0042728083 -0.07621036 -0.029951053 -0.039268706 0.059381414
0.023577278 -0.08343299 0.050412644 -0.08304475 -5.824795e-15 -5.9366363e-07 -0.037796166 -0.021127293
0.04025535 -0.056683753 0.08855473 -0.11337436 -0.006382967 0.12233762 0.17642587 -0.059560448
0.00202215 -0.051267587 -0.09090049 0.048339482 0.031309064 -0.033754785 -0.037448585 -0.0049002464
-0.054673065 -0.18195187 0.00948876 -0.05030516 -0.039703324 0.1662168 0.0072860965 0.018252406
00000000: ad4d 2abd 9cd5 1abe f468 493d 39fc b5bd
00000010: e3d2 aa3d bd38 673c 5994 85b6 473a 5fbd
00000020: 6177 9a3d 54ba d3bb 1ba3 60bd a903 48bd
00000030: 8f04 333d c53a 653c fb7b 2fbe bee2 40bd
00000040: 7bf8 a53d e722 36bd 8654 f73d 847a d0bc
00000050: e186 ccba fe74 9a3d 2b58 223e 1581 5d3d
00000060: 0f28 4a3d 3364 adbd e378 293d ea02 8c3b
00000070: 2d14 9cbd e95b f5bc 39d8 20bd ed39 733d
00000080: 2325 c13c eade aabd 7d7d 4e3d 5e13 aabd
00000090: 40dc d1a7 415c 1fb5 27d0 1abd 2513 adbc
000000a0: cbe2 243d 392d 68bd 2f5c b53d d130 e8bd
000000b0: 3528 d1bb 258c fa3d fca8 343e a8f5 73bd
000000c0: 0c86 043b f6fd 51bd 092a babd 9fff 453d
000000d0: ef3d 003d 7542 0abd b063 19bd 3f92 a0bb
000000e0: ddf0 5fbd 9751 3abe be76 1b3c c90c 4ebd
000000f0: f49f 22bd bd34 2a3e 35c0 ee3b 1286 953c

conv5.0.weight f4 [128, 64, 3, 3]
-0.052567977 0.04356594 0.018603522 0.0052589197 -0.098999225 0.00075857376 -0.082409956 0.16055562
0.029593036 -0.029576108 -0.004439188 -0.0009104607 -0.08944124 -0.004629716 0.050726872 0.0030401847
0.010558117 -0.004623133 0.043810938 0.03934081 -0.0012503358 -0.0573938 0.07162532 0.06276823
-0.023726298 -0.06153943 -0.012875082 -0.020516291 -0.04312657 0.035127193 -0.01705718 0.08964538
-0.012226954 -0.023718556 -0.023035573 -0.09223912 -0.003682085 0.021658638 0.026230322 -0.06830489
-0.03838755 -0.013401575 0.01784036 -0.0596859 -0.006915715 -0.0041418932 -0.01169072 0.045233462
-0.010705948 0.007747936 0.045017097 -0.022382552 -0.0127890175 -0.06862985 7.691506e-16 -4.05625e-40
-4.82023e-40 -1.28165e-14 -1.4800287e-37 1.474436e-39 2.02142e-40 4.55112e-40 4.51997e-40 0.066141434
-0.11423542 0.030367289 0.00049743836 0.0803386 -0.035080373 -0.0032085683 0.03640033 0.021123655
-0.009265149 0.04279238 0.0065333024 0.04133851 -0.044272188 0.040901806 0.0033581187 -0.038260613
-0.02758725 2.30612e-40 -1.2025486e-09 -3.335916e-09 -1.61525e-40 1.8062315e-09 -1.43636925e-08 4.30538e-40
-5.9225155e-19 -5.212132e-17 -0.08328338 0.062909596 -0.06256023 -0.048881594 0.14129202 0.015334115
0.055998694 -0.03714089 0.010729654 0.05926523 -0.007550581 0.02660314 -0.012364714 -0.07784876
-0.038374852 0.021932164 0.025621489 0.046046007 -0.0036972654 0.029749004 -0.04273799 -0.0717871
0.0021525281 0.10072201 -0.031375688 -0.048332147 -0.0035257898 -0.031223344 -0.075619794 0.017454177
0.02860321 0.022220787 -0.008214914 0.018764978 0.08695869 -0.0262374 0.045506615 -0.069761425
0.06739362 0.04648939 -0.025193395 -0.029302327 -0.047244713 0.05114905 0.032427274 -0.01170288
0.052148417 -0.01742182 0.023014149 0.008337604 -0.024745688 0.061786808 0.009211653 0.0068968297
-0.03382446 -0.1718938 -0.0078664 0.0406732 0.12660356 0.007822101 -0.032825973 0.051586144
-0.0153388195 0.010687656 0.030486535 0.005756959 -0.09660039 0.02901068 0.011275842 -0.050397992
-0.008119992 0.03339921 -0.026427634 0.014571217 -0.005711428 -0.0034420658 0.017620187 0.040838353
-0.021096071 -0.06603014 -0.12787905 0.062238 0.06080589 -0.03608604 -0.01918201 -0.0048345434
0.07926511 -0.019547202 -0.006302486 -0.06378835 0.04636286 0.057109803 0.045871183 0.03112492
-0.0216634 -0.022634681 -0.034829147 -0.0660192 -0.05241324 0.0112017505 -0.040638946 -0.021927206
0.005353949 0.030645588 -0.014128961 -0.0075437394 -0.090150185 0.043990616 -0.022688726 0.03677295
0.051615223 -0.027094081 -0.009057528 -0.03318059 0.041315828 -0.018698331 -0.00088340667 -0.021949884
0.009777424 0.015336806 0.0026864696 -0.09761366 2.4373607e-05 -0.022064148 -0.059920833 -0.040544968
-0.059304498 0.026093692 -0.013810049 0.033373613 -0.059329603 0.031179773 0.0050723483 -0.0682312
-0.018194947 -0.034775432 -0.018663269 -0.028104499 -0.007678052 -0.009663367 0.07089253 -0.030581765
-0.014474398 0.028016508 0.07064668 0.057555556 0.010612378 0.07770955 -0.054038428 -0.04665535
-0.013854875 -0.0026440285 0.05390903 0.038452826 0.0025194455 0.046287533 -0.004803051 -0.09486665
-0.049826372 -0.042707898 0.02330662 0.061728224 -0.03137846 -0.013747899 0.049912415 -0.0018288068
00000000: 8551 57bd 3372 323d 6a66 983c 0453 ac3b
00000010: 1bc0 cabd 06db 463a 8dc6 a8bd b168 243e
00000020: 186d f23c 9849 f2bc 9c76 91bb fcab 6eba
00000030: f82c b7bd dfb4 97bb fbc6 4f3d d63d 473b
00000040: f4fb 2c3c a77d 97bb 1973 333d d423 213d
00000050: 4fe2 a3ba c315 6bbd 4cb0 923d a18c 803d
00000060: a75d c2bc c510 7cbd 02f2 52bc c811 a8bc
00000070: 7ca5 30bd 88e1 0f3d 80bb 8bbc ff97 b73d
00000080: 9053 48bc 6b4d c2bc 19b5 bcbc dde7 bcbd
00000090: 234f 71bb 756d b13c f9e0 d63c 6fe3 8bbd
000000a0: 433c 1dbd 4892 5bbc f225 923c 3479 74bd
000000b0: 399d e2bb b8b8 87bb 6f8a 3fbc b946 393d
000000c0: 0068 2fbc 66e2 fd3b d963 383d 9d5b b7bc
000000d0: 0789 51bc cf8d 8cbd 4cb1 5d26 b86a 0480
000000e0: af3f 0580 ade1 66a8 7973 4982 210e 1000
000000f0: 7d33 0200 abf4 0400 fceb 0400 2975 873d
00000100: 43f4 e9bd d2c4 f83c 8666 023a 9088 a43d
00000110: 70b0 0fbd d846 52bb 8318 153d 840b ad3c
00000120: dacc 17bc 1047 2f3d 5015 d63b 9252 293d
00000130: c156 35bd a788 273d e213 5c3b 29b7 1cbd
00000140: a8fe e1bc da82 0200 eb46 a5b0 0e3e 65b1
00000150: 44c2 0180 1f3f f830 30c4 76b2 2ab0 0400
00000160: 43cd 2ea1 fe5d 70a4 7a90 aabd bfd6 803d
00000170: 941f 80bd 1138 48bd dbae 103e f13b 7b3c
00000180: e35e 653d 0c21 18bd 6ecb 2f3c 19c0 723d
00000190: dd6a f7bb d4ee d93c 5f95 4abc 2c6f 9fbd
000001a0: f32e 1dbd 15ab b33c 28e4 d13c bd9a 3c3d
000001b0: d24d 72bb 2fb4 f33c 080e 2fbd 1d05 93bd
000001c0: 6e11 0d3b 5747 ce3d cb83 00bd eef7 45bd
000001d0: f010 67bb 19c8 ffbc 8dde 9abd 10fc 8e3c
000001e0: 4751 ea3c 5e08 b63c d997 06bc 03b9 993c
000001f0: 6617 b23d d1ef d6bc 2565 3a3d 14df 8ebd
00000200: ab05 8a3d a96b 3e3d 6162 cebc 6f0b f0bc
00000210: ac83 41bd ab81 513d 76d2 043d 70bd 3fbc
00000220: 9499 553d 34b8 8ebc 2b88 bc3c 729a 083c
00000230: 78b7 cabc 2a14 7d3d 79ec 163c cdfe e13b
00000240: 848b 0abd ee04 30be 13e2 00bc f198 263d
00000250: 5da4 013e 4528 003c 8774 06bd fe4b 533d
00000260: ac4f 7bbc 471b 2f3c e6be f93c dfa4 bc3b
00000270: 6dd6 c5bd cea7 ed3c 4fbe 383c 206e 4ebd
00000280: b709 05bc 9ccd 083d c47e d8bc 1dbc 6e3c
00000290: ee26 bbbb 4894 61bb 3658 903c 1e46 273d
000002a0: abd1 acbc cf3a 87bd baf2 02be 46ed 7e3d
000002b0: 990f 793d f5ce 13bd 9723 9dbc 176b 9ebb
000002c0: bf55 a23d 7421 a0bc 1685 cebb 77a3 82bd
000002d0: fbe6 3d3d f8eb 693d 6ce3 3b3d b0f9 fe3c
000002e0: 7177 b1bc 5e6c b9bc 02a9 0ebd 1335 87bd
000002f0: 44af 56bd 8c87 373c 0675 26bd afa0 b3bc
00000300: 2e70 af3b 750c fb3c 287d 67bc 7931 f7bb
00000310: a9a0 b8bd 812f 343d b5dd b9bc 3c9f 163d
00000320: 7c6a 533d 68f4 ddbc 0766 14bc 5fe8 07bd
00000330: c93a 293d 3e2d 99bc 6b94 67ba 3ed0 b3bc
00000340: 7d31 203c 3a47 7b3c 7b0f 303b ace9 c7bd
00000350: ec75 cc37 dfbf b4bc 8c6f 75bd 7b12 26bd
00000360: 46e9 72bd 70c2 d53c 8b43 62bc c5b2 083d
00000370: 9903 73bd b96c ff3c f135 a63b cdbc 8bbd
00000380: 920d 95bc af70 0ebd b6e3 98bc 683b e6bc
00000390: 2b98 fbbb 1953 1ebc 1a30 913d 9c86 fabc
000003a0: 0726 6dbc e082 e53c 35af 903d 60bf 6b3d
000003b0: 8adf 2d3c 2f26 9f3d 6657 5dbd ae19 3fbd
000003c0: 8fff 62bc 7047 2dbb b7cf 5c3d b680 1d3d
000003d0: 481d 253b ff97 3d3d e962 9dbb 7249 c2bd
000003e0: bd16 4cbd 7aee 2ebd 86ed be3c bcd6 7c3d
000003f0: b386 00bd de3e 61bc f670 4c3d 93b4 efba

conv5.0.bias f4 [128]
0.0075696968 0.008352295 -0.021720437 0.012601424 0.05526346 0.0069587873 0.011407404 0.051952586
-2.4988767e-05 -5.404765e-10 0.0025124107 0.12839893 -0.016409272 0.042237017 0.03481641 0.11535923
0.09598906 -0.021478752 -0.00030841518 0.06297498 -0.006284911 -0.025201371 -0.00036602802 0.037884742
-0.015083758 -0.00013470835 -1.0911511e-15 -0.0033821256 -0.005591007 0.012077232 -0.009251513 -0.021142187
-7.8648465e-17 -0.0043780166 -0.023553038 -0.020986099 -9.202997e-10 0.0004882185 -0.0006895924 0.04397471
0.00020385132 -9.576295e-14 -0.014227611 0.011958974 0.017624656 -1.2217668e-06 0.008682413 0.005841793
-0.04739027 -0.00010675076 -0.030929158 0.054905735 0.009081648 -3.7553893e-10 -0.0037236505 0.0068298765
-0.014396521 -0.057674143 -5.185817e-14 -0.03137438 -8.753873e-09 -0.018501522 0.027857358 -0.028292466
0.024889898 -0.0047254637 -3.6888758e-17 -7.8887126e-05 -0.0139166135 -0.00086296943 0.0128117185 0.021680143
-0.033015106 0.009345142 -0.021585235 0.016650822 -0.0075232587 0.033717126 0.010172347 -3.1169536e-09
0.025120465 -0.032610603 0.031821106 -0.036690902 -0.00024764994 0.029151445 0.034824908 0.030726338
0.008886889 0.025475021 -2.6199035e-31 0.02725255 0.040999047 0.0016394616 0.059692904 -0.07535516
0.008820758 0.02020745 0.038199794 0.065951556 0.04066624 -0.00020665224 -0.0050485283 0.102568805
-1.8142455e-08 0.014314164 0.06787914 0.01739664 0.04716024 -0.0028909878 -0.019110374 -0.0250683
-0.0025064324 -0.030793197 0.03882291 -0.00057754386 0.04021715 0.012645952 -0.051230334 0.015158599
0.0042593307 0.046206087 0.024099858 -8.074972e-05 0.004360316 -0.0281342 0.0028061492 -0.024108106
00000000: 380b f83b 10d8 083c 0fef b1bc 3476 4e3c
00000010: f05b 623d 8a06 e43b 1fe6 3a3c 3ccc 543d
00000020: f89e d1b7 a790 14b0 42a7 243b 027b 033e
00000030: bd6c 86bc b900 2d3d a79b 0e3d 7641 ec3d
00000040: ea95 c43d 35f4 afbc c9b2 a1b9 07f9 803d
00000050: a8f1 cdbb 1b73 cebc 73e7 bfb9 082d 1b3d
00000060: de21 77bc 7f40 0db9 5f40 9da6 a7a6 5dbb
00000070: c434 b7bb 95df 453c a893 17bc 6132 adbc
00000080: dc59 b5a4 7775 8fbb 4df2 c0bc 0aeb abbc
00000090: 56f8 7cb0 94f7 ff39 c3c5 34ba d31e 343d
000000a0: ecc0 5539 95a3 d7a9 ed1a 69bc 93ef 433c
000000b0: 9561 903c 96fb a3b5 ae40 0e3c 836c bf3b
000000c0: 4d1c 42bd 61df dfb8 255f fdbc d6e4 603d
000000d0: 31cb 143c 6874 ceaf 7d08 74bb 28cd df3b
000000e0: 63df 6bbc b93b 6cbd 668c 69a9 6c82 00bd
000000f0: f163 16b2 8190 97bc 1d35 e43c 9ac5 e7bc
00000100: e6e5 cb3c 10d8 9abb 8f1e 2aa4 3470 a5b8
00000110: 8202 64bc e638 62ba 3ee8 513c 8e9a b13c
00000120: d93a 07bd 5e1c 193c 85d3 b0bc 4e67 883c
00000130: ab85 f6bb f81a 0a3d eaa9 263c 0732 56b1
00000140: 6fc9 cd3c b292 05bd d956 023d 3349 16bd
00000150: 03d7 81b9 03cf ee3c 90a4 0e3d cdb5 fb3c
00000160: 509a 113c feb0 d03c 9d0a aa8c bd40 df3c
00000170: 9eee 273d 34e3 d63a 8c80 743d ce53 9abd
00000180: f184 103c 188a a53c 6377 1c3d 9c11 873d
00000190: a591 263d cab0 58b9 206e a5bb 980f d23d
000001a0: aed7 9bb2 f585 6a3c 3804 8b3d 6683 8e3c
000001b0: 192b 413d ba76 3dbb 5c8d 9cbc 095c cdbc
000001c0: f542 24bb 0442 fcbc c604 1f3d 5066 17ba
000001d0: bdba 243d f830 4f3c e6d6 51bd c65b 783c
000001e0: db91 8b3b 9842 3d3d 116d c53c 2d58 a9b8
000001f0: fbe0 8e3b b279 e6bc 5fe7 373b 5d7e c5bc

dense.0.weight f4 [120, 128]
-0.023667077 0.027910015 -0.0050782957 0.1601671 0.008287527 -0.027982758 -0.0054290215 -0.017424757
-1.9762354e-07 3.3573545e-23 -0.04831818 0.02695462 0.15466815 0.002430335 -0.056293186 -0.097592086
-0.09904853 0.02459406 0.0014616338 0.088440776 -0.0024100188 0.0420737 1.6619493e-05 -0.16430834
0.09454813 -0.0001718365 3.502793e-24 0.0191454 0.18633544 0.031272464 0.0024822822 -0.14734636
5.3678e-41 -0.018882843 -0.084147274 0.044189617 -4.3727195e-29 0.052739494 1.8590284e-06 -0.07973466
0.015146627 -7.543e-41 0.008332828 0.14858665 0.15281741 1.0936845e-15 0.14911331 0.19192973
-0.17662922 9.17873e-08 -0.017806578 -0.065753594 0.12295465 4.627848e-12 -1.504993e-05 -0.11221147
-0.014633022 -0.036634415 -6.772101e-15 0.08953116 2.4906463e-17 0.027216118 0.013511736 -0.06680187
-0.049711358 -0.13271683 9.148429e-15 0.0006160704 0.051206082 -0.0012968231 -0.013745609 -0.08411688
0.08447724 0.11265133 0.1558372 0.21309479 0.037520107 0.08638078 -0.07302233 -1.07535805e-14
-0.060643144 0.18559147 -0.016704971 0.0023057265 5.914028e-06 0.13983156 0.1494205 -0.050423115
0.08506689 -0.07833546 3.01006e-40 0.04223261 0.007821111 0.047097053 -0.08201141 -0.0173512
-0.02584006 0.09739886 0.015475129 -0.0031387182 0.025146555 -0.00024505923 0.03371177 0.12375341
-5.713478e-33 0.013140892 -0.039114125 0.061833918 0.1222795 0.22226568 0.036610354 0.06961495
0.11843497 -0.08578905 0.027631678 -0.003126492 0.03996477 0.13535799 0.050038673 0.01150987
-0.0005662518 0.045066092 -0.114245184 1.8622196e-06 -0.08864376 0.071370445 0.14496417 0.058290653
-0.089070134 0.031416494 0.057309184 0.01281645 0.11894237 -0.08411886 -0.010380449 -0.016151033
9.2467e-07 -2.7109e-38 0.013243198 0.08053977 -0.08183856 0.11028753 0.16830546 0.0739206
0.095761955 0.007783093 5.233372e-07 -0.03680579 -0.0061145728 0.040343758 2.082947e-07 0.03087433
0.10096272 -1.2891241e-05 7.416598e-39 0.021974802 -0.010263571 -0.0033991444 -0.048509717 0.035262015
8.14601e-40 0.0020721098 -0.006470394 0.06569687 -7.229594e-28 -0.0006853035 -5.603311e-07 -0.008810183
0.010426777 -5.96533e-40 -0.002472605 -0.102192305 -0.04874002 7.78848e-17 -0.16185461 -0.00092693383
0.029473964 2.394864e-09 0.022380983 -0.012245426 -0.0063000335 6.3701755e-08 -1.6266755e-06 0.035568446
-0.0026075912 0.10536039 1.3509382e-25 0.044735633 -1.7154832e-12 0.042382378 0.06515365 -0.02773099
0.06772175 -0.056498013 5.605991e-09 -5.0380287e-08 0.027115908 2.1227878e-07 -0.12715389 -0.077563636
0.073148906 0.049110163 -0.0076372703 -0.085194044 -0.004126681 0.068699025 -0.014395008 -1.6710081e-32
0.016432326 0.077228256 -0.012695626 0.0020976337 7.703146e-17 -0.0040547624 -0.0484848 0.11155705
0.0514135 0.04051179 3.42084e-40 0.03481491 0.14932908 -0.09756998 0.099216186 0.006726843
-0.12768058 -0.032914467 0.12336741 -0.046412364 -0.06593715 5.69802e-09 0.059048526 0.069385186
9.0261566e-12 0.0058415798 0.056326926 0.0647625 -0.009623211 -0.089005075 0.079430155 -0.045029182
0.045575634 -0.0006003269 0.083128154 -0.022617975 -0.082656495 -0.031555977 0.047570977 0.017432647
0.041683663 -0.032022797 0.00021153955 -1.4225374e-10 -0.046931658 -0.0071924417 0.06268686 -0.0011235198
00000000: 75e1 c1bc 8ba3 e43c d567 a6bb d802 243e
00000010: 68c8 073c 193c e5bc efe5 b1bb 5dbe 8ebc
00000020: 5832 54b4 095a 221a 49e9 45bd efcf dc3c
00000030: 5461 1e3e 4146 1f3b af93 66bd 5cde c7bd
00000040: f5d9 cabd 7b79 c93c 4b94 bf3a 7020 b53d
00000050: 68f1 1dbb 7955 2c3d 176a 8b37 7240 28be
00000060: 73a2 c13d 022f 34b9 fb81 8718 d0d6 9c3c
00000070: b8ce 3e3e 8e17 003d c9ad 223b f7e1 16be
00000080: a295 0000 31b0 9abc 6855 acbd 2c00 353d
00000090: 25b9 5d90 5e05 583d bb83 f935 ed4b a3bd
000000a0: 8f29 783c 45d2 0080 6a86 083c 1927 183e
000000b0: 2b7c 1c3e d69d 9d26 29b1 183e 3a89 443e
000000c0: 4ade 34be 9a1c c533 1adf 91bc d2a9 86bd
000000d0: a6cf fb3d f3d3 a22c f57e 7cb7 21cf e5bd
000000e0: 58bf 6fbc f80d 16bd 9bfd f3a7 1d5c b73d
000000f0: b9b8 e523 56f4 de3c 5460 5d3c 6bcf 88bd
00000100: 239e 4bbd ece6 07be afcd 2428 c97f 213a
00000110: 78bd 513d 2afa a9ba 4335 61bc 7945 acbd
00000120: 6702 ad3d beb5 e63d c993 1f3e 8535 5a3e
00000130: afae 193d 68e8 b03d bb8c 95bd 23b8 41a8
00000140: f264 78bd b10b 3e3e ddd8 88bc ac1b 173b
00000150: 1d71 c636 0130 0f3e b001 193e 7888 4ebd
00000160: 8d37 ae3d 576e a0bd 1547 0300 1afc 2c3d
00000170: 1e24 003c d7e8 403d 99f5 a7bd 1b24 8ebc
00000180: 89ae d3bc 0e79 c73d 658b 7d3c f4b2 4dbb
00000190: 2600 ce3c 4b7b 80b9 5a15 0a3d 6e72 fd3d
000001a0: 1f54 ed89 e54c 573c 2236 20bd 9045 7d3d
000001b0: ad6d fa3d 9d99 633e bdf4 153d 4892 8e3d
000001c0: 098e f23d 2bb2 afbd d45b e23c d5e5 4cbb
000001d0: 19b2 233d 499b 0a3e 5af5 4c3d e593 3c3c
000001e0: 8470 14ba 3997 383d 61f9 e9bd 61f1 f935
000001f0: dc8a b5bd ab2a 923d 7d71 143e 2ec2 6e3d
00000200: 676a b6bd 95ae 003d 09bd 6a3d 16fc 513c
00000210: 0f98 f33d 8246 acbd c212 2abc 2c4f 84bc
00000220: d736 7835 6e98 1381 00fa 583c 09f2 a43d
00000230: fa9a a7bd 6ede e13d 4458 2c3e af63 973d
00000240: d81e c43d 5109 ff3b 757b 0c35 abc1 16bd
00000250: c15c c8bb 7f3f 253d 9ca7 5f34 2aec fc3c
00000260: 8bc5 ce3d 7547 58b7 75c2 5000 8004 b43c
00000270: 8928 28bc 2ec4 5ebb 20b2 46bd e76e 103d
00000280: c7de 0800 3ccc 073b 9905 d4bb 158c 863d
00000290: 6f1d 6592 f0a5 33ba a969 16b5 9658 10bc
000002a0: 13d5 2a3c e47e 0680 6e0b 22bb 334a d1bd
000002b0: 9da3 47bd 1297 b324 37bd 25be 7afd 72ba
000002c0: 6273 f13c e592 2431 5358 b73c 0aa1 48bc
000002d0: 8370 cebb 69cc 8833 2554 dab5 38b0 113d
000002e0: 1fe4 2abb 30c7 d73d f13c 2716 b63c 373d
000002f0: cc6e f1ab 2599 2d3d 476f 853d 1a2c e3bc
00000300: b3b1 8a3d 766a 67bd d19e c031 b661 58b3
00000310: 2e22 de3c bfee 6334 a134 02be afd9 9ebd
00000320: 18cf 953d bd27 493d 1142 fabb 377a aebd
00000330: 1c39 87bb 13b2 8c3d 0ad9 6bbc 0487 ad8a
00000340: 169d 863c d929 9e3d 5101 50bc 7478 093b
00000350: 599f b124 d0dd 84bb ff97 46bd 0678 e43d
00000360: f696 523d b1ef 253d 97b9 0300 149a 0e3d
00000370: b9e9 183e c5d2 c7bd db31 cb3d d96c dc3b
00000380: b3be 02be 52d1 06bd 0da8 fc3d e41a 3ebd
00000390: 0e0a 87bd 50c8 c331 dedc 713d d219 8e3d
000003a0: 32ca 1e2d b96a bf3b 10b7 663d 34a2 843d
000003b0: acaa 1dbc 4b48 b6bd 47ac a23d 8570 38bd
000003c0: 84ad 3a3d 425f 1dba 183f aa3d 5549 b9bc
000003d0: cf47 a9bd d740 01bd c9d9 423d e9ce 8e3c
000003e0: 7dbc 2a3d 562a 03bd b7d0 5d39 de68 1caf
000003f0: 693b 40bd 93ae ebbb f861 803d 1243 93ba

dense.0.bias f4 [120]
0.06945967 0.082828246 0.055863425 -0.008619276 -1.4420924e-13 -0.0068543497 -3.3374227e-20 -5.4244207e-14
0.062203366 -0.0019225992 -8.42854e-09 -4.2408346e-27 -0.0019123344 0.113205835 0.038435936 0.08573125
0.018359208 0.063483536 0.1005878 0.104090236 -0.016509028 -4.1393492e-13 0.01929709 -1.9275142e-20
0.08359699 -3.59073e-14 0.074333966 0.022667032 -3.929283e-10 -6.329095e-07 -0.000908312 -2.648754e-16
-0.023816349 0.08952076 -0.031085892 0.0526507 -5.3314714e-15 -3.926734e-17 -7.2448688e-12 0.16583325
0.1388611 0.09407385 0.10221017 0.0070493426 0.03160479 0.012480381 0.03931916 0.03140538
0.1775117 0.0034065307 -4.783917e-16 0.036363002 0.12134331 0.04270512 -0.0064258957 -3.641925e-14
-0.013535257 0.094770044 0.056795076 -3.084512e-14 0.07332865 1.1451938e-28 0.042728864 0.005295458
-1.9127218e-17 0.09302037 0.121954575 0.008750033 -4.891633e-19 -4.6837604e-06 -1.6295445e-16 0.07460209
-9.491033e-22 0.019597314 0.0068217465 0.09562181 -0.00024159614 -7.1973537e-26 -0.010843924 -0.0055520567
0.09569364 -5.9910103e-06 -0.0015185747 0.13033645 -0.018030679 0.028136184 -6.2038104e-23 0.07875559
0.06337769 -0.020130519 0.20935692 -2.5607367e-05 -2.2441513e-14 -0.014015687 0.034624163 0.013562313
-2.3469714e-07 1.7927398e-17 0.059865195 0.09229981 0.22130147 -0.00049408054 -1.4952679e-08 0.013688152
0.1089556 -6.5137782e-12 -4.2784955e-06 -1.2713536e-17 -2.0366356e-06 -0.00032291166 -1.5169817e-08 0.09863435
-0.07174986 0.010390831 -0.0056763203 -0.000644654 0.06879213 -1.5721198e-12 0.054219227 0.027737753
00000000: df40 8e3d dba1 a93d 0cd1 643d dd37 0dbc
00000010: 7c5d 22aa 749a e0bb f79a 1d9f 504b 74a9
00000020: f5c8 7e3d b9ff fbba 1ccd 10b2 2cff a793
00000030: 4ba7 faba 76d8 e73d 006f 1d3d de93 af3d
00000040: 0d66 963c a803 823d fa00 ce3d 432d d53d
00000050: f13d 87bc 4f06 e9aa ee14 9e3c 6f0c b69e
00000060: e634 ab3d 4cb6 21a9 683c 983d 36b0 b93c
00000070: be03 d8af 36e5 29b5 c91b 6eba b6b0 98a5
00000080: 811a c3bc a956 b73d d7a7 febc 43a8 573d
00000090: 2516 c0a7 b116 35a4 fae7 feac 31d0 293e
000000a0: 9b31 0e3e caa9 c03d 9153 d13d 2cfe e63b
000000b0: 0674 013d 837a 4c3c 210d 213d eea2 003d
000000c0: a1c5 353e 1a40 5f3b 14e3 09a6 5ff1 143d
000000d0: d782 f83d 90eb 2e3d 5290 d2bb 8904 24a9
000000e0: fcc2 5dbc cc16 c23d f4a1 683d 01ea 0aa9
000000f0: 552d 963d aa2b 1111 7604 2f3d 8585 ad3b
00000100: de6a b0a3 7781 be3d 52c3 f93d 4c5c 0f3c
00000110: 2260 10a1 3229 9db6 aadf 3ba5 fbc8 983d
00000120: a86c 8f9c 8c8a a03c f588 df3b 5ed5 c33d
00000130: f854 7db9 a632 b295 b7aa 31bc 07ee b5bb
00000140: 07fb c33d 6306 c9b6 e90a c7ba eb76 053e
00000150: 13b5 93bc db7d e63c baff 959a 9c4a a13d
00000160: 2acc 813d c2e8 a4bc a961 563e 67cf d6b7
00000170: 9b22 caa8 0da2 65bc 11d2 0d3d 7734 5e3c
00000180: 0f01 7cb4 df59 a523 3535 753d af07 bd3d
00000190: da9c 623e 2f85 01ba 4a71 80b2 4544 603c
000001a0: 1d24 df3d e62e e5ac ff8f 8fb6 fa85 6aa3
000001b0: 22ad 08b6 784c a9b9 c84e 82b2 ce00 ca3d
000001c0: 97f1 92bd 4e3e 2a3c 6d00 babb fffd 28ba
000001d0: e3e2 8c3d 9641 ddab fb14 5e3d 493a e33c
