pth/model.pth (torch, 502673 bytes, 16 tensors)

conv1.0.weight f4 [6, 3, 3, 3]
-0.035844598 -0.09276931 -0.19670504 0.14036097 -0.008245662 -0.10151129 -0.0032160615 -0.024753705
0.16766565 -0.14090548 -0.060545363 -0.20600142 0.06503517 -0.12465788 0.2003567 -0.025959684
0.124120444 0.022217974 -0.10577678 -0.011352601 -0.03249127 0.16858357 -0.04887966 0.15099671
0.13919087 0.123591155 0.12198044 0.16802785 0.069227554 0.12533446 0.10284963 0.124618195
-0.061407965 -0.06672124 0.12735341 0.20197041 -0.080113746 -0.07755491 0.10117133 -0.019986007
0.061056443 0.16758975 0.054724533 0.052295774 -0.13566726 0.057327766 -0.027695838 -0.06822872
-0.06920479 0.050866332 0.034628365 0.06224764 0.04566331 0.025378315 0.18576089 0.04202509
-0.11780929 0.14293645 -0.01933343 -0.11185671 0.13739432 0.09040457 -0.099993736 0.06952509
0.0961299 -0.24127796 0.018084206 -0.12425115 0.025362048 -0.05861917 0.12382378 -0.24877042
0.062338527 0.09196404 -0.25327992 0.13980556 0.16426674 -0.16824567 0.12777115 -0.11595398
0.034947213 -0.06878321 0.0064778286 -0.18897258 0.16157338 0.0062468206 -0.022789204 -0.10535362
0.052838888 0.03989336 0.16458511 -0.0911767 0.097547255 0.07398995 0.26699784 0.06756403
0.2871245 0.22748323 0.03432917 -0.07653106 -0.10651173 -0.149153 0.042447038 0.1914861
-0.21577168 0.24457847 0.117075436 -0.066843644 -0.1774787 0.054284107 0.04448286 -0.17651042
-0.021983981 0.14581592 0.24494796 -0.066146344 0.09565538 0.025607932 -0.0723843 -0.05442925
-0.038603697 0.16528685 0.035155904 0.16112287 0.09553511 0.07186963 -0.13041097 -0.04548602
0.18411186 0.09821343 -0.23387183 -0.17249317 -0.17043781 0.048705425 -0.074843526 0.1293276
-0.2058815 -0.04952697 -0.26964042 -0.08740973 0.103226855 -0.20447813 -0.09078162 0.1280851
-0.04761116 -0.054960698 0.06678168 -0.15306759 0.13854614 0.13837889 0.12745753 0.07071574
0.03456736 0.17172721 0.118779086 0.09299733 -0.07019732 -0.1548588 -0.02962152 -0.077121444
0.011688812 0.24517265
00000000: c9d1 12bd d6fd bdbd 0c6d 49be c9ba 0f3e
00000010: d018 07bc 27e5 cfbd 8fc4 52bb 48c8 cabc
00000020: 8bb0 2b3e 8749 10be 6afe 77bd 09f2 52be
00000030: 2931 853d a14c ffbd 4f2a 4d3e 67a9 d4bc
00000040: dc32 fe3d 7802 b63c 7fa1 d8bd 4300 3abc
00000050: 9115 05bd 2ca1 2c3e 0a36 48bd e29e 1a3e
00000060: 0d88 0e3e 5c1d fd3d e2d0 f93d 7e0f 2c3e
00000070: 2dc7 8d3d ad57 003e d4a2 d23d d337 ff3d
00000080: eb86 7bbd 25a5 88bd ef68 023e 55d1 4e3e
00000090: ad12 a4bd 1cd5 9ebd ea32 cf3d b2b9 a3bc
000000a0: 5216 7a3d a69c 2b3e d526 603d 1834 563d
000000b0: 5cec 0abe 85d0 6a3d 62e2 e2bc 80bb 8bbd
000000c0: 3ebb 8dbd 3759 503d 79d6 0d3d 62f7 7e3d
000000d0: 7309 3b3d 2fe6 cf3c 1a38 3e3e 8022 2c3d
000000e0: ff45 f1bd ef5d 123e 2461 9ebc 2115 e5bd
000000f0: 19b1 0c3e 0826 b93d 84c9 ccbd 2c63 8e3d
00000100: c1df c43d 9211 77be 5425 943c 6377 febd
00000110: 12c4 cf3c a81a 70bd 5297 fd3d acbd 7ebe
00000120: af56 7f3d a557 bc3d e8ad 81be 3029 0f3e
00000130: 8a35 283e 9848 2cbe 71d6 023e 4879 edbd
00000140: cf24 0f3d 36de 8cbd f743 d43b 0782 41be
00000150: 7e73 253e 21b2 cc3b 6db0 babc a4c3 d7bd
00000160: 976d 583d 3867 233d 0089 283e daba babd
00000170: dbc6 c73d 0b88 973d f1b3 883e 035f 8a3d
00000180: fc01 933e 5df1 683e be9c 0c3d 51bc 9cbd
00000190: d222 dabd 90bb 18be f2dc 2d3d ef14 443e
000001a0: 40f3 5cbe c772 7a3e 3fc5 ef3d 52e5 88bd
000001b0: fabc 35be 0359 5e3d a933 363d 26bf 34be
000001c0: c017 b4bc c550 153e a3d3 7a3e bc77 87bd
000001d0: f8e6 c33d bac7 d13c 383e 94bd 35f1 5ebd
000001e0: e91e 1ebd f540 293e a3ff 0f3d 65fd 243e
000001f0: e9a7 c33d 6230 933d 748a 05be 8d4f 3abd
00000200: d287 3c3e 1f24 c93d 197c 6fbe 0da2 30be
00000210: 4087 2ebe 577f 473d 9047 99bd 746e 043e
00000220: 9ad2 52be cbdc 4abd 4f0e 8abe df03 b3bd
00000230: 9a68 d33d b762 51be b7eb b9bd be28 033e
00000240: eb03 43bd 781e 61bd d5c4 883d c0bd 1cbe
00000250: 0adf 0d3e 32b3 0d3e 3a84 023e 6ad3 903d
00000260: 8196 0d3d 42d9 2f3e 7342 f33d 6275 be3d
00000270: 9dc3 8fbd 4e93 1ebe d4a8 f2bc d9f1 9dbd
00000280: 6e82 3f3c 8a0e 7b3e

conv1.0.bias f4 [6]
0.0020144174 0.07847364 0.03823017 -0.07906473 0.03807434 0.10678552
00000000: 5104 043b cab6 a03d 3d97 1c3d b0ec a1bd
00000010: d7f3 1b3d 5eb2 da3d

conv2.0.weight f4 [16, 6, 3, 3]
-0.061429676 -0.0036113835 -0.06987687 0.14960626 -0.031332374 -0.12967299 0.24281454 0.21284276
0.15676779 0.18746504 -0.067130774 -0.032468542 -0.03833765 -0.0668732 -0.086904846 0.084479235
0.052357543 -0.01403515 0.043345828 -0.04715658 0.12062864 -0.07076169 -0.10836918 0.11229778
-0.08922843 0.016860858 -0.08735244 0.03931278 -0.03914629 -0.07412715 -0.02684213 -0.092999555
-0.17654376 0.18088984 0.06335685 0.12641643 -0.07257789 -0.10280831 -0.038258217 0.09324901
0.19501059 -0.07863361 -0.013284843 0.13283087 0.16564848 -0.0013582788 0.15568516 -0.027633373
0.062568374 0.10640536 0.028955176 0.019764308 0.040134694 0.015988762 0.08422907 0.121850155
-0.028142879 0.0520078 0.15752448 -0.021928066 0.1904466 0.09443577 -0.17084962 -0.029029353
0.07647228 0.0875877 0.019458516 -0.05022601 0.054957073 0.047739387 0.034246624 -0.03165474
-0.049379956 -0.030933281 -0.009791642 -0.12860309 -0.10979433 0.11714133 -0.039027963 0.16406092
0.0740455 0.008052931 -0.09329018 0.056780186 -0.121850446 -0.09760126 0.06128835 0.05896429
-0.10751676 -0.06345167 -0.037752792 -0.17692898 -0.09878397 -0.067776635 0.00993523 -0.11719491
-0.23082696 -0.07111148 -0.11422997 0.21748577 0.2103897 0.22429645 0.16194461 0.050416123
-0.051032968 0.030363755 0.024498433 0.0920087 0.13658069 0.14734332 -0.021837 -0.06329138
0.13482119 0.060483534 -0.1218403 -0.0061058747 -0.09251208 0.13363327 0.020790562 0.06873938
-0.09569327 0.08172583 -0.057715166 -0.060582478 -0.03927023 0.026014771 -0.08995521 0.15058418
0.05104392 0.002966275 -0.045802154 -0.006609629 -0.17763615 -0.10313842 -0.22052714 0.12838043
0.14546709 0.06193466 0.08584825 0.03753041 0.05430584 -0.051996104 -0.1605438 -0.045467738
-0.13274167 -0.081832714 -0.09449423 -0.17602573 0.03514611 -0.1020095 -0.05484143 -0.036620274
-0.062394354 0.019952593 0.015748179 -0.11137795 0.06805984 0.05849321 -0.00018937726 0.019369198
0.03582625 -0.072845586 -0.06581241 -0.0793158 0.009328838 -0.1310615 0.031194601 0.08328386
0.007414462 -0.0017920573 0.07219519 -0.015988713 -0.036918577 -0.010984616 0.011573045 -0.012367483
-0.028612195 -0.08257577 -0.08809563 -0.085616335 -0.08983614 0.041144248 -0.06212049 0.023788253
0.055854786 -0.012257816 0.006539758 -0.0175496 -0.040917188 0.037754625 -0.072701424 -0.04475531
-0.14769733 -0.026515821 -0.025648082 -0.07638998 0.11477344 -0.028418716 -0.058629237 0.02915312
-0.13792598 0.109535344 0.05995704 -0.0627034 -0.11382467 0.019708343 0.018630672 -0.11725523
-0.050703324 -0.032038577 0.09096733 0.010632073 -0.05655286 0.04267433 0.005002366 -0.053447127
0.0064863414 0.077004455 0.034610577 -0.022042355 -0.0049195895 -0.052078158 -0.0089719705 -0.10129355
-0.11458004 -0.09997628 0.079092346 0.029455556 -0.06652765 -0.14887604 0.022505699 0.10388831
-0.0023853644 -0.12539555 0.03411463 0.032530766 -0.1348582 -0.04183927 -0.056636013 0.032438595
0.05043544 0.022943439 -0.10497737 -0.1132532 -0.019366443 -0.1564799 -0.013612058 0.041572
-0.024940616 -0.12267427 0.08342213 -0.109922364 0.09250407 -0.07139776 -0.006697259 -0.078253046
00000000: af9d 7bbd f6ac 6cbb 9b1b 8fbd 6232 193e
00000010: 6056 00bd ffc8 04be 60a4 783e 74f3 593e
00000020: bc87 203e d6f6 3f3e dc7b 89bd bcfd 04bd
00000030: f107 1dbd d1f4 88bd 2bfb b1bd 7303 ad3d
00000040: dd74 563d b0f3 65bc 658b 313d 4227 41bd
00000050: 260c f73d 81eb 90bd a9f0 ddbd 61fc e53d
00000060: 65bd b6bd c81f 8a3c d6e5 b2bd 7006 213d
00000070: dc57 20bd facf 97bd 07e4 dbbc 8d76 bebd
00000080: e3c7 34be 303b 393e 3cc1 813d 4f73 013e
00000090: b7a3 94bd 2a8d d2bd a6b4 1cbd 56f9 be3d
000000a0: dbb0 473e a80a a1bd aca8 59bc d104 083e
000000b0: c19f 293e 4608 b2ba ee6b 1f3e 625f e2bc
000000c0: d923 803d 0eeb d93d 6833 ed3c c2e8 a13c
000000d0: 4764 243d ddfa 823c 4a80 ac3d 938c f93d
000000e0: e58b e6bc 2206 553d 194e 213e 7da2 b3bc
000000f0: 6f04 433e 8a67 c13d 34f3 2ebe f7ce edbc
00000100: 809d 9c3d 2e61 b33d 7767 9f3c cab9 4dbd
00000110: ab1a 613d 608a 433d 3046 0c3d 67a8 01bd
00000120: a342 4abd cb67 fdbc 206d 20bc 87b0 03be
00000130: dadb e0bd cbe7 ef3d c9db 1fbd 96ff 273e
00000140: 2ba5 973d 71f0 033c ec0e bfbd 5792 683d
00000150: ba8c f9bd 2be3 c7bd 7e09 7b3d 8a84 713d
00000160: bf31 dcbd f3f2 81bd aca2 1abd df2c 35be
00000170: 404f cabd 7ace 8abd 60c7 223c e303 f0bd
00000180: e75d 6cbe e5a2 91bd 67f1 e9bd 97b4 5e3e
00000190: 6670 573e f8ad 653e cfd4 253e 2381 4e3d
000001a0: f207 51bd 69bd f83c f0b0 c83c 0f6f bc3d
000001b0: cfdb 0b3e 2be1 163e 82e3 b2bc e99e 81bd
000001c0: 910e 0a3e 95bd 773d 6887 f9bd ca13 c8bb
000001d0: f976 bdbd 29d7 083e f850 aa3c 3bc7 8c3d
000001e0: d5fa c3bd df5f a73d bd66 6cbd 5525 78bd
000001f0: d2d9 20bd ee1c d53c 703a b8bd bd32 1a3e
00000200: 6e13 513d d665 423b 0a9b 3bbd 9695 d8bb
00000210: 40e6 35be 3c3a d3bd ded1 61be 2976 033e
00000220: 53f5 143e 33af 7d3d 35d1 af3d 7db9 193d
00000230: cd6f 5e3d def9 54bd 9865 24be 613c 3abd
00000240: 6fed 07be e997 a7bd 3186 c1bd 1740 34be
00000250: 5ef5 0f3d 5bea d0bd 68a1 60bd 24ff 15bd
00000260: 3991 7fbd 9f73 a33c 5302 813c 1f1a e4bd
00000270: f562 8b3d 9396 6f3d 9293 46b9 27ac 9e3c
00000280: 8cbe 123d 1130 95bd a8c8 86bd 5270 a2bd
00000290: fcd7 183c fc34 06be d28b ff3c ba90 aa3d
000002a0: 04f5 f23b 77e3 eaba 12db 933d c3fa 82bc
000002b0: ef37 17bd d2f8 33bc de9c 3d3c fca0 4abc
000002c0: 1f64 eabc 7c1d a9bd 7b6b b4bd 9e57 afbd
000002d0: 03fc b7bd df86 283d 0e72 7ebd 95df c23c
000002e0: fdc7 643d 02d5 48bc 774b d63b 2ec4 8fbc
000002f0: c898 27bd 98a4 1a3d 7ce4 94bd 5851 37bd
00000300: f83d 17be b537 d9bc ed1b d2bc 5a72 9cbd
00000310: 560e eb3d 5ece e8bc 3625 70bd 86d2 ee3c
00000320: 783c 0dbe 1154 e03d 8395 753d a46a 80bd
00000330: e91c e9bd 6473 a13c 5a9f 983c 8323 f0bd
00000340: 4aae 4fbd e23a 03bd 144d ba3d 2532 2e3c
00000350: f9a3 67bd 47cb 2e3d e3ea a33b 60eb 5abd
00000360: 608b d43b 83b4 9d3d d2c3 0d3d 2b92 b4bc
00000370: 8234 a1bb e84f 55bd 2cff 12bc fe72 cfbd
00000380: f1a8 eabd 5dc0 ccbd 2bfb a13d c74c f13c
00000390: a63f 88bd f672 18be df5d b83c 65c3 d43d
000003a0: c653 1cbb b167 00be c8bb 0b3d fb3e 053d
000003b0: 4518 0abe a85f 2bbd 2afb 67bd 55de 043d
000003c0: 6495 4e3d e1f3 bb3c 60fe d6bd 4bf1 e7bd
000003d0: 60a6 9ebc 443c 20be 1c05 5fbc 6747 2a3d
000003e0: 4350 ccbc a63c fbbd 39d9 aa3d fa1e e1bd
000003f0: c672 bd3d fd38 92bd ae74 dbbb 2243 a0bd

conv2.0.bias f4 [16]
-0.062035337 -0.03746654 -0.055327043 -0.10476249 -0.10831573 -0.1110286 -0.13479201 0.11334627
-0.11114577 0.026581809 -0.0485309 0.12176487 0.027457152 0.010056814 0.09568474 0.11370747
00000000: c418 7ebd 8476 19bd 9c9e 62bd b78d d6bd
00000010: a3d4 ddbd f662 e3bd eb06 0abe 1722 e83d
00000020: 65a0 e3bd 18c2 d93c 56c8 46bd dc5f f93d
00000030: d2ed e03c 56c5 243c 5cf6 c33d 76df e83d

conv3.0.weight f4 [32, 16, 3, 3]
0.056753784 -0.0095058 -0.053849526 0.18396483 0.14717238 0.08693411 0.024744919 0.13679628
0.13107386 -0.00081788906 0.060556978 0.01810433 -0.035268296 0.004438553 -0.017430138 0.07000931
-0.042243004 0.09877302 0.02134741 0.026035953 -0.039597478 -0.08073256 -0.10118028 -0.071936086
0.05312675 0.022420658 0.013019237 0.011613899 0.009669909 0.011740218 0.008411333 0.043329768
-0.082718395 -0.055408034 0.052875347 -0.034657296 0.011319237 -0.0643442 -0.048696164 0.04963327
-0.07470901 -0.034902405 0.09026279 -0.029572632 0.036775522 -0.09915981 -0.18451789 -0.0842041
-0.08002417 -0.0921244 0.02884644 -0.0296997 0.011851915 0.02091777 0.04140391 0.0022593874
-0.011525276 -0.060402688 -0.06624853 -0.07578566 0.17527907 0.13470706 0.15993193 -0.40369368
-0.2798752 -0.12503457 -0.26181644 -0.24613978 -0.15590778 -0.21216123 -0.24300243 -0.025374983
-0.11036132 -0.16841258 -0.1999512 -0.04973217 -0.09120247 -0.003056029 -0.008019974 0.047932908
-0.035831373 0.006378217 0.0075426763 0.09830006 -0.08268698 0.17184755 0.045797206 0.11593387
-0.105952255 -0.1352463 0.0098072 -0.06834011 -0.087176986 -0.3036487 -0.33204475 -0.29314852
-0.012441144 -0.017386993 0.095778674 0.07097691 0.017748918 0.070391 0.003290051 -0.11818698
-0.038538188 0.046598237 -0.00084124575 0.05050093 0.047958657 -0.027768012 -0.034421757 -0.002697366
-0.13720879 -0.07933036 -0.0026547932 0.017616082 0.04624321 -0.27194124 -0.25034663 -0.072105214
-0.21670665 -0.09580312 0.058302067 -0.070701234 -0.034099843 0.03242003 0.1004695 0.033597395
0.09226763 0.115015 0.046678767 0.11487769 0.10229689 0.02365972 0.07175612 0.06564234
0.068285614 0.015811991 -0.08225826 0.019280205 0.02189938 0.019095484 -0.07056839 -0.0054325457
-0.051256754 0.023904005 0.023069756 -0.07653403 -0.09915986 0.044488657 0.028896287 0.07670748
0.083317265 0.05265083 0.017657295 0.097950414 0.07806736 -0.054782275 -0.011528631 -0.0041632173
-0.048100926 -0.048499525 -0.020598367 -0.09021067 -0.023066577 0.0049447482 0.034200624 0.077263944
0.11354755 0.035233125 0.011531297 -0.015395732 0.07205319 0.052534733 -0.0519907 -0.04316514
-0.03682351 0.027785955 0.04387993 0.059767466 0.03875436 0.021108277 0.079417676 -0.0065671215
0.087098934 0.0036950614 -0.063830376 0.052150458 0.065971725 0.059796315 -0.005970307 -0.024277134
-0.0556004 -0.1299682 -0.098466836 0.07579516 0.054080535 0.15091157 -0.000104974344 -0.07027193
0.058742862 0.033015072 -0.006758087 0.047603805 -0.07393759 -0.076045446 -0.071192935 -0.15199035
-0.14779884 -0.025536897 -0.08639575 -0.089544296 0.030786395 0.091177866 -0.012716981 -0.024414321
0.011234681 -0.011606446 -0.057741042 -0.014662814 0.0005707682 -0.073033325 -0.18261053 -0.17210682
-0.07573307 0.2107323 0.14937061 0.130959 0.09637859 0.22277367 -0.022910776 -0.034543533
-0.20623334 -0.13050954 0.018772392 0.058279913 0.03397505 -0.00964413 0.069752604 -0.03221241
0.05874014 0.058022078 0.058321953 -0.006213527 0.021231906 -0.015168932 0.09058895 0.008712481
-0.13617949 0.09146943 0.12269247 0.12592643 0.048438594 0.027536068 -0.09581556 -0.093957834
00000000: a876 683d 37be 1bbc 5291 5cbd 4761 3c3e
00000010: 5bb4 163e 830a b23d dbb5 ca3c 5314 0c3e
00000020: 3a38 063e 9b67 56ba 980a 783d 884f 943c
00000030: 7d75 10bd 4871 913b a6c9 8ebc 0b61 8f3d
00000040: 0007 2dbd 8249 ca3d c3e0 ae3c 5a49 d53c
00000050: f730 22bd 1d57 a5bd 9b37 cfbd 3a53 93bd
00000060: 6f9b 593d 87ab b73c a34e 553c 3948 3e3c
00000070: 8a6e 1e3c 0b5a 403c b0cf 093c 8e7a 313d
00000080: 4368 a9bd 89f3 62bd d293 583d cff4 0dbd
00000090: 5274 393c e4c6 83bd a175 47bd 414c 4b3d
000000a0: 0a01 99bd d3f5 0ebd b3db b83d 4e42 f2bc
000000b0: eea1 163d 4c14 cbbd 42f2 3cbe 3373 acbd
000000c0: b6e3 a3bd b8ab bcbd 5f4f ec3c c94c f3bc
000000d0: 892e 423c be5b ab3c 2597 293d 3b12 143b
000000e0: 83d4 3cbc cf68 77bd 4fad 87bd 8335 9bbd
000000f0: 5b7c 333e a6f0 093e 32c5 233e f0b0 cebe
00000100: cd4b 8fbe 1009 00be ce0c 86be 110c 7cbe
00000110: 4aa6 1fbe cb40 59be a1d5 78be 32df cfbc
00000120: 1e05 e2bd 5974 2cbe 02c0 4cbe f6b3 4bbd
00000130: 5cc8 babd a947 48bb 3666 03bc 4c55 443d
00000140: ebc3 12bd 5d00 d13b 8e28 f73b 8b51 c93d
00000150: cb57 a9bd cef8 2f3e da95 3b3d bd6e ed3d
00000160: 7ffd d8bd 027e 0abe 61ae 203c e6f5 8bbd
00000170: d989 b2bd d877 9bbe c501 aabe 9017 96be
00000180: f1d5 4bbc 2b6f 8ebc 9c27 c43d 585c 913d
00000190: 2e66 913c 2829 903d e59d 573b 040c f2bd
000001a0: 38da 1dbd cbdd 3e3d 0c87 5cba 10da 4e3d
000001b0: 4c70 443d be79 e3bc d4fd 0cbd 4bc6 30bb
000001c0: 7680 0cbe f577 a2bd 0afc 2dbb 9a4f 903c
000001d0: 8569 3d3d e23b 8bbe 6f2d 80be e6ab 93bd
000001e0: 59e8 5dbe 6d34 c4bd 26ce 6e3d cfcb 90bd
000001f0: 47ac 0bbd deca 043d f4c2 cd3d 6c9d 093d
00000200: d0f6 bc3d fc8c eb3d 3c32 3f3d ff44 eb3d
00000210: 0881 d13d 07d2 c13c dff4 923d 7e6f 863d
00000220: 54d9 8b3d 2688 813c 0577 a8bd 85f1 9d3c
00000230: 5466 b33c 226e 9c3c 2986 90bd 7f03 b2bb
00000240: 9af2 51bd 55d2 c33c c9fc bc3c e0bd 9cbd
00000250: 5314 cbbd bd39 363d e8b7 ec3c d018 9d3d
00000260: 3ea2 aa3d 66a8 573d 08a6 903c 3a9a c83d
00000270: c8e1 9f3d 6163 60bd 95e2 3cbc 996b 88bb
00000280: 7a05 45bd 70a7 46bd e8bd a8bc 5fc0 b8bd
00000290: 1ef6 bcbc 8e07 a23b f415 0c3d 8f3c 9e3d
000002a0: 9e8b e83d 9c50 103d c4ed 3c3c 613e 7cbc
000002b0: 9f90 933d a92e 573d 33f4 54bd eecd 30bd
000002c0: 40d4 16bd 5f9f e33c 71bb 333d bbce 743d
000002d0: e4bc 1e3d 44eb ac3c bca5 a23d 0231 d7bb
000002e0: ed60 b23d d828 723b 80b9 82bd b89b 553d
000002f0: 2f1c 873d fbec 743d 91a2 c3bb d7e0 c6bc
00000300: 3fbd 63bd 6216 05be fba8 c9bd 7e3a 9b3d
00000310: 8d83 5d3d 9088 1a3e ac25 dcb8 bbea 8fbd
00000320: 5b9c 703d d03a 073d f172 ddbb 35fc 423d
00000330: 976c 97bd b7bd 9bbd 9acd 91bd 5ca3 1bbe
00000340: 9458 17be c132 d1bc 41f0 b0bd 0063 b7bd
00000350: c033 fc3c 76bb ba3d e25a 50bc 8b00 c8bc
00000360: ab11 383c f628 3ebc df81 6cbd 4d3c 70bc
00000370: 9b9f 153a 7f92 95bd 41fe 3abe c53c 30be
00000380: f119 9bbd 35ca 573e 9cf4 183e 1e1a 063e
00000390: 2362 c53d c81e 643e 61af bbbc 857d 0dbd
000003a0: d52e 53be 4ba4 05be 8fc8 993c ebb6 6e3d
000003b0: 6c29 0b3d 6a02 1ebc 74da 8e3d 29f1 03bd
000003c0: 8099 703d 8fa8 6d3d 00e3 6e3d d89a cbbb
000003d0: 89ee ad3c 1d87 78bc b386 b93d cbbe 0e3c
000003e0: a372 0bbe 5354 bb3d 3146 fb3d dcf2 003e
000003f0: 8c67 463d 5293 e13c f33a c4bd f76c c0bd

conv3.0.bias f4 [32]
0.06722635 0.047126763 0.072715625 -0.005357056 -0.09986556 0.094713315 0.012736154 -0.0059199305
0.030862056 -0.094246976 0.015576712 0.06759367 0.043859772 -0.011137452 -0.004707515 -0.07926648
-0.00605897 -0.01049188 0.033220924 0.11159108 -0.006691027 0.044538394 0.07917846 -0.047225095
-0.13098277 0.054392166 -0.0012543037 0.02035976 -0.032058977 -0.002144221 -0.00887206 0.08502611
00000000: f8ad 893d fe07 413d eeeb 943d 3e8a afbb
00000010: 5186 ccbd 0ef9 c13d 4dab 503c fafb c1bb
00000020: 6cd2 fc3c 8f04 c1bd 7735 7f3c 8d6e 8a3d
00000030: 4ea6 333d dc79 36bc 7f41 9abb 7756 a2bd
00000040: 538a c6bb 22e6 2bbc aa12 083d dd89 e43d
00000050: 6740 dbbb e46d 363d 5128 a23d 1a6f 41bd
00000060: 5920 06be 52ca 5e3d 7367 a4ba 83c9 a63c
00000070: 4650 03bd 0f86 0cbb 1e5c 11bc 2b22 ae3d

conv4.0.weight f4 [64, 32, 3, 3]
0.029606048 0.040074736 0.0017409091 -0.061553046 0.07658216 -0.15810189 -0.11469485 0.16489762
0.22553779 0.069631845 0.055413708 0.04611936 -0.09193379 0.04241959 0.03760316 -0.19969627
0.09070443 0.08974427 0.10372395 0.009458525 -0.024807911 -0.04746991 0.15806359 0.023633167
-0.25702706 0.10212907 0.073428705 -0.03624999 -0.04007095 0.00505688 -0.18174407 -0.072160035
-0.06880734 0.16072387 -0.015940642 -0.08563686 -0.13622682 0.10722397 -0.02833927 -0.048304096
0.05255226 -0.013354148 -0.050130975 0.063000284 -0.018413626 0.011925307 -0.14658242 -0.18059966
-0.030280715 0.11822861 0.029942604 -0.43347692 0.10289781 -0.07902546 -0.004536662 0.05632832
-0.036460977 -0.02807263 0.09182827 0.045148604 -0.21795057 0.09115525 0.1571391 -0.11033604
0.0060939686 -0.07732741 0.043448236 0.0071851006 -0.04651273 -0.076054566 0.0056238426 0.023079759
-0.15091042 -0.116343014 0.09821935 -0.006032423 -0.08167016 -0.121024445 -0.171783 -0.066738844
0.14865066 0.0038247146 0.030648481 -0.012277067 -0.012700758 0.028943622 -0.04921798 -0.04617922
0.04302476 -0.04726863 0.09266871 0.010521619 0.16282988 -0.002027221 -0.048366178 -0.0907923
-0.15309341 -0.0232298 -0.031296417 -0.0064228997 0.043094266 -0.15957057 0.009143129 -0.027040143
-0.064063154 -0.15943803 0.021798594 0.027503679 -0.036667954 0.0072587286 -0.107406504 -0.19574955
0.010633954 -0.032657113 0.010742958 -0.0052940343 -0.11549825 -0.10618861 0.14570926 -0.09107617
-0.21886103 0.021357516 0.0029681257 -0.23590878 0.013133937 0.11704336 -0.06071472 0.06418434
-0.05816485 0.07295751 0.060792547 0.020686092 -0.23455857 -0.055562764 0.17043619 -0.14949067
-0.07949559 -0.09066782 0.015608412 0.07442191 -0.12128036 0.17564286 0.049785532 -0.06945799
-0.030407557 0.055513356 -0.08281114 -0.042631116 0.02670004 -0.0472882 0.09104127 0.05499331
0.03936839 -0.17825608 -0.087677315 -0.1346878 -0.045675643 0.075012416 -0.18303758 0.23006207
-0.077489376 0.020559339 -0.11285978 0.016665448 -0.020901332 0.019408278 0.0034827217 0.009922967
-0.20999178 0.032286387 0.09954821 0.10064301 -0.028824804 -0.03365504 -0.09221299 0.032307718
-0.035422612 -0.10296197 0.115711994 -0.033893164 0.06948263 -0.1379779 -0.1635863 -0.07302173
-0.02917958 -0.026399763 -0.17408216 0.048347678 0.11016371 -0.26879013 -0.061325848 -0.18853468
0.040960427 0.21458201 -0.06464494 -0.23752336 0.11822664 0.06988195 0.051604692 -0.09699877
-0.06298428 0.035363168 -0.08323359 -0.02288994 0.20443633 -0.12038047 -0.14449926 0.22045918
0.005353316 -0.15312296 0.022748921 0.11755369 0.10705535 -0.1425004 0.06207915 0.0023425552
-0.20279849 -0.022464098 -0.16035031 0.11224795 0.12066404 0.028033512 0.09302408 0.07324492
0.10837531 0.001173995 0.015394782 -0.13849518 -0.059253283 0.0051097055 0.011401149 -0.018887373
-0.020299738 -0.015334727 0.002421972 0.046538018 -0.08091601 -0.00065340596 0.04178696 0.10374793
-0.248375 -0.030530646 0.056419387 -0.13714813 0.062233027 0.007434285 0.04320082 0.07852219
-0.060423777 0.034170117 -0.063692324 -0.09438131 -0.07181542 -0.026240915 0.07761437 0.024432303
00000000: 6288 f23c 6825 243d 372f e43a 0c1f 7cbd
00000010: 1cd7 9c3d 76e5 21be 22e5 eabd ecda 283e
00000020: 61f3 663e 249b 8e3d 7cf9 623d a7e7 3c3d
00000030: c847 bcbd 2ac0 2d3d c505 1a3d 2e7d 4cbe
00000040: 3fc3 b93d d8cb b73d 396d d43d eef7 1a3c
00000050: f639 cbbc cf6f 42bd 6cdb 213e 589a c13c
00000060: 0d99 83be 0c29 d13d ca61 963d df7a 14bd
00000070: 7021 24bd 2fb4 a53b 1e1b 3abe a4c8 93bd
00000080: ddea 8cbd cc94 243e f395 82bc 6162 afbd
00000090: 0b7f 0bbe 3e98 db3d c227 e8bc 84da 45bd
000000a0: 0a41 573d 5bcb 5abc 2356 4dbd 4b06 813d
000000b0: 2cd8 96bc 5d62 433c b419 16be 1eef 38be
000000c0: 430f f8bc d721 f23d 314a f53c b0f0 ddbe
000000d0: 16bc d23d 1ad8 a1bd 47a8 94bb 86b8 663d
000000e0: 1b58 15bd 92f8 e5bc 7610 bc3d beed 383d
000000f0: 6f2e 5fbe 9baf ba3d 12e9 203e ddf7 e1bd
00000100: eaaf c73b d55d 9ebd c7f6 313d fe70 eb3b
00000110: 2284 3ebd 7fc2 9bbd 3648 b83b c311 bd3c
00000120: 4388 1abe 3f45 eebd 3a27 c93d a2ab c5bb
00000130: af42 a7bd aadb f7bd e2e7 2fbe 60ae 88bd
00000140: e137 183e 10a8 7a3b 8612 fb3c c025 49bc
00000150: d716 50bc 2d1b ed3c cb98 49bd 6c26 3dbd
00000160: bb3a 303d c09c 41bd 18c9 bd3d de62 2c3c
00000170: e0bc 263e 20db 04bb 9d1b 46bd 50f1 b9bd
00000180: 85c4 1cbe 6c4c bebc ac30 00bd 3077 d2bb
00000190: 9d83 303d 7866 23be 10cd 153c 4a83 ddbc
000001a0: 8b33 83bd b943 23be f792 b23c 654f e13c
000001b0: 2331 16bd a1da ed3b f1f7 dbbd 9272 48be
000001c0: 093a 2e3c 77c3 05bd 3b03 303c 9479 adbb
000001d0: 598a ecbd 6a79 d9bd cf34 153e 2586 babd
000001e0: 1b1d 60be f5f5 ae3c e384 423b 1292 71be
000001f0: b92f 573c 6eb4 ef3d 00b0 78bd 1473 833d
00000200: 443e 6ebd bf6a 953d 9b01 793d e175 a93c
00000210: 1f30 70be c895 63bd d386 2e3e 1514 19be
00000220: 95ce a2bd 0db0 b9bd 6dba 7f3c 846a 983d
00000230: d661 f8bd b9db 333e eaeb 4b3d fe3f 8ebd
00000240: 4519 f9bc f961 633d e398 a9bd f79d 2ebd
00000250: 0bba da3c 46b1 41bd d873 ba3d aa40 613d
00000260: c040 213d c388 36be 2a90 b3bd 99eb 09be
00000270: 6216 3bbd 1ca0 993d 346e 3bbe 6495 6b3e
00000280: c0b2 9ebd 0f6c a83c 0723 e7bd fa85 883c
00000290: 4539 abbc 1cfe 9e3c 603e 643b f193 223c
000002a0: 1608 57be bb3e 043d efdf cb3d ec1d ce3d
000002b0: ff21 ecbc ded9 09bd 2ada bcbd 1955 043d
000002c0: 4d17 11bd badd d2bd 69fa ec3d 8fd3 0abd
000002d0: e94c 8e3d 144a 0dbe 2b83 27be 6b8c 95bd
000002e0: 040a efbc 5144 d8bc 9842 32be 3708 463d
000002f0: 839d e13d dc9e 89be d030 7bbd 3c0f 41be
00000300: 1fc6 273d 63bb 5b3e 9164 84bd 5339 73be
00000310: cf20 f23d 451e 8f3d 715f 533d 4ba7 c6bd
00000320: e7fd 80bd f8d8 103d 5f76 aabd af83 bbbc
00000330: c257 513e 098a f6bd 9df7 13be 0dc0 613e
00000340: df6a af3b 44cc 1cbe f25b ba3c fdbf f03d
00000350: d63f db3d a0eb 11be b546 7e3d 8e85 193b
00000360: 68aa 4fbe a106 b8bc df32 24be 41e2 e53d
00000370: b51e f73d 89a6 e53c 6983 be3d 6f01 963d
00000380: e0f3 dd3d bce0 993a 653a 7c3c aed1 0dbe
00000390: 92b3 72bd 516f a73b e3cb 3a3c b1b9 9abc
000003a0: a34b a6bc 823e 7bbc f3b9 1e3b a69e 3e3d
000003b0: 4bb7 a5bd 5549 2bba ce28 2b3d cb79 d43d
000003c0: 0456 7ebe 681b fabc 0418 673d 8f70 0cbe
000003d0: 0fe8 7e3d 4d9b f33b 58f3 303d 3ed0 a03d
000003e0: ec7e 77bd f7f5 0b3d 1f71 82bd fd4a c1bd
000003f0: f713 93bd 30f7 d6bc 48f4 9e3d 4126 c83c

conv4.0.bias f4 [64]
0.12395483 -0.10680535 0.006745789 -0.02818149 -0.05149331 -0.060173657 0.039910648 -0.055350058
0.08318282 -0.024242265 -0.07383611 -0.014766999 -0.10913111 -0.033240583 0.05215454 0.030214
-0.01716842 0.044344313 -0.029817093 -0.055841636 -0.070975825 0.024775717 0.09998891 -0.027695876
0.06915787 -0.05186861 0.0006832353 -0.12713683 -0.0020328925 -0.102633655 -0.023947189 0.024944855
-0.11348401 -0.044221494 0.028840823 -0.04401993 -0.07053173 -0.04870873 -0.06664492 -0.003678494
-0.06471444 -0.004458521 -0.021505076 -0.09521507 -0.048113797 0.03866545 0.113865264 0.12597334
0.026997834 0.026604164 -0.07478263 0.06471182 -0.10902949 0.09423455 0.06722114 -0.12828107
-0.10136441 -0.028464666 -0.047858853 0.08935466 -0.0502803 -0.047894623 -0.066167414 -0.013747778
00000000: 08dc fd3d c3bc dabd c80b dd3b dedc e6bc
00000010: a6ea 52bd a778 76bd 5979 233d beb6 62bd
00000020: c15b aa3d b797 c6bc 6337 97bd 48f1 71bc
00000030: 2280 dfbd 4727 08bd 00a0 553d 5a83 f73c
00000040: c9a4 8cbc 62a2 353d fa42 f4bc 33ba 64bd
00000050: c65b 91bd 72f6 ca3c fcc6 cc3d 76e2 e2bc
00000060: a4a2 8d3d 2e74 54bd 251b 333a 2830 02be
00000070: 473a 05bb 9831 d2bd e52c c4bc 2759 cc3c
00000080: 4e6a e8bd 9921 35bd 9743 ec3c 3e4e 34bd
00000090: f172 90bd ce82 47bd 227d 88bd e312 71bb
000000a0: 0189 84bd c918 92bb 6a2b b0bc 1e00 c3bd
000000b0: f912 45bd aa5f 1e3d 3132 e93d 28ff 003e
000000c0: 902a dd3c faf0 d93c a327 99bd a187 843d
000000d0: da4a dfbd 0bfe c03d 3dab 893d 1d5c 03be
000000e0: 2598 cfbd bb2e e9bc a507 44bd 93ff b63d
000000f0: b7f2 4dbd 272d 44bd c882 87bd 5c3e 61bc

conv5.0.weight f4 [128, 64, 3, 3]
-0.00835161 -0.14310108 0.008755974 -0.10365868 0.038541432 0.021124767 0.13811168 0.09317607
0.100660995 0.054381665 -0.03602232 -0.07637806 -0.05719493 -0.046728753 -0.09987675 -0.044248585
0.07760172 0.058516335 -0.21845576 0.14495008 0.012697933 -0.08216012 0.054158155 0.10903303
0.07718517 -0.09122963 -0.045543946 -0.042882245 0.0771331 -0.0017662668 -0.04082202 0.01755117
0.059805423 -0.0061932146 0.06189842 0.028340021 -0.003458864 0.08474456 -0.19759598 -0.07960441
0.032342967 0.036410753 -0.055076 0.19502789 0.11053507 0.08376016 -0.10612126 0.02436088
-0.026580974 0.018277487 0.023879342 0.019866372 -0.038208865 0.019280914 0.15711364 -0.003523102
0.14038907 -0.027698414 0.038934525 0.20709732 0.0031092046 -0.12951453 -0.018756365 -0.00237284
0.023518909 0.0038369708 -0.009908605 -0.025442127 -0.016341418 -0.024212599 -1.7977502e-05 -0.04160749
-0.09350089 -0.029811988 0.043220513 -0.062878974 0.031845815 -0.008110935 0.0714808 -0.009639424
-0.030508215 -0.07510972 0.14781901 0.03948684 -0.119492866 -0.013603959 0.029009666 0.087050654
-0.18696554 -0.046805095 -0.019449687 -0.015849032 -0.0037982352 -0.002298683 -0.02863989 -0.008628527
-0.020525616 0.005812564 0.0099104475 -0.094594136 0.041740227 0.12117722 -0.088311836 -0.039998773
-0.034966912 0.00091594347 -0.029188922 0.07804358 -0.0992917 -0.062016297 0.0629314 0.021144219
0.03383059 -0.012155498 -0.025456525 -0.06334183 -0.036025673 -0.03915682 0.13645954 0.031265575
-0.0019334729 0.08818902 0.0026249602 0.026472807 -0.030493265 -0.06507615 0.089892216 -0.08348574
0.16890943 0.049106102 -0.15025726 0.03950544 0.031041004 0.08575231 -0.025475832 0.029865349
-0.16051207 0.03449112 -0.072560996 0.06371125 0.038725615 -0.10241201 0.06186805 0.03914146
0.032099877 -0.030787397 -0.0036764778 0.004425492 -0.037445854 0.036332127 0.02462167 0.013621194
-0.034769572 0.05190558 -0.030119522 -0.07313345 0.069876574 -0.019161075 0.05713988 0.031190928
-0.021897843 0.023004007 0.07391032 -0.0029736126 -0.06884835 0.027394498 -0.03712961 0.0035280795
0.03817127 -6.215982e-05 0.07186356 -0.15673754 -0.0020294627 -0.064416915 -0.15188539 -0.04447543
-0.034223616 -0.0040057846 0.14264004 0.11121605 -0.005301263 -0.023718202 0.00067676976 -0.011147844
0.018629614 0.04257071 -0.03384435 -0.019355915 -0.04838043 0.095891476 0.063966125 -0.050857045
-0.068586186 0.040378008 0.058210574 -0.031756468 -0.12298265 0.011103711 0.034547437 0.15331717
0.040689435 -0.17020677 0.06363653 0.091245264 -0.0090720765 -0.06669693 -0.05301605 -0.05438604
0.047104113 0.16434604 -0.07882582 -0.0065407655 0.10381717 0.065557614 -0.11831431 -0.072112
0.00948241 0.12936811 0.075246386 -0.049548067 0.03696775 -0.033320423 0.04181984 -0.054431822
-0.04763494 0.05345717 -0.12361979 -0.070331685 -0.15818776 0.0038326927 -0.014902777 0.012073085
-0.10976748 -0.12532538 -0.0918843 0.054406386 -0.047891226 -0.0050268616 0.07335775 0.022128405
-0.02736118 -0.044749115 -0.025314152 0.06642142 0.05979892 -0.12055061 0.052066047 0.018409196
0.042163596 -0.02013144 -0.10566071 0.030032197 0.07550182 -0.018993715 0.009234425 -0.018739797
00000000: 31d5 08bc 1789 12be 3775 0f3c 014b d4bd
00000010: 9fdd 1d3d d90d ad3c 266d 0d3e 18d3 be3d
00000020: 5a27 ce3d 4fbf 5e3d 248c 13bd 1a6c 9cbd
00000030: 3b45 6abd a666 3fbd 2e8c ccbd 013e 35bd
00000040: a7ed 9e3d d3ae 6f3d deb2 5fbe cb6d 143e
00000050: fe0a 503c 9143 a8bd f1d4 5d3d b64c df3d
00000060: 4213 9e3d 9ad6 babd 4a8c 3abd 4ba5 2fbd
00000070: f5f7 9d3d 1482 e7ba fe34 27bd 79c7 8f3c
00000080: 88f6 743d 73f0 cabb 3389 7d3d 5529 e83c
00000090: 1cae 62bb 8e8e ad3d 9a56 4abe a307 a3bd
000000a0: 0f7a 043d 7123 153d 5f97 61bd 64b5 473e
000000b0: 3660 e23d 728a ab3d 1a56 d9bd 7890 c73c
000000c0: 58c0 d9bc abba 953c 9c9e c33c cdbe a23c
000000d0: e680 1cbd 02f3 9d3c 66e2 203e d8e3 66bb
000000e0: 27c2 0f3e c9e7 e2bc cf79 1f3d 5211 543e
000000f0: ccc3 4b3b 759f 04be f3a6 99bc a681 1bbb
00000100: baaa c03c b075 7b3b b457 22bc 026c d0bc
00000110: 70de 85bc 8059 c6bc 64ce 96b7 9e6c 2abd
00000120: 657d bfbd 4538 f4bc fe07 313d b1c6 80bd
00000130: c270 023d bae3 04bc 8764 923d adee 1dbc
00000140: 5dec f9bc 20d3 99bd de5d 173e f4bc 213d
00000150: adb8 f4bd 24e3 5ebc aea5 ed3c 9d47 b23d
00000160: e573 3fbe b3b6 3fbd f354 9fbc d4d5 81bc
00000170: d0eb 78bb 80a5 16bb 349e eabc aa5e 0dbc
00000180: 5625 a8bc 5277 be3b 6e5f 223c 92ba c1bd
00000190: cdf7 2a3d c32b f83d d6dc b4bd c1d5 23bd
000001a0: 7739 0fbd ed1b 703a 9b1d efbc 50d5 9f3d
000001b0: 7259 cbbd cd04 7ebd 2ee2 803d a436 ad3c
000001c0: f291 0a3d db27 47bc 348a d0bc 5db9 81bd
000001d0: a88f 13bd e762 20bd 0dbc 0b3e 5510 003d
000001e0: 966c fdba 729c b43d 8607 2c3b 80dd d83c
000001f0: 03cd f9bc a546 85bd 6919 b83d 92fa aabd
00000200: 98f6 2c3e 7b23 493d 0add 19be 75d0 213d
00000210: b449 fe3c e89e af3d b1b2 d0bc 2da8 f43c
00000220: 475d 24be 9046 0d3d dc9a 94bd 0b7b 823d
00000230: c09e 1e3d 63bd d1bd 5a69 7d3d cc52 203d
00000240: 297b 033d da35 fcbc 10f1 70bb b803 913b
00000250: d360 19bd ffd0 143d 62b3 c93c 6e2b 5f3c
00000260: 8a6a 0ebd f29a 543d 37bd f6bc fdc6 95bd
00000270: 731b 8f3d b0f7 9cbc 820b 6a3d 1e84 ff3c
00000280: 1b63 b3bc e672 bc3c 4b5e 973d f1e0 42bb
00000290: 5d00 8dbd 6d6a e03c 3815 18bd 5a37 673b
000002a0: 7a59 1c3d cd5b 82b8 342d 933d ce7f 20be
000002b0: bc00 05bb 04ed 83bd d887 1bbe de2b 36bd
000002c0: 102e 0cbd f542 83bb 3b10 123e 3ec5 e33d
000002d0: 38b6 adbb ad4c c2bc 4069 313a 72a5 36bc
000002e0: 229d 983c a05e 2e3d 60a0 0abd 4c90 9ebc
000002f0: 8f2a 46bd c062 c43d ac00 833d 7a4f 50bd
00000300: ea76 8cbd 6963 253d 366e 6e3d 1213 02bd
00000310: 54de fbbd 57ec 353c 9d81 0d3d 2dff 1c3e
00000320: f7a9 263d af4a 2ebe de53 823d ccde ba3d
00000330: 0ca3 14bc 6698 88bd 5c27 59bd e5c3 5ebd
00000340: 3ef0 403d 544a 283e 6e6f a1bd eb53 d6bb
00000350: 199e d43d 1243 863d c64e f2bd 75af 93bd
00000360: 1c5c 1b3c 1379 043e c71a 9a3d eaf2 4abd
00000370: 7f6b 173d ff7a 08bd 484b 2b3d e7f3 5ebd
00000380: db1c 43bd e8f5 5a3d 5f2c fdbd 0f0a 90bd
00000390: f9fb 21be ea2d 7b3b c72a 74bc 30ce 453c
000003a0: c6cd e0bd 4c55 00be d62d bcbd 3bd9 5e3d
000003b0: 9729 44bd 5fb8 a4bb 973c 963d a146 b53c
000003c0: 8e24 e0bc d94a 37bd a05f cfbc f407 883d
000003d0: b6ef 743d 3de3 f6bd 3543 553d e2ce 963c
000003e0: bcb3 2c3d b1ea a4bc a464 d8bd 1506 f63c
000003f0: b3a0 9a3d b598 9bbc fc4b 173c 3484 99bc

conv5.0.bias f4 [128]
-0.00039017614 0.069901004 0.003613716 0.04063722 -0.012346119 -0.045468487 0.040422734 -0.040599987
-0.0046696845 -0.08124816 -0.0112242345 -0.0100365 0.1767178 0.046654593 -0.056419373 0.08676118
-0.033881467 0.03406609 -0.034925256 0.068547316 0.0027650122 -0.011731428 -0.0057862364 0.053785283
-0.06085058 0.08091058 0.05209994 -0.014788163 -0.06611955 -0.029368643 -0.013707325 0.022594318
-0.06939463 0.06191022 0.040548548 -0.046419024 0.06891389 -0.02585311 -0.046900075 0.11782234
0.10798004 -0.00012827065 -0.04871114 -0.06415934 0.020557513 0.063113905 -0.04306943 -0.040552616
-0.03177917 -0.016909417 -0.041680366 -0.051253058 0.050156962 0.030351445 -0.0111583015 -0.025327798
0.03668996 0.08676184 -0.037156012 -0.0030715354 0.021265674 -0.050088964 -0.014519504 -0.045232445
0.0003680707 -0.052413322 -0.04715815 0.0053038616 -0.0009911011 0.036123488 0.009273946 -0.025233217
-0.045677274 0.032822397 -0.0533611 0.05903095 0.023115654 -0.0042910855 -0.057050116 0.026821177
-0.022961067 -0.058676284 -0.023891428 0.002707963 -0.022944726 0.06599719 -0.044069663 0.0897655
-0.034628365 0.054928143 0.04649252 -0.015089605 -0.057304904 -0.044866018 -0.03092427 0.032372538
-0.05201332 -0.037252467 0.063308775 -0.02459619 0.0027369563 -0.034157626 0.05509512 -0.030894216
-0.06769358 0.083086565 0.050164264 -0.034089353 -0.036424268 0.03045905 0.08680764 -0.0100312205
-0.04855132 -0.04358508 0.00636274 0.1477064 -0.0011371478 -0.06446917 -0.033261288 0.010231171
0.05480957 0.028861701 -0.048753243 -0.039288964 0.102104306 0.0156498 -0.0028457465 -0.051299185
00000000: 8e90 ccb9 4228 8f3d 18d4 6c3b 3773 263d
00000010: 6047 4abc 2a3d 3abd 4f92 253d 2c4c 26bd
00000020: 2704 99bb 6f65 a6bd dae5 37bc 2270 24bc
00000030: 83f5 343e e318 3f3d 0018 67bd d8af b13d
00000040: 4bc7 0abd e288 0b3d c90d 0fbd 8962 8c3d
00000050: 3535 353b 2d35 40bc 789a bdbb f54d 5c3d
00000060: 753e 79bd 72b4 a53d bf66 553d 0d4a 72bc
00000070: b069 87bd 8296 f0bc b094 60bc b817 b93c
00000080: c61e 8ebd 9295 7d3d 3c16 263d e021 3ebd
00000090: ba22 8d3d e7c9 d3bc 4b1a 40bd d74c f13d
000000a0: a424 dd3d 6480 06b9 5585 47bd f965 83bd
000000b0: 3b68 a83c dd41 813d 9269 30bd 801a 26bd
000000c0: e02a 02bd 9e85 8abc 08b9 2abd baee 51bd
000000d0: 6371 4d3d 98a3 f83c 4fd1 36bc 3e7c cfbc
000000e0: 3648 163d 31b0 b13d e730 18bd d04b 49bb
000000f0: 5a35 ae3c 162a 4dbd 37e3 6dbc a845 39bd
00000100: 9df9 c039 5aaf 56bd e728 41bd 04cc ad3b
00000110: d6e7 81ba 39f6 133d c0f1 173c e4b5 cebc
00000120: 1818 3bbd c770 063d 2b91 5abd 70ca 713d
00000130: 0a5d bd3c 3c9c 8cbb 62ad 69bd 16b8 db3c
00000140: d918 bcbc 8b56 70bd f5b7 c3bc 1578 313b
00000150: 94f6 bbbc 8929 873d 6482 34bd f9d6 b73d
00000160: 79d6 0dbd 55fc 603d f16e 3e3d 643a 77bc
00000170: 8cb8 6abd 6ec5 37bd e554 fdbc 1199 043d
00000180: eb0b 55bd 0b96 18bd 08a8 813d f37d c9bc
00000190: 825e 333b dee8 0bbd 6cab 613d de15 fdbc
000001a0: efa2 8abd 4a29 aa3d 0b79 4d3d 47a1 0bbd
000001b0: 9d31 15bd 4285 f93c 34c8 b13d fd59 24bc
000001c0: c0dd 46bd 4586 32bd 887e d03b 5940 173e
000001d0: 590c 95ba 6a08 84bd fd3c 08bd a4a0 273c
000001e0: 0080 603d 606f ec3c 7bb1 47bd 77ed 20bd
000001f0: 101c d13d 0234 803c b47f 3abb 181f 52bd

dense.0.weight f4 [120, 128]
-0.032854866 -0.06554491 -0.21456188 0.062705636 0.07065524 0.18910684 0.02395485 -0.10969498
-0.09402976 0.12538941 0.11357908 -0.008376076 -0.09481099 0.25483048 0.07107326 0.07189155
0.089681104 0.05892998 -0.0017171536 -0.14179787 0.01483591 0.021635573 0.016750263 -0.005123097
0.012121994 0.031589217 0.1437185 -0.059181493 -0.037373476 0.052473523 -0.114485055 0.14983268
-0.082092784 -0.010896916 0.079193726 -0.03127898 -0.062376514 0.13021393 0.19731042 -0.302993
0.08836077 0.14020188 0.05662591 0.064430654 0.029529447 0.02927982 0.05297366 0.09363564
-0.022305923 0.047457654 -0.0051619634 -0.07648422 -0.16175672 0.18661398 0.16862758 -0.012387786
0.16159709 -0.13516861 0.049091514 0.12934281 -0.18442117 -0.010646695 0.02869847 -0.06861678
-0.020618496 0.09559647 0.11447891 0.10878142 -0.035698984 -0.047769275 -0.1489509 -0.07740633
0.00043439114 0.036801383 0.15936315 0.14022882 0.023076808 0.045476716 0.010630309 -0.06548737
-0.12119331 0.041156564 0.056703694 -0.1338159 0.009829662 0.035182167 0.0022707507 0.024765022
-0.07058359 -0.13492551 0.039943043 0.094085224 0.0065651834 -0.030174118 -0.022126198 0.14806701
0.056639526 -0.054024283 0.17748193 0.022794435 0.023383394 -0.0013118233 0.19483244 -0.00040411254
-0.15387127 0.091172986 0.04900435 -0.04532345 -0.020644626 0.059972666 -0.3334481 -0.08302764
-0.0038411142 0.0061546643 -0.06353634 0.006930192 -0.02029214 0.07207502 0.002286486 0.19861725
0.09808033 0.052067537 0.026629945 0.18795998 0.1329992 -0.14381284 -0.039809067 0.023222318
0.0021531885 0.15073182 -0.089331545 0.09297433 -0.0004898397 -0.035636954 -0.12560046 0.031027855
0.030005835 -0.09114693 0.13442984 0.057498056 0.009623152 -0.10175173 -0.0353163 0.08490162
0.03486831 -0.24308847 -0.058123708 -0.0035328118 0.09523427 -0.06414275 -0.11423596 0.05243216
-0.09788529 0.16621569 -0.13953787 -0.08493647 0.19926012 0.10252478 0.07695228 0.042699724
-0.026117126 -0.00033476492 0.09691261 0.04799348 -0.011832656 0.111246474 -0.13184032 -0.050986227
0.12984648 0.024960607 0.11089128 0.009954235 0.08876026 -0.1104284 -0.11630077 0.042489193
0.0898918 0.041993104 -0.09176315 -0.061016817 0.096161015 0.033736665 0.22449975 -0.014379616
0.025126763 0.08466225 0.008360732 -0.055224836 0.026054556 -0.008412367 0.2106162 -0.030762542
-0.01770173 -0.08005719 0.09589362 -0.021824636 -0.10317963 0.21436426 -0.018027434 0.05755509
0.05244872 0.0884053 -0.14442869 0.08870429 0.009937234 -0.034614764 0.013099374 0.09451283
0.043902043 0.07173722 -0.08954451 0.008326613 0.0791234 0.01602305 -0.008443466 0.051346432
-0.035098013 0.2521662 0.038119595 0.13005202 0.0021157104 0.034101862 -0.07091932 0.09479535
-0.038550716 0.07905818 -0.12631837 0.19146313 0.15916725 0.032098364 -0.08164366 0.09199113
0.047089797 -0.12093838 -0.15874374 -0.069824636 0.01647 -0.09378911 0.16822323 0.022141702
0.07181999 0.0032562488 0.006913517 -0.0825883 -0.16377114 -0.042873055 -0.025221348 -0.03183145
-0.0723171 0.10311893 -0.047955815 0.096296966 -0.11570481 -0.025453791 0.1270831 -0.06826972
00000000: d392 06bd 693c 86bd 1cb6 5bbe d06b 803d
00000010: b2b3 903d 39a5 413e f63c c43c c3a7 e0bd
00000020: ad92 c0bd 1566 003e 269c e83d cf3b 09bc
00000030: 442c c2bd 2479 823e db8e 913d e13b 933d
00000040: baaa b73d 9060 713d 1d12 e1ba 7633 11be
00000050: 5112 733c 163d b13c d937 893c a7df a7bb
00000060: 549b 463c b263 013d f12a 133e 4b68 72bd
00000070: ee14 19bd 7aee 563d 2477 eabd bd6d 193e
00000080: 4320 a8bd fa88 32bc 5230 a23d 631e 00bd
00000090: 847e 7fbd cd56 053e be0b 4a3e e621 9bbe
000000a0: 7ef6 b43d 1591 0f3e 92f0 673d 38f4 833d
000000b0: bde7 f13c 3cdc ef3c e9fa 583d 0bc4 bf3d
000000c0: e9ba b6bc f562 423d b025 a9bb c2a3 9cbd
000000d0: 8ea3 25be bc17 3f3e b5ac 2c3e 24f6 4abc
000000e0: b579 253e a469 0abe 2f14 493d 7172 043e
000000f0: e7d8 3cbe 7a6f 2ebc 0e19 eb3c f486 8cbd
00000100: 1fe8 a8bc 15c8 c33d eb73 ea3d cbc8 de3d
00000110: 1939 12bd b7a9 43bd 9686 18be 3687 9ebd
00000120: febe e339 0cbd 163d 1830 233e 2598 0f3e
00000130: 930b bd3c cb45 3a3d bf2a 2e3c 3e1e 86bd
00000140: 3334 f8bd c993 283d 2242 683d 0907 09be
00000150: 970c 213c 2d1b 103d e0d0 143b 04e0 ca3c
00000160: 218e 90bd ea29 0abe 519b 233d c1af c03d
00000170: c020 d73b b62f f7bc 0042 b5bc e19e 173e
00000180: d9fe 673d 9148 5dbd d3bd 353e 65bb ba3c
00000190: 888e bf3c 7cf1 abba 2882 473e 11df d3b9
000001a0: 6e90 1dbe e7b8 ba3d c9b8 483d 15a5 39bd
000001b0: eb1e a9bc e6a5 753d b6b9 aabe 650a aabd
000001c0: 34bb 7bbb 11ad c93b 571f 82bd aa16 e33b
000001d0: b43b a6bc 119c 933d dfd8 153b 5262 4b3e
000001e0: 57de c83d c544 553d 0b27 da3c 9578 403e
000001f0: f130 083e ac43 13be d50e 23bd bb3c be3c
00000200: 821c 0d3b 7159 1a3e 75f3 b6bd 5369 be3d
00000210: 9668 00ba 0ef8 11bd 689d 00be 212e fe3c
00000220: ccce f53c 3eab babd faa7 093e 1583 6b3d
00000230: 6daa 1d3c 3663 d0bd d3a7 10bd e7e0 ad3d
00000240: 13d2 0e3d 2fec 78be 2013 6ebd bf86 67bb
00000250: 2f0a c33d 465d 83bd 8bf4 e9bd 1bc3 563d
00000260: 1578 c8bd 7234 2a3e 04e3 0ebe 2cf3 adbd
00000270: d80a 4c3e 83f8 d13d 2899 9d3d e8e5 2e3d
00000280: 95f3 d5bc 6383 afb9 1e7a c63d d094 443d
00000290: c2dd 41bc 31d5 e33d 2601 07be efd6 50bd
000002a0: 7af6 043e 307a cc3c f81a e33d 1617 233c
000002b0: f0c7 b53d 4928 e2bd 192f eebd 2609 2e3d
000002c0: 3119 b83d f600 2c3d 52ee bbbd c5ec 79bd
000002d0: 11f0 c43d 752f 0a3d 43e3 653e 7b98 6bbc
000002e0: a4d6 cd3c 6763 ad3d 74fb 083c 7033 62bd
000002f0: 5d70 d53c 06d4 09bc c6ab 573e ba01 fcbc
00000300: 3803 91bc 06f5 a3bd e063 c43d 94c9 b2bc
00000310: d84f d3bd 4e82 5b3e 45ae 93bc e3be 6b3d
00000320: 78d4 563d d70d b53d 1de5 13be 98aa b53d
00000330: c8cf 223c 36c8 0dbd c29e 563c f18f c13d
00000340: a1d2 333d f7ea 923d 1d63 b7bd 596c 083c
00000350: 730b a23d c542 833c 7756 0abc a350 523d
00000360: efc2 0fbd ee1b 813e 4b23 1c3d 5b2c 053e
00000370: bba7 0a3b 65ae 0b3d 263e 91bd 1124 c23d
00000380: 5be7 1dbd 41e9 a13d 9a59 01be e90e 443e
00000390: bdfc 223e 9379 033d cb34 a7bd d865 bc3d
000003a0: 3be1 403d 8bae f7bd b88d 22be 3800 8fbd
000003b0: 18ec 863c 8114 c0bd b642 2c3e 8462 b53c
000003c0: 5c16 933d ca66 553b c98a e23b 0e24 a9bd
000003d0: 9fb3 27be a89b 2fbd 009d cebc b261 02bd
000003e0: fd1a 94bd 0430 d33d 516d 44bd 5837 c53d
000003f0: a5f6 ecbd 7884 d0bc 1222 023e ffd0 8bbd

dense.0.bias f4 [120]
-0.012971329 0.0035114582 0.06309846 -0.11688456 0.0044625467 -0.07248811 0.028375331 0.11023941
0.044340435 -0.109009475 0.05590479 -0.0551007 0.090797335 0.09886712 -0.10397947 0.15814203
-0.043747433 0.1383443 0.09860977 0.0055400883 -0.07020529 -0.035651237 -0.0002723093 -0.05202723
0.0017246285 0.17351463 0.009710518 0.03524598 -0.103487864 -0.06934289 0.14185259 -0.013425436
0.13947786 -0.08493509 0.024256945 -0.11067789 0.045266185 -0.020794654 0.07542398 0.070001096
-0.10759492 -0.08201729 0.12770395 -0.095732324 -0.074744225 -0.022272296 -0.005410946 -0.053612337
-0.040150274 0.045550596 -0.0486503 -0.09480192 -0.07845508 -0.035082318 -0.026846679 -0.04588941
0.12868077 0.008854856 0.010870518 0.10257267 -0.053947512 0.048492543 -0.009874554 0.10491772
0.06405343 -0.07085399 -0.07026369 0.09314931 -0.047168594 0.046532683 -0.004907463 0.1462438
-0.06111068 -0.0024781625 -0.10482075 -0.0013839843 0.03208394 0.046056777 0.009227141 -0.07490431
0.08173087 0.15878667 0.13024296 0.13339745 0.041442253 -0.097173646 0.040253174 -0.050062876
0.006622543 -0.07933389 0.2167053 0.03630598 -0.035063706 -0.07697396 0.092989214 -0.06258553
-0.081338316 -0.071346216 -0.1174111 0.014227002 0.023170587 0.13301668 -0.059546288 0.05394629
-0.06800706 0.058776937 0.076749876 -0.08984858 -0.09736896 0.027300298 0.031090744 -0.07716637
-0.08437834 0.14531328 -0.061861712 -0.011707943 -0.08227738 0.02662038 0.13899429 -0.08287653
00000000: b285 54bc 7e20 663b c439 813d 2c61 efbd
00000010: 8e3a 923b a574 94bd 6273 e83c 33c5 e13d
00000020: 519e 353d 5c40 dfbd 6cfc 643d 46b1 61bd
00000030: f4f3 b93d d87a ca3d 30f3 d4bd fcef 213e
00000040: 8230 33bd 21aa 0d3e ebf3 c93d a189 b53b
00000050: cbc7 8fbd 0807 12bd bcc4 8eb9 811a 55bd
00000060: ee0c e23a d2ad 313e dd18 1f3c 175e 103d
00000070: 72f1 d3bd a503 8ebd ce41 113e 5cf6 5bbc
00000080: 49d3 0e3e 73f2 adbd 80b6 c63c 17ab e2bd
00000090: 0969 393d 8d59 aabc e377 9a3d bc5c 8f3d
000000a0: ba5a dcbd aef8 a7bd d3c4 023e 4f0f c4bd
000000b0: 8013 99bd 6474 b6bc 4e4e b1bb 9c98 5bbd
000000c0: 9d74 24bd 4393 3a3d 8945 47bd 8227 c2bd
000000d0: 0fad a0bd 7ab2 0fbd 91ed dbbc 89f6 3bbd
000000e0: e4c4 033e f513 113c 421a 323c 9f11 d23d
000000f0: 11f8 5cbd 1ea0 463d e2c8 21bc 1adf d63d
00000100: 722e 833d e61b 91bd 69e6 8fbd 11c5 be3d
00000110: db33 41bd 0e99 3e3d c9ce a0bb efc0 153e
00000120: 314f 7abd ab68 22bb 43ac d6bd cf66 b5ba
00000130: 736a 033d 08a6 3c3d 6f2d 173c 6e67 99bd
00000140: 8462 a73d f998 223e 695e 053e 5799 083e
00000150: 5abf 293d fa02 c7bd 83e0 243d bb0e 4dbd
00000160: eb01 d93b ce79 a2bd ffe7 5d3e 94b5 143d
00000170: f69e 0fbd 86a4 9dbd 2171 be3d d82c 80bd
00000180: b494 a6bd f71d 92bd 3b75 f0bd 5f18 693c
00000190: 3ed0 bd3c 8635 083e cfe6 73bd c9f6 5c3d
000001a0: 4947 8bbd 16c0 703d 0a2f 9d3d 8802 b8bd
000001b0: 6169 c7bd e0a4 df3c 04b2 fe3c 6709 9ebd
000001c0: 8dce acbd 01cd 143e b562 7dbd acd2 3fbc
000001d0: 0b81 a8bd fc12 da3c 8554 0e3e 2cbb a9bd
