pth/model.pth (torch, 502673 bytes, 16 tensors)

conv1.0.weight f4 [6, 3, 3, 3]
0	0x3e742765	0.23843153
1	0xbfa6fd8e	-1.3046129
2	0x3eab52c5	0.33461586
3	0xbf9bfff5	-1.2187487
4	0xbfa3a85e	-1.2785757
5	0x3f223626	0.63363874
6	0x3eb3690b	0.3504108
7	0xbf1c9c1f	-0.6117572
8	0x3ec69d42	0.38791853
9	0xbf5ea4ef	-0.8697042
10	0xbfd20af3	-1.6409591
11	0x3f32e936	0.698871
12	0xbe54c6fa	-0.20779029
13	0xbeb7f4f9	-0.35929087
14	0x4017beef	2.3710287
15	0xbe9f9884	-0.31171048
16	0xbf3a60d6	-0.7280401
17	0x3efcd69e	0.4938249
18	0x3daa86ef	0.08326518
19	0xbf135dc3	-0.57564944
20	0x3f94dd00	1.1629944
21	0xbf001ac4	-0.5004084
22	0xbf177677	-0.5916514
23	0x3f78b752	0.97154725
24	0x3e3bf4ec	0.18355149
25	0xbf6546d5	-0.89561206
26	0x3dae20bc	0.08502337
27	0x3e95a030	0.29223776
28	0xbf7bcb3b	-0.9835698
29	0xbe35a312	-0.17737988
30	0xbe95be91	-0.29246953
31	0x3efeb16f	0.49744746
32	0x3f75eb95	0.96062595
33	0xbf93dc67	-1.1551636
34	0x3eeb8e4a	0.46006995
35	0x3f14c8c2	0.5811883
36	0x3fc3d3b4	1.5298982
37	0x3e0dddad	0.13854094
38	0x3f8fcc32	1.123419
39	0xbd4e3f21	-0.050353173
40	0x3f4c7c3f	0.79877084
41	0x3fc039d1	1.5017644
42	0xbeeafb9d	-0.4589509
43	0x3fa1c95b	1.2639574
44	0x3fa3d96e	1.2800729
45	0xbebd3242	-0.36952406
46	0xbfd20cf2	-1.64102
47	0xbe9ecde6	-0.31016463
48	0xbff74e2e	-1.9320734
49	0xbf96d3f6	-1.1783435
50	0xbe83741a	-0.25674516
51	0xbfe07c1a	-1.7537873
52	0xbf1f49c7	-0.6222195
53	0xbebf4837	-0.37359783
54	0x3f865845	1.0495688
55	0x3fd9e2c1	1.7022325
56	0x3f56e6b9	0.83945805
57	0xbf849712	-1.0358603
58	0xbfa86774	-1.3156571
59	0xbf80b5b5	-1.0055453
60	0xbe5080a1	-0.20361568
61	0xbf82849f	-1.0196723
62	0xbf313d4b	-0.6923415
63	0x3f6c8380	0.92388153
64	0x3ff2bf0e	1.8964555
65	0x3f857fbd	1.0429608
66	0xbf0167f8	-0.5054927
67	0xbf906716	-1.1281459
68	0xbf053c57	-0.52045196
69	0x3dac357a	0.08408637
70	0xbf327b2b	-0.6971919
71	0xbe957879	-0.29193476
72	0x3e4d4ba5	0.20048387
73	0x3f38f5fb	0.72250336
74	0x3f28f3d5	0.6599706
75	0xbf567c4b	-0.83783406
76	0xbf83570c	-1.026094
77	0xbeb2f7c8	-0.34954667
78	0x3d4b6d22	0.049664624
79	0xbe90f1de	-0.2830953
80	0x3e1880fe	0.14892957
81	0x3cf72955	0.030171076
82	0xbda3c6fd	-0.079969384
83	0xbe2442c3	-0.16041093
84	0xbb463020	-0.0030241087
85	0x3e13531f	0.14387177
86	0xbd2f6458	-0.042820305
87	0x3db22f4a	0.08700426
88	0x3d36fafe	0.04467296
89	0x3ba9d0d6	0.005182366
90	0x3e18fddd	0.14940591
91	0x3e1da0a7	0.15393315
92	0x3e061bed	0.1309659
93	0xbe17bd4d	-0.14818306
94	0xbe06db81	-0.13169672
95	0xbd3673bf	-0.044543978
96	0xbd6df49a	-0.0580946
97	0xbdbdfd7f	-0.09276866
98	0xbe15161b	-0.14559214
99	0xbe05e4bf	-0.13075541
100	0xbd23453e	-0.039860956
101	0x3d147b02	0.036250122
102	0xbe0e6ee2	-0.13909486
103	0xbcd5bd1b	-0.02609115
104	0xbdcca2c3	-0.09991982
105	0x3e349c02	0.17637637
106	0x3cc2918e	0.023751047
107	0xbe20cb33	-0.15702514
108	0x3f303fcf	0.68847364
109	0x3fa07cf8	1.2538137
110	0x3f576c86	0.8414997
111	0x3f9231bd	1.1421429
112	0x3fd24648	1.6427698
113	0x3f9955a8	1.1979265
114	0xbce787fc	-0.028263085
115	0x3f7fbcdb	0.99897546
116	0x3eb4192e	0.3517546
117	0xbfafbdf2	-1.3729842
118	0xbfc93233	-1.5718445
119	0xbfb7efc6	-1.4370048
120	0xbf679fe8	-0.9047837
121	0xbf6a1ee0	-0.9145336
122	0xbf04d5c2	-0.5188867
123	0xbf236728	-0.6382928
124	0xbf007ecb	-0.5019347
125	0xbedb6d54	-0.42856848
126	0x3e78ecc1	0.24309064
127	0xbce95400	-0.028482437
128	0x3eecf101	0.4627762
129	0xbf3f0efd	-0.74632245
130	0xbfbb735d	-1.4644581
131	0xbf7bbbba	-0.98333323
132	0xbe8ec344	-0.2788335
133	0xbef0c8b9	-0.4702814
134	0xbe13108c	-0.14361781
135	0xbd0cb0e8	-0.0343484
136	0xbe54959e	-0.207602
137	0xbf8184e7	-1.0118684
138	0xbc1eb08e	-0.009685649
139	0xbeac8a53	-0.33699283
140	0xbf23cabf	-0.6398124
141	0xbf6dc84e	-0.92883766
142	0xbf814be3	-1.0101284
143	0xbeb19e22	-0.34690958
144	0x3e9dc0c7	0.3081114
145	0xbe511ff9	-0.20422353
146	0xbf92e6f6	-1.1476734
147	0x3eab08fa	0.33405286
148	0x3f0cbd1a	0.54976046
149	0xbe4927f4	-0.19644147
150	0xbf191cf9	-0.59809834
151	0xbe37b60a	-0.17940536
152	0xbe7afdbc	-0.24510854
153	0x3f6de5df	0.9292888
154	0x3f6eb05c	0.93237853
155	0xbf14e135	-0.5815614
156	0x3fe70ad6	1.8050182
157	0x3fe54146	1.7910545
158	0x3f4694fa	0.7757107
159	0x3f2c86ae	0.67393005
160	0x3f67568a	0.90366423
161	0x3f6eeb06	0.9332737

conv1.0.bias f4 [6]
0	0x3ff4211d	1.9072605
1	0x3e060cf2	0.13090876
2	0x3f370729	0.714953
3	0xbde5edfc	-0.112270325
4	0x3f9d4017	1.2285184
5	0xbfc9bae2	-1.5760157

conv2.0.weight f4 [16, 6, 3, 3]
0	0x3c2852f8	0.010273688
1	0xbe92bbb1	-0.28658822
2	0x3edc52d1	0.43031934
3	0xbedd9314	-0.43276274
4	0x3c91db95	0.0178049
5	0xbe129696	-0.14315256
6	0x3eb0733f	0.34462926
7	0xbec5b55b	-0.38614926
8	0xbec7f787	-0.39056036
9	0x3d5f82bd	0.05456804
10	0x3f6de7d2	0.92931855
11	0x3e90f087	0.28308508
12	0xbf1e6fb0	-0.6188917
13	0x3ee28908	0.44245172
14	0x3f1596ba	0.58433115
15	0xbf3c0c2f	-0.7345609
16	0xbf993013	-1.1967796
17	0xbece47b1	-0.4028907
18	0xbc6daf5e	-0.014507143
19	0xbeac0e23	-0.33604535
20	0x3ed4c740	0.41558266
21	0xbecaa7d3	-0.39581165
22	0x3ee81e3a	0.4533556
23	0x3e5266bc	0.20547003
24	0x3e806b3e	0.2508182
25	0xbe29d708	-0.16585934
26	0xbe8180c5	-0.25293556
27	0x3bdcf482	0.006743015
28	0xbe04c7d8	-0.1296686
29	0xbd69572a	-0.05696789
30	0x3d93d41e	0.072181925
31	0x3ded7189	0.11593921
32	0xbd7eb016	-0.062179647
33	0x3dc45cc8	0.09588009
34	0xbde8179e	-0.113326296
35	0xbd92a4ad	-0.07160316
36	0x3f1c3b5b	0.6102807
37	0x3f805669	1.002637
38	0x3e1e8bc2	0.15483001
39	0xbf005024	-0.50122285
40	0x3f44b6d1	0.76841456
41	0x3f56f766	0.8397125
42	0xbf8ba9c9	-1.0911189
43	0xbfbd7bf5	-1.4803454
44	0xbe828363	-0.25490865
45	0x3a2ac6a7	0.0006514587
46	0xbf056207	-0.521027
47	0xbd2c2892	-0.04203088
48	0x3efd9b8d	0.49532738
49	0xbf8311b2	-1.0239775
50	0xbf8f9e2b	-1.1220144
51	0x3f99dd71	1.2020704
52	0x3f44e91d	0.769182
53	0xbeb31316	-0.349755
54	0xbead9190	-0.33900118
55	0xbf1f257e	-0.62166584
56	0xbd6c7526	-0.05772891
57	0x3e23ea80	0.16007423
58	0x3ec4de21	0.3845072
59	0x3d96685d	0.073441245
60	0x3dfad076	0.12246792
61	0xbe26156e	-0.16219112
62	0x3e84473c	0.25835598
63	0x3e5edc26	0.21763667
64	0x3f4d4c13	0.80194205
65	0x3f2e8d84	0.68184686
66	0x3eac496f	0.33649775
67	0xbf0ff532	-0.56233513
68	0xbf368ca3	-0.71308345
69	0xbe62971b	-0.22127955
70	0xbebebe9d	-0.372548
71	0x3ddd94ca	0.10819395
72	0x3fa49b73	1.2859939
73	0x3f830ac7	1.0237664
74	0x3ec8d02e	0.39221328
75	0xbf8a3b89	-1.0799419
76	0xbf7af112	-0.98024094
77	0x3ee2d6dc	0.4430455
78	0xbe096c07	-0.13420115
79	0x3f22ce63	0.6359617
80	0xbf24699a	-0.64223635
81	0x3dd4bc1a	0.1038744
82	0xbd848279	-0.06470198
83	0xbdc3da59	-0.09563131
84	0x3e06e9d9	0.13175143
85	0x3d220f82	0.03956557
86	0x3cb28d09	0.021795766
87	0x3de8230a	0.11334808
88	0x3dc4bd4c	0.09606418
89	0x3db2e378	0.087347925
90	0x3c8d66bf	0.017260907
91	0xbdef5465	-0.11686019
92	0x3e82e91b	0.2556847
93	0xbe91d0dc	-0.2847966
94	0xbee0e7aa	-0.43926746
95	0xbeb922dd	-0.3615941
96	0xbdc66d0c	-0.09688768
97	0x3da311f4	0.07962409
98	0x3d0a6f29	0.033797417
99	0x3bec084d	0.007203138
100	0xbd2a3be0	-0.041561007
101	0xbc6e2029	-0.014534035
102	0xbe4c78a5	-0.19967897
103	0xbdd97ae2	-0.10619141
104	0x3d1b75ee	0.037954263
105	0xbc2eab44	-0.01066095
106	0xbec9cfc4	-0.39416325
107	0xbe06403a	-0.13110438
108	0xbf18200a	-0.5942389
109	0x3e807284	0.25087368
110	0x3d0a4f60	0.033767104
111	0x3ddd1998	0.10795897
112	0xbfce026e	-1.6094491
113	0x3fb83420	1.4390907
114	0x3e80cd1b	0.25156483
115	0xbff00535	-1.8751589
116	0x401a81f5	2.414182
117	0x3dbf448c	0.09339246
118	0xbf285dc7	-0.6576809
119	0x3eb7a8f1	0.3587108
120	0x3ea625b9	0.32450655
121	0xbf0f8278	-0.56058455
122	0x3dad1e55	0.08453051
123	0x3efaf819	0.49017408
124	0xbf701863	-0.9378721
125	0x3edefd92	0.43552834
126	0xbd9372d5	-0.07199637
127	0x3d659545	0.056050558
128	0x3e340754	0.1758092
129	0xbe1f0963	-0.15530924
130	0xbeb1e2fb	-0.34743485
131	0xbf3b1c64	-0.73090196
132	0x3e3f8b78	0.18705547
133	0xbf076146	-0.528828
134	0x3d6b8afa	0.057505585
135	0x3e0a34ff	0.13496779
136	0x3e0aeca3	0.13566832
137	0xbdd281d1	-0.10278667
138	0xbe04438b	-0.1291639
139	0x3c29e939	0.010370546
140	0x3cafa222	0.021439616
141	0x3dedd476	0.11612789
142	0x3dec934b	0.115515314
143	0xbd129769	-0.035788927
144	0xbebbf862	-0.3671294
145	0xbeb6d38a	-0.35708266
146	0x3f6fb2a3	0.93631953
147	0xbf2a6d7d	-0.66573316
148	0xbf8b9ebd	-1.0907818
149	0x3fae5dc3	1.3622364
150	0xbf0e52a0	-0.55594826
151	0xbf547753	-0.82994574
152	0x3f8b14c6	1.0865715
153	0x3eb40509	0.35160092
154	0xbe636dc0	-0.22209835
155	0x3eb20afd	0.34774008
156	0x3e459a7a	0.1929721
157	0x3e532c1d	0.20622297
158	0xbf5f1e83	-0.8715593
159	0xbe11d91d	-0.14242978
160	0x3ef64f7a	0.4810751
161	0xbebcd043	-0.3687764
162	0xbf41f59d	-0.757654
163	0xbf3e4ee2	-0.74339116
164	0x3d7a7fd1	0.06115705
165	0x3e657cd4	0.224109
166	0xbf440a42	-0.7657815
167	0xbf5204be	-0.82038486
168	0x3ed9faa0	0.42574024
169	0x3d2873b7	0.04112598
170	0xbed35f13	-0.41283473
171	0x3e766f01	0.24065782
172	0xbf108d15	-0.56465274
173	0xbf103d99	-0.5634399
174	0x3f287ef8	0.6581874
175	0xbddb1f9a	-0.10699387
176	0xbef4ee54	-0.4783808
177	0x3f0796c0	0.529644
178	0x3eaa1200	0.33216858
179	0x3b26e5ca	0.0025466555
180	0xbe8964a2	-0.2683459
181	0xbf3badb0	-0.733119
182	0xbedcadeb	-0.4310144
183	0x3f0905dc	0.53524566
184	0xbcc9490c	-0.024570964
185	0xbea91618	-0.3302467
186	0x3e51393f	0.20431994
187	0x3dcae27b	0.09906479
188	0x3d937b15	0.072012104
189	0xbde69a40	-0.112598896
190	0x3c42e40d	0.011895192
191	0x3d6102b4	0.05493422
192	0xbd1ceec9	-0.03831366
193	0x3daaa853	0.083328865
194	0x3cebbb81	0.028775932
195	0xbd49f72d	-0.04930799
196	0x3c879b73	0.016553616
197	0xbca739df	-0.020413337
198	0xbc357f0c	-0.011077654
199	0x3d10413f	0.035218474
200	0x3ebf5610	0.37370348
201	0x3c275f23	0.010215553
202	0xbe829fc7	-0.25512525
203	0xbdfc1308	-0.123083174
204	0x3e423926	0.18967113
205	0x3eb6a06a	0.3566926
206	0x3e775485	0.24153335
207	0x3defa81b	0.117019854
208	0x3e574a92	0.2102454
209	0xbdd08d5f	-0.101832144
210	0xbe12e8b6	-0.14346585
211	0x3e506f76	0.20355019
212	0x3f1d58d0	0.6146364
213	0xbefdd5cd	-0.4957718
214	0xbeee08bd	-0.46491042
215	0xbc4c0a5d	-0.012453643
216	0x3e8d5925	0.27607074
217	0x3fff1d0f	1.9930743
218	0x3f9956b0	1.197958
219	0x3e30508a	0.17218223
220	0xbf8050a1	-1.0024606
221	0xbfed9051	-1.8559667
222	0xbef2a868	-0.4739411
223	0xbf4e500e	-0.80590904
224	0xbddc2365	-0.107489385
225	0x3dc19383	0.09451964
226	0x3f3fbf65	0.7490142
227	0x3dd2d7a9	0.1029504
228	0x3f8b7449	1.0894862
229	0xbf1d4429	-0.6143213
230	0xbf637b41	-0.88859946
231	0xbf05989d	-0.52185994
232	0xbfa5380b	-1.2907728
233	0x3eba6c08	0.36410546
234	0x3f9b9126	1.2153671
235	0xbe9b6914	-0.30353606
236	0xbeed9cb9	-0.46408632
237	0x3e1fcff4	0.15606672
238	0xbf3f6d05	-0.74775726
239	0x3ddc60ab	0.107606255
240	0x3dde4254	0.10852495
241	0x3c291e99	0.010322236
242	0x3d005eb2	0.03134031
243	0xbdf32c04	-0.1187363
244	0x3e07f18a	0.13275734
245	0xbd4ad305	-0.04951765
246	0xbd14dc43	-0.03634287
247	0x3d952b69	0.072836705
248	0x3d24f233	0.04027004
249	0xbdbe2d8d	-0.09286032
250	0xbdb9a826	-0.09065275
251	0x3deb80fe	0.11499213
252	0x3ebd2fda	0.3695057
253	0xbdba4475	-0.090950884
254	0xbf05fa28	-0.52334833
255	0x3e8c96fc	0.27458942

conv2.0.bias f4 [16]
0	0x3eb24fdb	0.3482655
1	0xbef165a3	-0.47147855
2	0xbe86dde6	-0.2634117
3	0x3ebd11c6	0.36927623
4	0x3e1e3da3	0.154532
5	0xbdd6e11c	-0.10492155
6	0xbd410f5f	-0.0471338
7	0xc01383e3	-2.3049247
8	0x3e98fadf	0.298789
9	0xbdfab6b3	-0.12241878
10	0xbd48fe77	-0.0490708
11	0xbefebee7	-0.49755022
12	0xbdc8372a	-0.09776147
13	0xbefc8349	-0.49318913
14	0xbf98222d	-1.188543
15	0x3df92420	0.121650934

conv3.0.weight f4 [32, 16, 3, 3]
0	0x3e70ebab	0.235274
1	0xbd2ddc02	-0.042446144
2	0xbe8b3fd4	-0.27197134
3	0xbe81de4a	-0.25364906
4	0x3ecc1e56	0.39866894
5	0x3ed214d1	0.41031507
6	0x3efb4532	0.4907623
7	0xbd382cb6	-0.044964515
8	0x3d393eb0	0.0452258
9	0xbb0b1c4a	-0.0021226578
10	0xbd0877fe	-0.03331756
11	0xbdab44c6	-0.08362727
12	0xbeaab1b0	-0.3333869
13	0xbe7c63cc	-0.24647444
14	0x3dfd9e1d	0.12383673
15	0xbe32ce6e	-0.17461559
16	0x3eff92f2	0.49916798
17	0x3f0be7b1	0.5465041
18	0x3e84c33d	0.25930205
19	0xbf1fb6c2	-0.6238824
20	0x3d37107b	0.04469345
21	0xbe826a93	-0.25471935
22	0xbf4502e2	-0.76957524
23	0xbeab783f	-0.33490178
24	0x3de3a757	0.11115902
25	0x3d08bf9b	0.033385854
26	0x3e1e968d	0.15487118
27	0x3e03fdf9	0.12889852
28	0xbd16ff20	-0.0368644
29	0x3deca8da	0.115556434
30	0xbd093845	-0.03350093
31	0xbde309e3	-0.1108587
32	0xbd7ca930	-0.061684787
33	0xbe3bd072	-0.18341234
34	0xbe117bf4	-0.1420744
35	0xbe5718be	-0.21005532
36	0xbe766864	-0.2406326
37	0xbe227c9f	-0.15867852
38	0x3dbe39ea	0.0928839
39	0xbe835e11	-0.25657704
40	0x3dd1bddb	0.1024129
41	0x3d229af4	0.039698556
42	0xbd9041bd	-0.070437886
43	0x3d508998	0.05091247
44	0xbedf754a	-0.43644172
45	0x3d1c1c60	0.038112998
46	0xbe00030a	-0.1250116
47	0xbda5f67d	-0.081036545
48	0xbda242e4	-0.079229146
49	0xbe01ffd7	-0.12695251
50	0xbd6b5e73	-0.05746312
51	0xbddcde76	-0.107846186
52	0xbd5cc83a	-0.05390189
53	0x3d298a6e	0.041391782
54	0xbe3a24aa	-0.18178049
55	0xbda89163	-0.08230855
56	0xbdd9aa45	-0.106281795
57	0x3e467427	0.19380246
58	0x3e53f58b	0.20699136
59	0xbd93a61a	-0.07209416
60	0x3cf08ed0	0.029364973
61	0x3ee086f3	0.43852958
62	0xbe7a64da	-0.24452534
63	0x3ccf45cf	0.025301842
64	0xbe328c30	-0.1743629
65	0xbe9feca9	-0.31235245
66	0xbcf4fce8	-0.029905751
67	0x3e3f42ff	0.186779
68	0xbe66b7c7	-0.22531043
69	0x3effc666	0.49956053
70	0x3f4e2c53	0.80536383
71	0x3e07a957	0.13248192
72	0x3dfcb6e1	0.12339569
73	0xbe3d2123	-0.18469672
74	0xbdb99b6f	-0.0906285
75	0x3dffbdec	0.124873966
76	0xbe2b4125	-0.1672407
77	0xbd78435f	-0.060611125
78	0x3eba3be8	0.3637383
79	0xbeb40496	-0.3515975
80	0x3b9ea7ef	0.0048417966
81	0x3efd7813	0.49505672
82	0xbe8a618b	-0.27027544
83	0xbe163116	-0.14667162
84	0x3e280ede	0.16411921
85	0xbe97923c	-0.29603755
86	0xbe25cdbb	-0.16191761
87	0x3d592b30	0.053019702
88	0x3d9c9698	0.07645911
89	0xbe51a7d2	-0.20474175
90	0xbde0bffe	-0.109741196
91	0x3cf4c5d0	0.02987948
92	0xbed53efd	-0.4164962
93	0x3f0a21e9	0.5395799
94	0x3ed46307	0.41481802
95	0x3e17ffa4	0.14843613
96	0x3da57f0f	0.08080875
97	0xbe9a8cc7	-0.3018553
98	0xbf1df98b	-0.617089
99	0x3ce6da7d	0.028180355
100	0x3ddbf523	0.107401155
101	0x3e8dbe00	0.2768402
102	0xbd6e3c62	-0.058163054
103	0x3d860fe4	0.06546
104	0x3e429a56	0.19004187
105	0x3c380391	0.011231319
106	0x3ec5cc8a	0.38632613
107	0x3ebe10fe	0.3712234
108	0x3be9bc15	0.007133017
109	0xbda852b1	-0.08218897
110	0x3d1688c2	0.036751516
111	0xbe2a797f	-0.1664791
112	0x3dcd76f5	0.10032455
113	0x3e1c0626	0.1523672
114	0xbdd56fc9	-0.10421712
115	0x3e5bec0e	0.21476766
116	0x3d92eaa3	0.0717366
117	0x3f0690df	0.52564806
118	0x3dff29af	0.124591224
119	0xbdd493d8	-0.103797615
120	0x3e0d9106	0.13824853
121	0x3edf9561	0.43668655
122	0x3dc57615	0.09641663
123	0x3e366470	0.17811751
124	0xbdb28deb	-0.08718475
125	0xbe922a85	-0.28548065
126	0xbec61d46	-0.3869421
127	0xbeceb131	-0.4036956
128	0xbe376319	-0.17908897
129	0xbf151934	-0.5824158
130	0xbf0e8513	-0.55671805
131	0x3e15167a	0.14559355
132	0xbe6ee486	-0.23329362
133	0x3c17d8de	0.009268014
134	0x3f0c439a	0.5479065
135	0x3e9b00d7	0.30274078
136	0xbd97f745	-0.0742021
137	0xbe62d72d	-0.22152396
138	0xbee774c0	-0.4520626
139	0xbee3164d	-0.44352952
140	0xbd5bd74c	-0.05367212
141	0xbe886687	-0.26640722
142	0x3eab9130	0.33509207
143	0x3edee161	0.43531325
144	0x3e311c01	0.17295839
145	0x3e071e36	0.13195118
146	0x3e4ecfb3	0.20196418
147	0xbd8b36ff	-0.06797599
148	0x3e2dcd97	0.16972958
149	0x3e32d667	0.174646
150	0xbe45a174	-0.1929987
151	0x3e85eec3	0.26158723
152	0x3e20b9f6	0.15695938
153	0xbe44877a	-0.19192305
154	0xbe8026d8	-0.25029635
155	0x3ecaafc2	0.39587218
156	0xbf253868	-0.64539194
157	0xbeea43f7	-0.45754978
158	0xbcb7e1df	-0.02244657
159	0xbf0bd1ca	-0.5461699
160	0xbf194ce5	-0.59882957
161	0xbed41de5	-0.41429058
162	0x3ee9ae6e	0.45640892
163	0x3ead7a4e	0.33882374
164	0x3ef17f36	0.47167367
165	0xbe0a5493	-0.13508825
166	0xbd83eda1	-0.064418085
167	0x3e5e716e	0.21722957
168	0xbe6f2ed8	-0.23357713
169	0x3cc45161	0.023964586
170	0xbefe92f7	-0.497215
171	0x3e413aa1	0.18870021
172	0x3d5213db	0.051288467
173	0xbde1b256	-0.11020343
174	0x3d28a4a2	0.04117263
175	0x3e238501	0.15968706
176	0xbd8d0e11	-0.068874486
177	0x3dfaa260	0.12238002
178	0x3e49838d	0.19679089
179	0x3e1ef10a	0.15521637
180	0x3e8fdc86	0.28097934
181	0x3f42069b	0.7579133
182	0x3dcf3bbe	0.10118817
183	0xbedb382e	-0.428163
184	0x3eed7eec	0.46385896
185	0x3e981413	0.29702815
186	0xbeb3bdee	-0.35105842
187	0x3e5a5223	0.21320395
188	0xbeafc21a	-0.34327775
189	0xbd2f534c	-0.042804047
190	0x3e4fdf9f	0.20300148
191	0x3cda6511	0.02665952
192	0xbd480e50	-0.048841774
193	0x3cd2f22f	0.025750248
194	0x3d21aebe	0.039473288
195	0x3d448e3c	0.047987208
196	0xbe14ce15	-0.14531739
197	0x3c5fa159	0.013649308
198	0x3dbd63c5	0.09247545
199	0x3e800fd4	0.25012076
200	0x3dcb09bb	0.09913965
201	0xbf42f2d8	-0.761518
202	0xbe881d98	-0.26585078
203	0xbe896a93	-0.26839122
204	0xbe575f4f	-0.21032451
205	0xbdc3d1c9	-0.09561498
206	0x3eb76ff9	0.35827616
207	0x3e3a71a6	0.18207416
208	0xbe399dcb	-0.181266
209	0x3eae571a	0.34050828
210	0xbf04feed	-0.51951486
211	0xbf34edb6	-0.7067522
212	0xbeab8843	-0.33502397
213	0x3d6c0668	0.057623297
214	0xbeaba824	-0.3352672
215	0xbe3e8b5e	-0.18607852
216	0xbd806bb7	-0.06270545
217	0x3ed6bd8e	0.41941494
218	0xbbebba36	-0.007193829
219	0xbe491d30	-0.1964004
220	0xbd25246d	-0.04031794
221	0xbf42414a	-0.75880873
222	0x3ebda51c	0.3704003
223	0xbe0b215b	-0.13586943
224	0xbe7099f9	-0.23496236
225	0xbeca6a19	-0.3953407
226	0xbebd6887	-0.3699381
227	0xbd931bcf	-0.071830384
228	0xbedf237c	-0.4358176
229	0xbf171eab	-0.5903117
230	0xbe8afa43	-0.2714406
231	0xba895ffc	-0.0010480876
232	0xbebdbf96	-0.3706023
233	0xbca760af	-0.020431845
234	0xbe8e403e	-0.27783388
235	0x3f1cb074	0.61206746
236	0x38b5ec50	8.674769e-05
237	0xbe5529ff	-0.20816801
238	0xbe2753a8	-0.16340506
239	0x3f088f29	0.53343445
240	0xbe4f034a	-0.20216098
241	0xbe923328	-0.28554654
242	0xbe3d0e57	-0.18462501
243	0xbe469817	-0.19393955
244	0xbd1dd7a9	-0.038535748
245	0x3d1a342c	0.03764741
246	0xbe60a4a8	-0.21937811
247	0xbe962466	-0.29324645
248	0xbeb1d79c	-0.3473481
249	0x3ced4408	0.028963104
250	0xbe2127d2	-0.15737846
251	0xbe049d9e	-0.12950751
252	0x3c42da7b	0.01189291
253	0x3d017701	0.03160763
254	0xbd995d33	-0.074884795
255	0xbb395400	-0.0028278828

conv3.0.bias f4 [32]
0	0xbfd2f5f3	-1.6481308
1	0x3f30653a	0.6890446
2	0x400c4e03	2.1922615
3	0xbf83963c	-1.0280223
4	0x3f1b1be1	0.60589415
5	0x3eab8cc8	0.33505845
6	0xbf05b765	-0.5223296
7	0x3eeef2b6	0.4666955
8	0xb9c9eafd	-0.00038512787
9	0xbe62e3d5	-0.22157224
10	0xbfe70623	-1.8048748
11	0x3f335abb	0.7006032
12	0x3f0a3429	0.5398584
13	0xbf7df787	-0.9920582
14	0xbcd38b4f	-0.025823263
15	0xbf0ee650	-0.5582018
16	0x3d4b7df6	0.049680673
17	0xbf8f052b	-1.1173452
18	0x3f980d0d	1.1878983
19	0x3d34ebe1	0.044170264
20	0xbec53c6a	-0.38522655
21	0xbe978405	-0.2959291
22	0xbe01e08c	-0.12683314
23	0x3f514ad8	0.8175483
24	0x3e38cccf	0.18046878
25	0xbecf853a	-0.4053133
26	0xbf1208d9	-0.5704475
27	0xbf464d34	-0.7746155
28	0xbd42942e	-0.047504596
29	0x3f0ff420	0.5623188
30	0xbe373884	-0.17892653
31	0x3ee6b537	0.4506013

conv4.0.weight f4 [64, 32, 3, 3]
0	0xbe46e145	-0.19421871
1	0xbe895efe	-0.26830286
2	0xbe307d08	-0.17235196
3	0x3a621aa7	0.00086251873
4	0x3d0b65b3	0.034032535
5	0x3dae9fa4	0.08526543
6	0x3e58cc89	0.21171774
7	0xbdac2809	-0.084060736
8	0x3de63efe	0.112424836
9	0x3db05780	0.08610439
10	0x3c02b3bc	0.007977422
11	0x3dd2bece	0.10290299
12	0x3cb14237	0.021638019
13	0xbe26ead5	-0.16300519
14	0x3d34cf8e	0.044143252
15	0xbe8bd9b2	-0.27314526
16	0xbe57ea77	-0.21085535
17	0xbd6a1ce5	-0.057156462
18	0xbdfc4e85	-0.12319664
19	0xbe34fd11	-0.17674662
20	0x3e07ac89	0.1324941
21	0x3cd496bf	0.025950788
22	0xbe8ae129	-0.2712491
23	0xbc3d3275	-0.011547674
24	0x3e37eb59	0.17960872
25	0xbda0b163	-0.07846334
26	0xb92a7f4e	-0.00016259888
27	0xbd70bb42	-0.058772333
28	0xbe2cdf92	-0.1688216
29	0x3cde5396	0.027139466
30	0xbcb43ae2	-0.022000734
31	0x3d09a750	0.033606827
32	0x3e097e29	0.13427033
33	0xbdb830b6	-0.08993666
34	0xbd9f66c2	-0.07783271
35	0x3e12303b	0.14276211
36	0xbd92fc97	-0.07177084
37	0xbedfff41	-0.4374943
38	0x3e3e9e4a	0.1861507
39	0x3e4c94e6	0.19978675
40	0xbe12801b	-0.14306681
41	0x3ddb794c	0.10716495
42	0x3eb7a558	0.35868335
43	0x3e49424c	0.19654197
44	0x3d3965b9	0.045263026
45	0xbe06ab09	-0.13151182
46	0xbe6d09bb	-0.23148243
47	0xbdcfd036	-0.10147135
48	0x3dc4e684	0.0961428
49	0xbda753a9	-0.08170254
50	0xbdb5b85c	-0.088730544
51	0xbdabfef9	-0.083982415
52	0xbe138568	-0.14406359
53	0xbd12ecb9	-0.035870288
54	0x3ea5aa75	0.3235661
55	0x3f34eaac	0.7067058
56	0x3db2f989	0.08739001
57	0xbe8c7dd7	-0.27439758
58	0x3d6fb5cc	0.058522984
59	0xbd2f3e5d	-0.042784084
60	0xbe92f717	-0.2870414
61	0x3d9d12a4	0.07669571
62	0xbe34d67a	-0.17659941
63	0x3e1b06f8	0.15139377
64	0x3d601981	0.054711822
65	0xbd9ca18e	-0.076480016
66	0x3d854a26	0.06508283
67	0x3e65c5be	0.22438714
68	0x3df85ee8	0.12127477
69	0xbe36ec67	-0.17863618
70	0xbd17ea3b	-0.037088614
71	0xbe880ba9	-0.26571396
72	0xbd911652	-0.070843354
73	0xbe1d6554	-0.15370685
74	0xbe4ebb57	-0.20188652
75	0x3d6018cc	0.05471115
76	0x3b4d255e	0.003130279
77	0xbd1f7756	-0.038932167
78	0xbd90aeb0	-0.07064569
79	0x3d845fff	0.06463622
80	0x3cfd5975	0.030926445
81	0xbe322256	-0.1739591
82	0x3ec1e81d	0.378724
83	0xbe393064	-0.18084866
84	0x3dfe15e4	0.12406519
85	0xbdd1c5ce	-0.102428064
86	0xbe7ace83	-0.2449284
87	0xbe1eaf98	-0.15496671
88	0xbe96d716	-0.29460973
89	0xbd9e0562	-0.077158704
90	0xbd9516f2	-0.07279767
91	0xbe9cb3a9	-0.3060582
92	0xbe20786b	-0.15670936
93	0x3cb39666	0.021922302
94	0xbe55e184	-0.20886809
95	0xbd476f1c	-0.048689947
96	0x3de4d7e7	0.111739926
97	0x3e2737e7	0.16329919
98	0x3d8117f6	0.06303398
99	0x3e72260c	0.23647326
100	0x3eae6555	0.34061685
101	0xbc7ca871	-0.015421019
102	0x3e11ae0d	0.14226551
103	0x3d66b445	0.056324262
104	0xbce545a6	-0.027987313
105	0xbc5f5788	-0.013631709
106	0xbdf60739	-0.12013096
107	0xbdacd8fe	-0.084398255
108	0x3e9693d4	0.2940966
109	0x3ec2a80e	0.3801884
110	0x3e1e8d2e	0.15483543
111	0x3e97068b	0.2949718
112	0x3ce220e8	0.027603582
113	0x3dd767a6	0.10517816
114	0xbde2f824	-0.11082485
115	0xbdde58b9	-0.10856766
116	0x3da34d1e	0.07973693
117	0xbc699b06	-0.014258152
118	0xbd193152	-0.03740055
119	0xbe4b7607	-0.19869243
120	0x3dbdf81e	0.0927584
121	0xbe366f97	-0.17816006
122	0xbd162ea3	-0.03666557
123	0xbddf28bb	-0.108964406
124	0xbe330eb3	-0.17486076
125	0xbe24a856	-0.1607984
126	0xbcc20472	-0.02368376
127	0xbeec5b71	-0.46163514
128	0xbe0e258b	-0.13881509
129	0xbe140ba4	-0.14457566
130	0xbf076d12	-0.52900803
131	0xbdf0d7fa	-0.11759944
132	0x3e2b886d	0.16751261
133	0x3dc0027d	0.093754746
134	0x3dc9642b	0.09833559
135	0x3d21f090	0.03953606
136	0xbc9aa23b	-0.018876186
137	0xbdbb61ed	-0.09149537
138	0xbe9881e3	-0.29786596
139	0xbefc146a	-0.49234325
140	0xbde58468	-0.11206895
141	0x3da10f06	0.078641936
142	0xbe802569	-0.25028542
143	0x3dcc3971	0.099718936
144	0x3daad275	0.08340923
145	0xbd9c4426	-0.07630186
146	0xbe87f2a5	-0.2655231
147	0xbe52d0d7	-0.20587479
148	0x3e243514	0.16035873
149	0xbcec97a4	-0.028880902
150	0x3e70d178	0.23517406
151	0x3c153b05	0.00910831
152	0x3dcd0a50	0.100117326
153	0xbd930c78	-0.071801126
154	0xbe41dc1f	-0.18931626
155	0xbdb6448e	-0.088997945
156	0x3db65bf2	0.08904256
157	0xbe76f86b	-0.24118201
158	0xbe89c33a	-0.2690676
159	0xbe12fb19	-0.14353599
160	0x3bb7f639	0.005614069
161	0xbd56fe71	-0.052488748
162	0xbbb5a97f	-0.005543887
163	0x3cb34fc4	0.021888621
164	0xbe41fc16	-0.1894382
165	0xbde3d27c	-0.11124131
166	0x3e777748	0.24166596
167	0xbe9e9cdb	-0.30979046
168	0xbd882c92	-0.06649126
169	0x3de5dbc6	0.11223559
170	0x3e756320	0.23963594
171	0xbe35a5da	-0.17739049
172	0x3cccc7a0	0.024997532
173	0xbda82e94	-0.08212009
174	0xbdc7b541	-0.09751368
175	0x3e2f8d9e	0.17143866
176	0x3e740fe4	0.23834187
177	0x3e02afa5	0.12762316
178	0x3d4242ce	0.04742699
179	0xbd8ba458	-0.068184555
180	0x3e88501a	0.26623613
181	0x3ddac9d2	0.106830254
182	0x3dc99b7e	0.09844111
183	0xbe07ef7f	-0.13274954
184	0xbef2ca13	-0.47419795
185	0xbea5f007	-0.3240969
186	0x3d6babee	0.05753701
187	0x3e3d0ce6	0.18461952
188	0x3db49911	0.088182576
189	0xbdd96499	-0.106148906
190	0xbe5a9e1b	-0.21349375
191	0x3c26f98c	0.010191333
192	0xbe05e940	-0.13077259
193	0xbe4a7dba	-0.19774523
194	0xbdcf9245	-0.101353206
195	0x3ca05a17	0.019574208
196	0x3d52e33a	0.05148623
197	0x3d494aed	0.04914372
198	0xbdb580e3	-0.08862474
199	0x3d2417ac	0.040061638
200	0xbdaccf23	-0.08437946
201	0xbc0bb561	-0.008527131
202	0xbe408c9d	-0.1880364
203	0x3da6898e	0.08131705
204	0xbdc5cfa0	-0.09658742
205	0xbde2b8c7	-0.110704
206	0xbd53eb10	-0.051737845
207	0x3eb3e050	0.35132074
208	0xbecb50a7	-0.3970997
209	0xbd42d4e4	-0.04756631
210	0x3e422bc6	0.1896201
211	0xbe0a5814	-0.13510162
212	0xbe57378a	-0.2101728
213	0xbd3f1a79	-0.046656106
214	0x3b469a82	0.0030304496
215	0xbc40b24a	-0.011761257
216	0xbe25837e	-0.16163442
217	0xbe0c8378	-0.13722026
218	0xbe158862	-0.14602807
219	0xbdcc3e8f	-0.099728696
220	0xbdf17a1d	-0.117908694
221	0xbdb00f38	-0.08596653
222	0x3d789e0d	0.060697604
223	0xbd2804c1	-0.04102016
224	0xba888b47	-0.0010417484
225	0x3e21ba0c	0.15793628
226	0x3d276ff7	0.040878262
227	0x3e97dfd5	0.29662958
228	0xbe65d716	-0.2244533
229	0xbe19cfc1	-0.15020658
230	0xbe9fe98a	-0.31232864
231	0x3e3c5a24	0.18393761
232	0xbb001cb7	-0.0019548365
233	0xbe0ea54a	-0.1393024
234	0x3e1f49ad	0.15555449
235	0xbe0afbed	-0.13572665
236	0xbde8a323	-0.11359241
237	0xbd95d8cd	-0.07316742
238	0xbcf6375b	-0.030055692
239	0xbdb80f11	-0.08987249
240	0x3c96d7e3	0.01841349
241	0xbd401e62	-0.046903975
242	0xbe7e0c8b	-0.24809472
243	0x3ec5e258	0.3864925
244	0xbd449fee	-0.048004083
245	0xbe20df29	-0.15710129
246	0xbdd5ee2c	-0.10445818
247	0x3d2e9614	0.042623594
248	0xbdb241f8	-0.08703989
249	0xbeac2ac3	-0.33626375
250	0x3dee5644	0.116375476
251	0x3e5aeaf0	0.21378684
252	0x3d3ed2c3	0.046587717
253	0xbe4aac5c	-0.19792312
254	0xbe15d7c0	-0.14633083
255	0xbdb5b61e	-0.08872627

conv4.0.bias f4 [64]
0	0x3ec8d65e	0.3922605
1	0xbe9084ba	-0.28226262
2	0xbe468fc5	-0.19390781
3	0xbeb264d0	-0.3484254
4	0xbeab47de	-0.33453268
5	0xbead7b1e	-0.33882993
6	0xbe485869	-0.19564976
7	0x3e2c6b81	0.16837884
8	0x3db51dda	0.08843584
9	0x3e811ffa	0.2521971
10	0xbd5e528c	-0.05427794
11	0xbdff8c33	-0.12477913
12	0x3c511583	0.012761476
13	0xbd07a2d5	-0.033114273
14	0x3b4769c7	0.0030428038
15	0x3ef92767	0.48662874
16	0x3eba835a	0.36428338
17	0x3ec4f1e7	0.38465807
18	0x3e2bea71	0.16788651
19	0xbe0fa492	-0.14027622
20	0xbd712523	-0.058873307
21	0x3d1cfc37	0.03832647
22	0x3e812502	0.25223547
23	0x3e3148ff	0.17313002
24	0x3e26829d	0.16260763
25	0x3ed5e53b	0.4177645
26	0xbf1fd239	-0.6243015
27	0xbd9438b5	-0.072373785
28	0x3e2c54d9	0.16829242
29	0x3d8bb262	0.06821133
30	0xbe1b72fd	-0.15180583
31	0xbe94693e	-0.28986543
32	0xbe3ae680	-0.18251991
33	0x3d45791f	0.048211213
34	0x3d913745	0.0709062
35	0xbe62c0d7	-0.22143875
36	0xbec1b729	-0.37835053
37	0xbd2ba4db	-0.041905265
38	0x3ec5743e	0.38565248
39	0x3e01159a	0.12605897
40	0x3f394695	0.72373325
41	0xbf0cdc04	-0.5502322
42	0xbe0adf90	-0.13561845
43	0x3d8e057c	0.0693464
44	0xbe40147f	-0.18757819
45	0x3e88cd89	0.2671931
46	0x3ec95be8	0.3932793
47	0xbcbd80ae	-0.023132648
48	0xbd03bff8	-0.032165498
49	0x3edefe31	0.43553308
50	0xbdc567e9	-0.0963896
51	0xbe0e6ed4	-0.13909465
52	0xbe5c310e	-0.21503088
53	0xbd38ddcc	-0.045133397
54	0x3ebf8c1c	0.37411582
55	0x3d9827bf	0.07429456
56	0x3d99cad7	0.07509392
57	0xbe87f3a5	-0.26553074
58	0x3edb905b	0.42883572
59	0x3dbae552	0.09125771
60	0xbe574010	-0.21020532
61	0x3e11cd89	0.14238562
62	0x3b92d160	0.004480526
63	0x3e7446b9	0.23855104

conv5.0.weight f4 [128, 64, 3, 3]
0	0x3d4ad64b	0.049520772
1	0xbda0d60c	-0.07853326
2	0x3d032fb5	0.03202792
3	0xbdac69d4	-0.084186226
4	0xbdd00361	-0.101568945
5	0xbc7a8d85	-0.01529253
6	0xbda68bf4	-0.08132163
7	0xbc77d428	-0.015126266
8	0xbd75a89d	-0.059975255
9	0x3df91110	0.121614575
10	0xbdd6c98d	-0.104876615
11	0xbc972ab0	-0.018452972
12	0xbe6cb71d	-0.23116727
13	0xbe7b4127	-0.24536572
14	0x3d874c11	0.066063054
15	0xbd08407c	-0.033264622
16	0x3c9b16ef	0.018931834
17	0xbd86947d	-0.06571291
18	0x3d937031	0.07199133
19	0xbdc7a69d	-0.09748576
20	0xbcd330af	-0.02578005
21	0xbd2f76a0	-0.04283774
22	0x3dafd58e	0.08585654
23	0xbdd03f1f	-0.101682894
24	0x3d7be77d	0.06150006
25	0x3e41603b	0.18884365
26	0xbd50854a	-0.050908364
27	0xbca4fdfd	-0.020140642
28	0x3aeb5345	0.0017953893
29	0x3b7357dd	0.0037131228
30	0xbdc387a9	-0.095473595
31	0xbdbb361f	-0.09141182
32	0xbd6cb86d	-0.05779307
33	0x3d5a3da6	0.05328145
34	0xbde8a660	-0.113598585
35	0xbce27eb4	-0.027648307
36	0x3df443b1	0.119269736
37	0x3b3d8f64	0.0028924579
38	0xbdb7ce7c	-0.08974931
39	0xbd9be206	-0.0761147
40	0x3d6771d1	0.05650503
41	0xbd7f59eb	-0.06234161
42	0xbd4485c9	-0.04797915
43	0x3d520e67	0.051283266
44	0x3d7f3c62	0.062313445
45	0x3e1c65ca	0.15273204
46	0xbc8ec5d7	-0.017428322
47	0x3dab458e	0.08362876
48	0xbe2eb755	-0.17062123
49	0xbe962442	-0.29324538
50	0xbd59fd30	-0.053219974
51	0x3c1438b0	0.0090467185
52	0xbcb5b120	-0.022179186
53	0xbad6ee38	-0.0016397899
54	0x3e0071eb	0.12543456
55	0xbe7ef0b7	-0.24896513
56	0xbe0160ef	-0.12634633
57	0xbd26ef6f	-0.040755685
58	0x39035d6b	0.00012527934
59	0x3d1371d3	0.035997223
60	0x3cdd5cfc	0.027021877
61	0x3c96527b	0.018349877
62	0xbd10351a	-0.03520689
63	0x3c3c894c	0.0115073435
64	0x3d67eaba	0.056620337
65	0xbd009005	-0.031387348
66	0xbd8fae49	-0.07015664
67	0xbe190d2e	-0.14946434
68	0xbd86fb78	-0.065909326
69	0xbd49bb33	-0.049250793
70	0xbc22ee70	-0.009944543
71	0xbd0b3186	-0.033982776
72	0x3e031824	0.12802178
73	0xbda225ba	-0.07917352
74	0x3ca409dd	0.020024234
75	0x3ddf87e3	0.1091459
76	0x3e896f1d	0.26842585
77	0xbd8a1012	-0.067413464
78	0xbbe75f54	-0.0070609245
79	0xbbcf90da	-0.0063344063
80	0x3d21de98	0.039518923
81	0xbddffdef	-0.10937106
82	0xbe036938	-0.12833107
83	0x3da36a6a	0.07979281
84	0xbd014be2	-0.031566508
85	0xbe0cc19d	-0.13745733
86	0xbe1872d7	-0.14887558
87	0x3cf4c50c	0.029879116
88	0x3c72f31f	0.014828472
89	0x3dd28e1f	0.10281014
90	0xbe07722e	-0.1322715
91	0xbe0fd1c4	-0.14044863
92	0x3ca94005	0.02066041
93	0x3cb63235	0.022240737
94	0x3dd9dcaf	0.10637795
95	0x3cc075c8	0.023493662
96	0x3de6f315	0.11276833
97	0xbd545fc2	-0.051849134
98	0x3d66f577	0.056386437
99	0xbd713627	-0.058889534
100	0x3d0d303b	0.034469824
101	0x3d9aa537	0.075510435
102	0x3da9f3ca	0.08298452
103	0x3de86c2d	0.11348758
104	0xbd3ec879	-0.046577904
105	0x3dd11625	0.10209302
106	0xbd1b282a	-0.0378801
107	0xbbe1035e	-0.0068668565
108	0xbc53487d	-0.0128957005
109	0xbd5861f0	-0.052827775
110	0xbd22d06c	-0.039749548
111	0xbce116cf	-0.027476696
112	0x3ca86763	0.020557111
113	0xbcc01082	-0.023445372
114	0x3b6b9764	0.003594839
115	0x3d101d4a	0.035184182
116	0xbb988673	-0.0046546995
117	0xbc8a983c	-0.016918294
118	0x3d4ceb47	0.050029065
119	0xbd70de6a	-0.05880586
120	0x3cc929ef	0.024556128
121	0xbd6f5b0a	-0.05843643
122	0xbe27d63e	-0.1639032
123	0x3c684473	0.014176476
124	0xbbcf0691	-0.0063179214
125	0x3c6a9f7d	0.0143202515
126	0x3eb36d35	0.35044256
127	0x3dfa1e5b	0.12212821
128	0xbd1b831b	-0.03796683
129	0xbd66850a	-0.05627922
130	0xbd072301	-0.032992367
131	0xbd5b2251	-0.053499524
132	0xb95b7e44	-0.00020932505
133	0xbd80ee95	-0.06295506
134	0xbcc362ff	-0.023850916
135	0x3e3981b8	0.1811589
136	0xbdf8fe58	-0.12157887
137	0xbd8a73e5	-0.067603864
138	0xbe4a7ab7	-0.19773374
139	0xbe40e021	-0.18835498
140	0xbc39a204	-0.011330131
141	0xbd519ae6	-0.051173113
142	0xbd8c723f	-0.06857728
143	0xbd92f3c8	-0.07175404
144	0x3d2462a7	0.040133145
145	0x3d806571	0.062693484
146	0xbd614d7f	-0.055005547
147	0x3cc06b65	0.02348871
148	0xbccf5e8d	-0.02531364
149	0x3d78a02a	0.06069962
150	0x3b7aa3a5	0.0038244512
151	0xbd4813f4	-0.048847154
152	0xbd8449c3	-0.064593814
153	0xbe34eb8d	-0.1766798
154	0xbda42264	-0.08014372
155	0xbd9f94de	-0.07792066
156	0xbcf7967c	-0.030223124
157	0x3bb4d69f	0.005518749
158	0xbdd3ee63	-0.10348203
159	0x3c59eac1	0.013300599
160	0x3c265022	0.010150941
161	0xbcd6399d	-0.026150519
162	0xbe3ba228	-0.18323576
163	0x3db1b2e0	0.08676696
164	0x3c8c5a90	0.017133027
165	0x3e0e72e7	0.1391102
166	0x3dc2f088	0.09518534
167	0x3e2236d3	0.15841226
168	0xbcaa3e6c	-0.020781718
169	0x3ddee691	0.10883821
170	0xbcf9c6b6	-0.03049026
171	0xbb24e9dc	-0.0025163805
172	0xbe861c12	-0.2619329
173	0xbd917226	-0.0710185
174	0xbdc0b935	-0.094103254
175	0xbe24e377	-0.16102396
176	0xbd913493	-0.07090106
177	0xbd8e70a4	-0.06955078
178	0xbc831d80	-0.016005278
179	0xbd732380	-0.059360027
180	0xbdc32062	-0.09527661
181	0xbe490afd	-0.19633098
182	0x3c97b1e4	0.018517442
183	0x3c413ead	0.011794728
184	0xbc4fd749	-0.012685605
185	0xbcf39479	-0.029733883
186	0xbc03fb82	-0.00805557
187	0x3c74e809	0.0149479
188	0xbcc42589	-0.02394368
189	0x3da721fd	0.081607796
190	0x3e661e03	0.22472386
191	0xbd4988f7	-0.049202885
192	0x3e2c2ac3	0.16813187
193	0x3d81b404	0.063331634
194	0xbdfa44bf	-0.122201435
195	0xbd8606a8	-0.06544238
196	0xbdeb8b26	-0.1150115
197	0xbd38f3ba	-0.04515431
198	0xbd96da40	-0.07365847
199	0x3e167d68	0.14696276
200	0xbae28b44	-0.0017283936
201	0x3db32d76	0.08748905
202	0xbe8738bf	-0.2641048
203	0xba4c2bf1	-0.000778853
204	0x3d28df29	0.041228447
205	0xbdbab8a1	-0.091172464
206	0xbd58beaf	-0.052916225
207	0xbd7b3614	-0.06133087
208	0xbd4c6fd9	-0.049911354
209	0xbd2fd037	-0.04292318
210	0xbcdce36f	-0.026963918
211	0xbe6ec8c8	-0.2331878
212	0xbd3722be	-0.044710867
213	0xbd5dbed2	-0.05413706
214	0xbda4e190	-0.08050835
215	0xbd52f2bb	-0.051501017
216	0x3e24fb85	0.16111572
217	0x3ae62858	0.0017559631
218	0xbda74f67	-0.08169442
219	0x3d631967	0.055444147
220	0xbdc51574	-0.096232325
221	0xbdb34979	-0.08754248
222	0xbcf675f8	-0.030085549
223	0x3bc7a3d7	0.0060925293
224	0xbd4f290a	-0.050576247
225	0xbdb430d2	-0.08798374
226	0xbe21fce6	-0.1581913
227	0x3bd01992	0.0063507045
228	0x3de728ad	0.11287055
229	0xbd139d35	-0.036038596
230	0x3c30bc6a	0.010787109
231	0x3d71ccf5	0.059033353
232	0x3dba7fe6	0.09106426
233	0xbd3e89b3	-0.04651804
234	0xbe2bf6cb	-0.16793363
235	0xbd966a36	-0.07344477
236	0xbe492183	-0.1964169
237	0x3e15f4d7	0.1464418
238	0x3d5803ca	0.05273799
239	0xbda139c5	-0.07872347
240	0xbd8cb356	-0.06870143
241	0x3ca8e7fa	0.020618428
242	0xbb8020db	-0.0039101667
243	0x3bf4df2d	0.0074728937
244	0xbda7bb53	-0.08190026
245	0xbdb1bca8	-0.086785614
246	0xbc7bb805	-0.015363698
247	0x3d90f44a	0.070778444
248	0xbd1f13ed	-0.038837362
249	0xbc78ddd1	-0.015189604
250	0xbd16c9dd	-0.036813606
251	0x3c99abf1	0.018758746
252	0xbdf8b106	-0.121431395
253	0xbe58a667	-0.21157227
254	0xbdc5b6ac	-0.096539825
255	0xbaecaef7	-0.0018057515

conv5.0.bias f4 [128]
0	0xbdd68a2d	-0.10475574
1	0x3cbcc085	0.02304102
2	0xbdb80b55	-0.089865364
3	0x3da37730	0.079817176
4	0xbe456b6f	-0.19279264
5	0x3d0fcfb5	0.035110194
6	0xbe5e2f82	-0.2169781
7	0x3c9e2757	0.019305868
8	0xbdb8912c	-0.09012064
9	0xbe18e8fc	-0.14932626
10	0xbe17e450	-0.14833188
11	0xbe8cbeee	-0.27489418
12	0xbe24285f	-0.16031025
13	0x3de920a7	0.11383181
14	0xbe0bfcc5	-0.13670643
15	0x3e3adbcc	0.18247908
16	0xbd3c4f85	-0.045974273
17	0xbe0d5b09	-0.13804258
18	0x3c7cded8	0.015433989
19	0x3c56cc2d	0.013110203
20	0x3e1a9726	0.15096721
21	0x3a10250c	0.00054986845
22	0x3e3299ab	0.17441432
23	0xbd213645	-0.039358396
24	0x3d8a9a59	0.06767721
25	0xbe4fd916	-0.20297655
26	0xbdef154b	-0.11673983
27	0xbd8b111b	-0.06790372
28	0x3e71e4f4	0.23622495
29	0xbe1f7430	-0.15571666
30	0xbe3d5338	-0.18488777
31	0xbe7413a9	-0.23835625
32	0xbba22db8	-0.0049492978
33	0x3e1791b6	0.14801678
34	0xbe7003ff	-0.23439024
35	0xbeb4d24d	-0.35316697
36	0x3dc66fd0	0.09689295
37	0xbd906eed	-0.070524074
38	0x3e2994bf	0.16560648
39	0xbbf506e6	-0.007477629
40	0x3dd69150	0.10476935
41	0x3d3778db	0.04479299
42	0x3d8c3be2	0.06847359
43	0x3cd25554	0.025675453
44	0xbd4848c8	-0.048897535
45	0xba8171e2	-0.0009875859
46	0x3e0f6165	0.14001997
47	0xbe3687f2	-0.17825297
48	0xbda26f9e	-0.079314455
49	0xbe462922	-0.19351628
50	0xbd40d41c	-0.047077283
51	0x3d370ac2	0.044687994
52	0xbd0e96f6	-0.034811936
53	0x3dc97ae2	0.09837891
54	0xbeadede7	-0.33970568
55	0x3d6c602b	0.0577089
56	0x3df66cce	0.120324716
57	0xbe092638	-0.13393486
58	0x3d567433	0.05235691
59	0xbe07ca3b	-0.13260739
60	0x3bd7a98a	0.00658149
61	0xbea191b1	-0.31556466
62	0x3db48d7b	0.08816048
63	0x3e548b76	0.20756325
64	0xbd190636	-0.03735944
65	0x3e1178a7	0.14206181
66	0xbe366bc8	-0.17814553
67	0x3bd11762	0.0063809613
68	0xbe866714	-0.26250517
69	0xbdd5f40b	-0.10446938
70	0x3e870362	0.26369768
71	0xbed70498	-0.41995692
72	0x3e14d47e	0.14534184
73	0xbdc0c01d	-0.09411643
74	0x3dd8953d	0.1057534
75	0xbeab9e53	-0.3351923
76	0xbcd8d135	-0.026466945
77	0xbda391dd	-0.079868056
78	0xbe2d66c9	-0.1693374
79	0x3e8de43f	0.277132
80	0xbd8b6342	-0.06806041
81	0x3d01f8d4	0.03173144
82	0xbe851bf5	-0.25997892
83	0xbdbabc95	-0.091180004
84	0xbd513df0	-0.05108446
85	0xbe1dac1c	-0.15397686
86	0x3d341de9	0.043973837
87	0xbdfecc9d	-0.12441371
88	0x3c98350e	0.018579986
89	0x3caf208f	0.02137783
90	0xbdb69bd9	-0.08916444
91	0xbdb8d9ba	-0.09025903
92	0x3d756061	0.059906367
93	0x3ca9c590	0.020724088
94	0x3de2ea71	0.110798724
95	0xbda2564a	-0.079266146
96	0x3c976848	0.018482342
97	0x3e716788	0.2357465
98	0x3d50f186	0.051011585
99	0xbd9ca016	-0.076477215
100	0xbe1a2e29	-0.15056671
101	0xbca03276	-0.019555312
102	0xbb99d4ab	-0.0046945415
103	0xbbbff60c	-0.0058581885
104	0xbe291e74	-0.16515523
105	0xbe9b3585	-0.3031427
106	0xbe7efbb7	-0.24900709
107	0xbcdb0f4e	-0.026740696
108	0xbe190cc8	-0.14946282
109	0xbdc9a996	-0.09846799
110	0xbd8b0f20	-0.06789994
111	0xbdf2fa07	-0.11864095
112	0xbe6029d5	-0.21890958
113	0xbe6b71b6	-0.22992596
114	0x3cd73389	0.026269691
115	0xbe483d2e	-0.19554588
116	0x3cc5cc0d	0.02414515
117	0x3c130ab7	0.008974723
118	0xbd2475f9	-0.04015157
119	0xbd956049	-0.072937556
120	0x3e96ea07	0.29475424
121	0x3dfc64f5	0.123239435
122	0x3e111a9b	0.14170305
123	0xbddcfe35	-0.10790674
124	0xbd25d51b	-0.040486436
125	0xbdb76e11	-0.089565404
126	0xbd4c2abc	-0.049845442
127	0xbd69cc91	-0.057079855

dense.0.weight f4 [120, 128]
0	0xbd068376	-0.032840215
1	0x3d9ab864	0.07554701
2	0xbe5ee215	-0.21765931
3	0x3defa229	0.117008515
4	0xbd28d1fc	-0.04121588
5	0xbd0214b9	-0.031758044
6	0xbdda4905	-0.106584586
7	0xbd877725	-0.06614522
8	0xbd55ba7e	-0.052179806
9	0xbe3ff9b4	-0.18747598
10	0x3e14f5e9	0.14546932
11	0xbe6c1d3b	-0.23058026
12	0xbdb8d9f3	-0.090259455
13	0xbe0ef877	-0.1396197
14	0x3e04691f	0.12930726
15	0x3d1221bf	0.035676714
16	0x3cc2b848	0.023769513
17	0x3ddf202d	0.10894809
18	0xbdd08585	-0.10181717
19	0xbddd419e	-0.10803531
20	0xbe1ae948	-0.15128052
21	0xbda51460	-0.08060527
22	0xbd7a27d1	-0.061073128
23	0xbd8bb0fd	-0.06820867
24	0xbddd8614	-0.10816589
25	0xbde5d8af	-0.1122297
26	0x3d85b812	0.06529249
27	0xbd8e4a43	-0.06947758
28	0xbdc486fe	-0.0959606
29	0xbe012e93	-0.12615423
30	0xbe029a68	-0.12754214
31	0x3d9de1ff	0.07709121
32	0xbdc7b31d	-0.0975096
33	0xbe15ecfa	-0.1464118
34	0x3d5b589b	0.053551298
35	0xbe11b6b8	-0.14229858
36	0xbcc39fdb	-0.023879936
37	0x3d5d04fc	0.05395983
38	0x38f85758	0.000118418306
39	0xbc5b5e84	-0.0133892335
40	0xbe0c0fa2	-0.13677838
41	0xbd4665f7	-0.048437085
42	0xbc2668ab	-0.010156791
43	0xbb65d9ca	-0.003507244
44	0xbdbba401	-0.09162141
45	0xbd40f74f	-0.04711085
46	0xbd853843	-0.06504872
47	0x3da3fe1b	0.08007451
48	0xbceb2f39	-0.028709041
49	0x3cca3280	0.024682283
50	0x3db218a3	0.08696105
51	0x3bc44298	0.005989384
52	0xbd4e536d	-0.05037253
53	0x3d99cb65	0.075094976
54	0xbe2f5e0d	-0.17125721
55	0xbcbc2a37	-0.022969348
56	0xbe07e650	-0.13271451
57	0xbe048f12	-0.12945202
58	0xbdd0b176	-0.10190098
59	0x3d31de4c	0.04342489
60	0xbe2c9566	-0.16853866
61	0xbdaa7db7	-0.083247595
62	0xbd34cf88	-0.04414323
63	0xbd813c8a	-0.06310375
64	0xbd066662	-0.032812484
65	0xbdb610ed	-0.08889947
66	0xbe208dba	-0.15679064
67	0x3b15a213	0.00228322
68	0xbdebd4f8	-0.1151523
69	0xbdb66e89	-0.08907802
70	0x3e40053c	0.18751997
71	0xbe2ed48f	-0.17073272
72	0x3d7072f3	0.058703374
73	0x3e03edc0	0.12883663
74	0xbdba2485	-0.09088997
75	0x3e091ecb	0.13390653
76	0xbddde866	-0.10835342
77	0x3e3a56a1	0.18197109
78	0xbdf9ea64	-0.122029096
79	0xbdfad40b	-0.12247475
80	0xbd8f42ff	-0.069952
81	0xbe0940c0	-0.13403606
82	0x3db6be95	0.089230694
83	0xbd044b6d	-0.032298494
84	0xbd2536ab	-0.04033534
85	0xbe05ed6c	-0.1307885
86	0xbd590a62	-0.052988417
87	0x3c83b60e	0.016078021
88	0xbdd94687	-0.10609155
89	0x3bf37878	0.0074301325
90	0xbe364acd	-0.17801972
91	0x3dad6a48	0.08467537
92	0xbe0d8e6f	-0.13823865
93	0xbd3a6378	-0.045505017
94	0xbbf0acdb	-0.0073448247
95	0xbdc843d9	-0.09778566
96	0xbdc85cf1	-0.09783352
97	0xbe44c1d1	-0.1921456
98	0xbe09c63e	-0.1345453
99	0x3e8dfbf3	0.27731284
100	0xbd841fa5	-0.06451348
101	0x3d32a958	0.04361853
102	0xbdcf2a55	-0.10115496
103	0xbddefc7c	-0.10888001
104	0x3dae176e	0.085005626
105	0xbe0c7649	-0.13716997
106	0x3d316702	0.043311127
107	0xbd33be80	-0.043882847
108	0x3e0986cc	0.13430327
109	0xbdb41717	-0.087934665
110	0x3e3d8ee8	0.18511546
111	0xbcb62a1c	-0.022236876
112	0xbe2b2277	-0.16712366
113	0x3d719a04	0.05898477
114	0xbdc5552f	-0.09635388
115	0xbc4d26dd	-0.012521473
116	0x3b789848	0.0037932564
117	0xbd12116d	-0.03566115
118	0xbdd4f347	-0.10397964
119	0x3d957e5c	0.07299492
120	0xbe1a5abb	-0.15073673
121	0x3d2d4c7d	0.042309273
122	0x3ce084b6	0.027407032
123	0xbe1f6604	-0.1556626
124	0xbdcc3eb8	-0.099729
125	0x3daeb586	0.085307166
126	0x3d5d42c7	0.054018762
127	0xbda02c2d	-0.07820926
128	0xbca1ef95	-0.019767562
129	0xbd830bd7	-0.06398743
130	0x3d4de73a	0.050269343
131	0x3d6455e4	0.055745974
132	0x3e36f9f9	0.17868795
133	0xbd06ed0c	-0.03294091
134	0xbeb3dfd2	-0.351317
135	0xbe2726c2	-0.16323379
136	0xbdee3653	-0.11631455
137	0x3c887869	0.016658979
138	0x3c5f8b29	0.013644018
139	0xbc1ec931	-0.009691522
140	0x3bfd87cf	0.007737137
141	0xbe1601e4	-0.14649159
142	0xbd221c89	-0.039577994
143	0xbd53c6f8	-0.051703423
144	0x3dc12016	0.09429948
145	0xbe7ffe42	-0.24999335
146	0xbd2343e0	-0.039859653
147	0xbdaf9c2b	-0.085747086
148	0xbd9a9d8a	-0.075495794
149	0xbcabf7b8	-0.020992145
150	0x3cd06699	0.025439547
151	0xbd801ebe	-0.062558636
152	0xbda6864d	-0.081310846
153	0xbd0e4d34	-0.034741595
154	0xbd171632	-0.0368864
155	0x3c8b504b	0.01700606
156	0xbdbc00ca	-0.09179838
157	0x3cfef193	0.031121051
158	0x3e18881f	0.14895676
159	0x3e182035	0.14856036
160	0x3c415c5b	0.011801804
161	0xbdf7b0d3	-0.120942734
162	0xbdc7b9a0	-0.09752202
163	0xbdc9f4fc	-0.0986118
164	0xbe82eec8	-0.255728
165	0x3d47dae9	0.048792753
166	0xbe1550dd	-0.14581628
167	0xbe400d50	-0.18755078
168	0xbdf23d12	-0.118280545
169	0xbd9f4927	-0.077776246
170	0xbe1aed0c	-0.15129489
171	0xbe945c91	-0.28976873
172	0xba800d29	-0.0009769547
173	0xbb1da25d	-0.0024053075
174	0xbe2f485e	-0.1711745
175	0x3df17272	0.11789407
176	0xbdbb50c5	-0.09146265
177	0x3d594e60	0.05305326
178	0xbd442867	-0.047890093
179	0xbd9655ee	-0.073406085
180	0x3daa81c8	0.08325535
181	0xbe17774d	-0.14791603
182	0xbe2fadfb	-0.17156212
183	0xbd5fc7ae	-0.05463379
184	0xbe0adf2b	-0.13561694
185	0x3d41b984	0.047296062
186	0xbdfb72a1	-0.12277723
187	0xbcf3c3ec	-0.029756509
188	0xbbd54c50	-0.0065093413
189	0xbe6a0c65	-0.2285629
190	0xbe7f5be8	-0.24937403
191	0xbe2f7e0a	-0.17137924
192	0xbbb4a9fd	-0.0055134282
193	0x3cd55ab9	0.026044236
194	0xbe7db480	-0.24775887
195	0xbdfe8d4c	-0.12429294
196	0x3d2df129	0.042466316
197	0xbdc32c3e	-0.09529923
198	0xbbf207d1	-0.0073861857
199	0xbdb57e34	-0.08861962
200	0x3b3033e8	0.0026886407
201	0x3b81fb89	0.003966753
202	0xbc904fb9	-0.01761614
203	0x3d9c1777	0.07621663
204	0x3da5c53b	0.08094259
205	0x3e13d825	0.14437921
206	0xbe48b44c	-0.19600028
207	0xbe1ec103	-0.15503316
208	0xbd564fe1	-0.052322272
209	0xbe471850	-0.19442868
210	0xbad334fe	-0.0016113815
211	0xbe4db4b4	-0.20088464
212	0x3d84c8d2	0.06483616
213	0xbc0b014c	-0.008484196
214	0xbe4a595a	-0.19760647
215	0x3d86c30d	0.06580172
216	0x3d8538fb	0.06505009
217	0x3d257bca	0.040401258
218	0x3c22b34c	0.009930443
219	0xbd897817	-0.067123584
220	0x3cf32927	0.029682709
221	0xbd3d63e2	-0.046237834
222	0xbda48ee1	-0.080350645
223	0x3caf0a9d	0.021367365
224	0x3d32a4b7	0.043614116
225	0x3d372f25	0.044722695
226	0xbe6cfcb0	-0.23143268
227	0xbb722248	-0.0036946703
228	0xbe17210f	-0.14758705
229	0x3d6f4778	0.058417767
230	0xbc726f78	-0.014797084
231	0xbd3dc724	-0.046332493
232	0x3ddb44c8	0.10706478
233	0xbd94c0fc	-0.07263371
234	0xbdbd5c41	-0.09246112
235	0xbd37b9ef	-0.044855054
236	0x3d502a8c	0.050821826
237	0x3dc1b668	0.09458619
238	0xbd7cf770	-0.061759412
239	0xbcca4d20	-0.02469498
240	0x3c0d6b3c	0.008631524
241	0xbca46c5a	-0.020071197
242	0x3dc59a9a	0.096486285
243	0x3aae5f3c	0.0013303529
244	0xbd985bc0	-0.07439375
245	0xbc4abcd0	-0.012374118
246	0xbe5e691f	-0.21719788
247	0xbe203d2a	-0.15648332
248	0xbd05467a	-0.032537915
249	0xbe38e0f0	-0.18054557
250	0xbdab28f0	-0.083574176
251	0xbd7beebd	-0.061506975
252	0x3e0464b8	0.12929046
253	0x3da0af4b	0.078459345
254	0x3cb8e20c	0.022568725
255	0xbdcc09e3	-0.09962823

dense.0.bias f4 [120]
0	0xbdeaa20b	-0.114566885
1	0x3d9a10f7	0.07522767
2	0xbdc495a9	-0.09598858
3	0x3c7591d8	0.014988385
4	0xbe87adab	-0.26499686
5	0x3eb11fc0	0.34594536
6	0x3e1b3957	0.15158592
7	0xbd6cfab4	-0.057856277
8	0xbec2e68c	-0.38066518
9	0xbe77544b	-0.24153249
10	0x3e70da7a	0.23520842
11	0x3dcfe0f4	0.10150328
12	0x3d981912	0.07426657
13	0xbe41a73a	-0.18911448
14	0x3ef64f6c	0.4810747
15	0x3e36c25e	0.17847583
16	0x3e4c10bf	0.19928263
17	0xbd8316a2	-0.06400801
18	0x3e89e8f9	0.26935557
19	0x3db63a2b	0.088978134
20	0x3ecbcf7d	0.39806738
21	0xbc3d37d5	-0.011548956
22	0x3e5ad8aa	0.21371713
23	0xbdc20837	-0.09474223
24	0x3e32f67f	0.17476843
25	0x3d35f4d3	0.044422936
26	0xbddaef77	-0.106902055
27	0x3d83f14d	0.06442509
28	0x3ee87168	0.45399022
29	0xbdad6795	-0.08467022
30	0x3b9943ae	0.0046772575
31	0xbe4ecec9	-0.2019607
32	0x3e1099b6	0.14121136
33	0x3ceafe49	0.028685706
34	0x3ec48aba	0.3838709
35	0x3ad1214e	0.001595536
36	0x3ca1b88f	0.019741325
37	0x3d0263e3	0.03183354
38	0xbe6ef6dc	-0.23336357
39	0x3e312468	0.17299044
40	0x3f07baa2	0.53019154
41	0x3e9efc68	0.31051946
42	0xbd95871e	-0.07301162
43	0x3e813ee9	0.2524331
44	0x3df46c06	0.11934666
45	0xbe64fe83	-0.22362714
46	0xbb75cc4f	-0.003750581
47	0x3e11cfe8	0.14239466
48	0x3e85475b	0.26031002
49	0x3ea853a8	0.32876325
50	0xbe4ef467	-0.2021042
51	0xbdd67f00	-0.10473442
52	0x3cf91af2	0.030408356
53	0x3dd9aaf6	0.10628311
54	0x3c4a9ea1	0.012366922
55	0xbd73f279	-0.05955741
56	0xbcb18a5f	-0.021672426
57	0xbd354e15	-0.044263918
58	0xbc3afac5	-0.011412327
59	0x3d80a6ce	0.062818155
60	0x3deffa6e	0.117176875
61	0x3e17241f	0.14759873
62	0xbe149313	-0.1450923
63	0x3c931e7e	0.017958876
64	0xbd3589aa	-0.04432074
65	0x3d50ec23	0.051006448
66	0xbd78b28c	-0.06071715
67	0xbdebce05	-0.115139045
68	0x3e92b6d8	0.28655124
69	0x3df9231e	0.12164901
70	0x3eddff7f	0.4335899
71	0x3d7f73d5	0.062366325
72	0xbdb69ebb	-0.08916994
73	0x3ca881da	0.02056973
74	0xbdc23a86	-0.09483819
75	0x3ebf373e	0.37346834
76	0x3d8916f3	0.0669383
77	0x3d6f2087	0.05838063
78	0x3eddeb18	0.43343425
79	0x3eb3eb0d	0.35140267
80	0xbcce9142	-0.025215749
81	0x3e07fa8d	0.13279171
82	0x3e92a5ac	0.28642023
83	0x3e31cedd	0.17364068
84	0xbdfc3fee	-0.12316881
85	0xbee440f7	-0.44580814
86	0xbde0b43a	-0.109718755
87	0xbe7d9483	-0.24763684
88	0xbde3bfb3	-0.11120548
89	0x3e3c7f88	0.18408024
90	0xbca8c354	-0.020600952
91	0xba944f8e	-0.0011315213
92	0xbc7c3101	-0.015392543
93	0x3ed5e051	0.41772702
94	0xbc93d07b	-0.018043747
95	0xbe1ab4bb	-0.15108006
96	0xbd7a482d	-0.06110399
97	0x3cd805ba	0.026369918
98	0xbdfdcd95	-0.12392727
99	0xbab15207	-0.0013528474
100	0xbdb81ef7	-0.08990281
101	0x3ec8325e	0.39100927
102	0x3e87812f	0.26465747
103	0xbe073ecf	-0.13207553
104	0x3edcf285	0.43153778
105	0xbddfbd58	-0.10924786
106	0xbd2bbe66	-0.041929625
107	0x3d322b85	0.043498535
108	0x3e560f94	0.2090438
109	0x3f3749a6	0.71596754
110	0x3db6fd40	0.08935022
111	0xbdbf7a82	-0.093495384
112	0xbd4a0570	-0.04932159
113	0xbd3ef57e	-0.04662084
114	0x3e3deca7	0.18547307
115	0xbca870a2	-0.02056152
116	0x3e9de610	0.30839586
117	0x3dc6a40a	0.09699257
118	0xbd95acf7	-0.07308381
119	0xbdf2f3b8	-0.11862892
